data/DNN/Inlusive_noMetCut_amcatnlo_xyComponent_JetLepXY_50EP__diff_xy_2016_postVFP_20230206-1041genMETweighted.onnx (onnx, 580407 bytes, 24 tensors)

dense_3/kernel:0 f4 [256, 2]
00000000: 3061 3d3e 6958 5cbd 9ad2 13be 1913 f5bd
00000010: 28f3 36be c56d 46be 213a e03d 63a7 2bbe
00000020: 1447 28be bd9f dcbd 48e0 14be e9e4 aebc
00000030: a299 673e 1550 823d af70 193e e94e 053e
00000040: f8c9 05be c0f3 113e 2c05 b63d e1c0 303e
00000050: 5f47 873d 29e2 233e 06a2 88be fbd9 1e3d
00000060: 10f8 3f3e 0c22 95bc f299 163d 6953 8e3e
00000070: c12a b8bd 4d2a 45be 5872 933d dbea 943d
00000080: 388f 3fbd 6e39 2b3e da03 70be 47e2 023e
00000090: fa1d bbbd 1eb8 533e ba1d 883e 6857 2d3e
000000a0: 8839 8e3e eec3 513c f498 08be c668 ed3d
000000b0: 9385 37be f75b e6bd 88fb 98bd 1040 c3bd
000000c0: 2ee0 023e 18b2 74bb 0a5c 80bd b0e4 6cbe
000000d0: ca52 52be f688 c1bd 9dd1 4e3e 195e 75bd
000000e0: 21b7 c7bd f043 1a3e d9ea b13d d3f1 093e
000000f0: 4c86 8cbd 2e8c e83d 7eb2 e2bb 51de 103e
00000100: 71ec 8d3d 7d12 5a3d 6aa0 d0bd 570f 403e
00000110: 7c54 98bc d9f1 203e 857b 59be 9425 babb
00000120: cd65 d1bd 8663 0dbd d349 f039 08e3 f33d
00000130: 5e91 543d f6d9 a13e 26b8 ad3d d695 d03d
00000140: 37d8 6bbe 0dfe cd3c 417a abbd 3e12 31be
00000150: c19a 793e 8506 ef3d 6299 7bbd 5edd 34be
00000160: fbc8 293e 580d 3e3d bd15 0e3e 3af5 d0bc
00000170: 7dd2 763d b366 983d 70d4 0f3e 57cc 37bd
00000180: be22 43bc 0157 4cbe 70db 573e aa15 32be
00000190: 60a9 a83d ba64 4bbe 1f56 61be 03f1 e33c
000001a0: 6a06 aabd 278f 17bb f2ec 563c 4560 7a3e
000001b0: 6c52 443e 49b6 7dbc ee05 69be 4154 1c3c
000001c0: aca1 103d 175f 113e 00fa 763e d970 f9bd
000001d0: 0be1 5c3c 8231 da3d 875c 123e fc8e 85bd
000001e0: b644 6b3c f20c b73d bafe 06be bfb0 e53d
000001f0: 9dad 813e bcb1 55be b00b f4bd de08 b53d
00000200: 8b46 2f3e f5d0 be3c 891f c6bd 2251 e1bd
00000210: 9055 293e 55fb 253e 2c26 023e 8ccc 43be
00000220: 1508 25be 20bd 4c3e 7985 09bd 18e1 303e
00000230: d8ab babe e772 f4bc 1b1c 0c3e f3e9 7cbe
00000240: fbae d5bd 0941 363d 8588 2cbe d16f b93d
00000250: 3b44 b73d f480 f63d 518c 4f3e 49f6 a8bd
00000260: b282 36bd 813f acbd c1d7 9ebe a5d3 c1bc
00000270: bf04 4bbd 7923 52be bfb2 90bd 4621 1fbe
00000280: be93 503d 28f2 313e 2099 853d cdba 163e
00000290: 24e5 ddba 9538 703e d21e e3bd 8c4d 443e
000002a0: 637f d4bd 9264 473e 54ec 99be 7399 383d
000002b0: 3b20 713d f02b 72be 4c38 673e 85f6 39bd
000002c0: 8f78 3dbd 9731 713e dec4 823c 1d9d 98be
000002d0: 987e 2ebd 4fd1 753d 55c0 0a3e 4198 0d3e
000002e0: ef31 22be a3aa 943d b7ba 83be fb86 f53c
000002f0: 10e9 123c 6b89 84be 244f f7bc 8d7c 19be
00000300: 35ab 74bd d5d7 183d 407e 68be 1b0e cabd
00000310: 1ea8 1cbd 62f4 323e 17b8 68be de77 9cbc
00000320: 5241 c3bd 95d8 26be 618b 983e 76e2 3e3d
00000330: 0aa0 013e 95d6 58be 3549 f0bc ed5e 56be
00000340: 2416 93be cb43 eb3c 9d65 5f3e e3dd dc3d
00000350: 4c1b d23d f33f 21be b25e d2bd b585 213e
00000360: 2a78 993d 4a90 1bbe 4ea7 2fbe a53c a038
00000370: 732f ab3d 7625 12be cb33 84bc 5bc2 31be
00000380: 1d20 19be 9210 433e fc6a c6bd cb26 633d
00000390: f681 3b3d 2061 4fbe 6564 63bd d1bd 51be
000003a0: ac47 2f3e ce94 743e ddd4 253e 3033 2e3d
000003b0: 3143 0f3c e065 073e 3589 9abe 5ff2 84bd
000003c0: e1a6 3bbd fb8f 033e 1152 f7bc 7186 5cbe
000003d0: 58d5 59be f735 00be 4b99 783e 2172 173e
000003e0: e790 993e e673 bc3c 2b75 0f3e dfbc 41be
000003f0: 4f69 42be 0349 8a3d 2315 b1be 65c6 34bd
0.18494105 -0.053795252 -0.14435807 -0.11966533 -0.17866194 -0.19377811 0.10948587 -0.16763072
-0.16433364 -0.10772655 -0.14538682 -0.021349387 0.226172 0.06362931 0.14984392 0.13018383
-0.13065326 0.1425314 0.08887705 0.17261077 0.0660541 0.16004242 -0.26686114 0.0387821
0.18746972 -0.018204711 0.036767907 0.27798012 -0.0899253 -0.19254418 0.07199544 0.072713576
-0.046767443 0.16721126 -0.23438969 0.1278163 -0.09136577 0.20675704 0.2658518 0.16927874
0.27778268 0.012803061 -0.13339597 0.115922496 -0.17922048 -0.1124801 -0.07469851 -0.09533703
0.1278083 -0.0037337597 -0.06267555 -0.23134112 -0.20539394 -0.09449951 0.20197149 -0.05990419
-0.09751726 0.15064979 0.08687372 0.13471155 -0.068615526 0.11354862 -0.0069182506 0.14147307
0.06929863 0.053240288 -0.101868466 0.18755852 -0.018594973 0.15717258 -0.21238525 -0.005680749
-0.10224495 -0.03451874 0.0004583137 0.11908537 0.051896445 0.31611603 0.08482389 0.10184829
-0.23031698 0.025145555 -0.083729275 -0.17292115 0.2437544 0.116711654 -0.061425574 -0.1766257
0.16580574 0.046399444 0.1387548 -0.025507558 0.06025933 0.07441463 0.14045882 -0.044872608
-0.011910139 -0.19955064 0.21079803 -0.17391077 0.08235431 -0.19862643 -0.22005509 0.027824884
-0.08302005 -0.0023126097 0.013118016 0.24450786 0.19172066 -0.015485355 -0.22756168 0.009541572
0.035310432 0.1419643 0.24118805 -0.12179727 0.013481389 0.10653974 0.14293109 -0.06521413
0.014359644 0.08938016 -0.13183108 0.11215352 0.2532777 -0.20868582 -0.11916292 0.08839582
0.17116754 0.023292998 -0.096739836 -0.11001803 0.16536546 0.16209157 0.12709874 -0.19120997
-0.16116364 0.1999402 -0.033574555 0.17273366 -0.3645923 -0.029839946 0.13682596 -0.2469862
-0.104337655 0.044495616 -0.16848953 0.090545304 0.08948561 0.120363146 0.2026837 -0.082501
-0.044558235 -0.0841055 -0.31023982 -0.02366049 -0.049565073 -0.20521344 -0.07065343 -0.15540037
0.050922148 0.17377532 0.06523347 0.14719696 -0.0016929251 0.23459084 -0.11089863 0.19170207
-0.103758596 0.19471958 -0.30063117 0.045068216 0.058868628 -0.23649573 0.2258007 -0.045401115
-0.04625755 0.23554073 0.015963014 -0.29807368 -0.042601198 0.060014065 0.13549931 0.13827612
-0.1583936 0.07259109 -0.2572839 0.02997159 0.008966699 -0.25886092 -0.030189104 -0.14988919
-0.05973359 0.03731521 -0.2270441 -0.09865972 -0.038246267 0.17476037 -0.22726475 -0.019100126
-0.09533943 -0.16293557 0.29793838 0.04660269 0.12658706 -0.21175607 -0.029331783 -0.20934649
-0.2872783 0.02871885 0.21816106 0.10784509 0.10259113 -0.15747051 -0.10271968 0.15773661
0.074936226 -0.1519176 -0.17153665 7.6406905e-05 0.083586596 -0.14272103 -0.016137978 -0.17359297
-0.14953656 0.1904929 -0.096883744 0.055456918 0.045778237 -0.20251894 -0.055515666 -0.20482565
0.17117184 0.2388489 0.16194482 0.042529285 0.008744047 0.13222456 -0.30182806 -0.06491541
-0.045813445 0.12847893 -0.0301905 -0.2153566 -0.2127279 -0.12520586 0.24277227 0.1478963
0.29993364 0.023004483 0.1400954 -0.18919705 -0.18985485 0.06752207 -0.3458644 -0.044134516

dense_3/bias:0 f4 [2]
00000000: ca17 20bd fd41 b13d
-0.039085187 0.086551644

scale f4 [256]
00000000: ba5a 343f c298 403f 5d66 303f c2fb 163f
00000010: 98d3 193f 2b16 483f 5d31 303f af6a 0c3f
00000020: caf9 0a3f ad32 0b3f 0f89 093f cff3 123f
00000030: 0012 163f 4d16 1b3f 4293 0e3f 771c 2b3f
00000040: 9619 fd3e 614f f53e efab 0f3f bd29 0a3f
00000050: 3690 043f 4960 043f c4ad 693f 9459 253f
00000060: c2f2 3c3f 7eb3 243f 8e09 193f 4971 113f
00000070: 9aac 0a3f 82cc 153f 37e0 0c3f 66f0 1e3f
00000080: ab0c 4d3f 4c9a 263f 3955 203f aa52 173f
00000090: 67ad 5d3f d89a 163f b37e 0f3f 64f1 093f
000000a0: 6624 053f 063a 083f d2f1 1c3f 8a1f 063f
000000b0: 30f4 113f f8eb 1a3f 3512 2f3f 6f1b 223f
000000c0: 8745 0d3f 08ca 283f 52ee 2a3f a33c 073f
000000d0: c245 283f 3f4e 343f 0668 0a3f bb76 0f3f
000000e0: b848 023f 4991 043f 2082 293f 654c 253f
000000f0: a526 263f ee28 083f 287c 033f fb7b 1e3f
00000100: 0b94 153f c304 1e3f 4cda 113f 568b 163f
00000110: abcf 0d3f 3ea5 033f eb39 1a3f 6400 fd3e
00000120: c0ca 2f3f 875e 473f 5fb9 1b3f e1b8 273f
00000130: 0617 2a3f 8ea6 603f ede6 253f c527 013f
00000140: 9905 0a3f de56 073f 477e 0a3f f0a9 2a3f
00000150: 1056 223f 945d 103f ec42 063f 0767 173f
00000160: 7c0a 0a3f eb74 233f 40a7 2f3f 0f32 ff3e
00000170: 0615 0c3f 2459 4e3f 5a60 3f3f aff9 173f
00000180: 3a43 543f aec3 fe3e d851 f03e d06c 123f
00000190: 42f7 f83e ac1a 163f 6bad 143f ed73 1d3f
000001a0: 72a7 203f 263e 2c3f cf36 173f a1bb 0a3f
000001b0: c614 1a3f d32f 113f 5b60 193f f85a 123f
000001c0: de19 fb3e c477 3a3f d137 083f b66c 1d3f
000001d0: 5e70 713f c43f 293f 0cc9 0f3f d58f 223f
000001e0: db6e 133f 52fc 103f f483 163f 8afa 3b3f
000001f0: d822 043f 3a10 253f 6ce3 0b3f 4ccf 173f
00000200: ba06 213f a235 f73e 314b 2b3f 7404 1c3f
00000210: a0df fb3e b0bb 193f 73cd 133f 3ce8 ff3e
00000220: 5231 333f 125b 0a3f 57e5 0c3f 1450 353f
00000230: 9161 0a3f 7245 373f 24e4 0d3f 9e9b 193f
00000240: 66ee 173f b069 193f 6f9d 183f 7e34 163f
00000250: 5df0 0e3f 84f2 063f 7118 283f 03ce 4c3f
00000260: f6a5 083f dcec 083f 8adb 233f 44bf 123f
00000270: c540 fb3e 56c2 1f3f a958 393f 087f 2a3f
00000280: 6b6b 1c3f ba1b 223f ffaa 103f 2698 083f
00000290: 1364 163f ef41 293f 6da0 083f 9f25 113f
000002a0: 988d 163f e17e f93e 40ff 0f3f 3d01 093f
000002b0: 2c0b 153f 413b 1e3f 329a 2c3f 488d 1a3f
000002c0: 9533 563f 9871 0e3f 7444 063f 9d77 343f
000002d0: c901 233f 27cc 0e3f 1223 1e3f c4e3 233f
000002e0: 01de 163f ef0a 653f 913d 253f ded8 023f
000002f0: c392 133f bca2 0c3f cca1 153f a342 043f
00000300: c50c 263f d589 143f 975f 043f 2ea6 073f
00000310: c163 0a3f f868 1e3f 983b 0b3f 84df f23e
00000320: 8024 053f e85b 183f ac98 0d3f fa70 2d3f
00000330: ddab 323f 2001 1e3f 70f9 fc3e 86ca 1f3f
00000340: 1dff 113f e1e7 073f 3945 243f ea94 f33e
00000350: 1dec 203f 572b 063f 02cf ad3f 6ae3 133f
00000360: 3cfc 033f 3787 253f 30ba 2c3f 074d 363f
00000370: ac55 233f e359 723f 0a95 563f b136 093f
00000380: df2f 2c3f 6696 0f3f 1979 203f 2139 fd3e
00000390: cfde 1f3f 9e6c 1e3f 6ae3 113f 56ec 0c3f
000003a0: 97e9 173f 960a 233f 335e 2e3f 6956 013f
000003b0: c111 183f f088 3e3f b678 073f 5933 283f
000003c0: 32a1 033f add0 123f 428d 1f3f 9618 193f
000003d0: 8256 3f3f 828b 443f b0d5 0f3f 2f99 0f3f
000003e0: 6e6d 113f a8e2 093f efdf 213f 57ae 413f
000003f0: dfe4 353f 8bb1 2e3f 389b 1c3f 3f1d 823f
0.7045094 0.7523309 0.68906194 0.589779 0.6008849 0.78158826 0.6882532 0.54850286
0.542874 0.543742 0.5372476 0.5740327 0.58621216 0.60580903 0.5569345 0.6684031
0.49433583 0.47912124 0.56121725 0.5396994 0.5178255 0.5170942 0.9128077 0.6458981
0.7380792 0.64336383 0.59780204 0.56813484 0.5416962 0.5851518 0.55029625 0.6208557
0.80097455 0.6507919 0.6263004 0.5911051 0.86592716 0.5883002 0.560527 0.5388396
0.52008665 0.53213537 0.6130649 0.52391875 0.57013226 0.6051631 0.68387157 0.6332311
0.55184215 0.65933275 0.667699 0.528269 0.6573144 0.70431894 0.5406498 0.56040543
0.5089221 0.5178419 0.6621418 0.64569694 0.64902717 0.53187454 0.5136132 0.6190793
0.5842902 0.61726016 0.5697372 0.5880636 0.55395 0.51424015 0.60244626 0.4941436
0.68668747 0.7787861 0.6082973 0.6551648 0.6644138 0.8775414 0.6480549 0.5045131
0.5391479 0.52866924 0.54098934 0.66665554 0.6341257 0.5639279 0.52445865 0.5914158
0.5392225 0.6385028 0.6861458 0.4984288 0.5471958 0.8060477 0.74756396 0.5936536
0.8291508 0.49758667 0.46937442 0.57197285 0.48626143 0.5863445 0.58077115 0.61505014
0.627555 0.6728233 0.59068006 0.5419255 0.6018795 0.567136 0.5991265 0.5717006
0.49043173 0.72839 0.5321017 0.61494005 0.94312084 0.66112924 0.5616615 0.6350072
0.5759103 0.5663501 0.58795094 0.7342917 0.5161567 0.64477885 0.54643893 0.59300685
0.6290089 0.48283106 0.6691161 0.60944295 0.4919405 0.60052013 0.57735366 0.49981868
0.6999713 0.5404521 0.55037445 0.70825315 0.54055125 0.7159034 0.5542624 0.6000308
0.5934814 0.5992689 0.59615225 0.58673847 0.55835515 0.527138 0.65662295 0.8000185
0.53378236 0.5348642 0.64006865 0.573231 0.49072853 0.6240591 0.7240091 0.66600084
0.61101407 0.6332356 0.5651092 0.5335716 0.5874645 0.6611623 0.5336979 0.5669803
0.58809805 0.48729613 0.56248856 0.53517514 0.5822017 0.61809164 0.67422783 0.6037183
0.8367246 0.5564208 0.524482 0.70495015 0.636746 0.5578026 0.61772263 0.6401942
0.589325 0.8946981 0.6454707 0.51112163 0.57645816 0.5493581 0.5845001 0.5166418
0.64863235 0.58022815 0.5170836 0.52987945 0.5405846 0.6187892 0.5438781 0.47436154
0.5200882 0.5951524 0.55311084 0.67750514 0.6979349 0.61720467 0.49409056 0.624184
0.57029897 0.53088194 0.64168125 0.4757455 0.6286028 0.5240988 1.3578799 0.5776888
0.51556754 0.64659446 0.674716 0.71211284 0.638026 0.94668406 0.83821166 0.5359908
0.67260545 0.56088865 0.6268478 0.49457648 0.62449354 0.61884487 0.5698763 0.5504812
0.59340805 0.6368803 0.68112487 0.50522476 0.5940209 0.744277 0.52918565 0.6570335
0.5141784 0.57349664 0.6232492 0.5980314 0.74741375 0.7677537 0.56185436 0.56093115
0.568076 0.53861475 0.6323232 0.75656646 0.71052355 0.6823966 0.61174345 1.0165175

bias f4 [256]
00000000: 3cec 023e 4281 a4bd b018 5e3e bc78 88be
00000010: 2176 22bd a042 703e 0fa2 dbbd a401 9d3b
00000020: 2e4f 34be 02f8 66be b6ef e6be 1631 86be
00000030: e7de cebe 032e 05be 72c2 41be 4ac9 8cbe
00000040: 7abf 9cbe 2cf4 7ebe 37ed 80be 22f5 fbbd
00000050: 475b e13d 0455 bcbe d73d 243f 90d5 bc3b
00000060: 1389 b1be 8285 ecbd 864e 0ebe b8ff 21be
00000070: b4d6 28be a636 c1bb 5034 7bbe 5d09 01be
00000080: d8cd 2bbe 5426 3d3d b031 59be 8265 46be
00000090: 5ec0 c63e 386a bebe f25b a8be 6ab0 51bc
000000a0: d6cc 83be a8ff 8dbd bc66 39be 2801 d43c
000000b0: f2a7 08bf 974a 1cbe 6c61 b9bd 9b11 12be
000000c0: 8abd 74be 28af 39bf 093c 1bbf 4632 c8be
000000d0: f1b6 e33d 985d c2bb eabc c4be 62d6 0dbd
000000e0: 3e82 24be 56d7 f2be 1f8f acbe f178 89be
000000f0: 8343 87be 1e5b d3be 1bbb 93be 5cad 98be
00000100: 108c fe3c 6477 363e 90ad c6bd 69c4 e7be
00000110: 0345 95be e329 96be 4761 1c3e 3e9b b2be
00000120: e4c6 35be 9941 a6be 4e79 16be 8252 83be
00000130: 8079 083e 8d1d 66be 7d35 37bf d2ff 253e
00000140: 9a03 80be d4e1 fcbe 1dd9 11bf 12e2 2abf
00000150: 1511 00bf a9f9 06be 976a 2abe 867b d8be
00000160: ffa6 04be 85da 10bf a1d7 02be d989 d5bd
00000170: 4799 6cbe c28c c3be de51 a3be 0a98 1bbe
00000180: f56e c7bd bc67 a83d 797f 2abe 9e29 e43d
00000190: b7c9 ab3e e445 2bbe 26e2 1fbf b4b3 6fbd
000001a0: 0786 ce3d 9455 cdbd f991 dcbe 3e92 09bf
000001b0: d4da f1bd 4069 18be 59cc 37be faa7 c2be
000001c0: 01e8 79be 75bd b23d d486 d93d 7a34 41bd
000001d0: 3307 04be 05fb 92be ea6b a0be a275 673d
000001e0: e613 8bbe fb8e 4abd 48d4 c43e fbd1 db3d
000001f0: 6a06 dbbe 2696 b7be 69d3 fabc bef8 6abd
00000200: 3281 67be 7e1d 4ebe 2e6e 52be 1c0c 31bf
00000210: 3d9a 20be 7c99 173d c95e aebe 5888 abbe
00000220: 2103 d6bd 9ff1 743e a780 14bf dc55 13bf
00000230: bdcd eabe 440d 93be 36d5 cbbe 83f6 32be
00000240: 1eba 3cbe 3767 f5be 7619 33be 6481 a4be
00000250: 3e1b 74be 46a6 3b3e 8a5d 1b3e dc6c 643e
00000260: 3b30 0cbf 6ee5 c0be ce9e 2fbf 3f1b 00bf
00000270: ec53 d4bd 2ffd a0be 35d1 05be ff02 3a3e
00000280: 1608 6c3d 266c 04bf ba6b fbbe 5fd3 96bd
00000290: 065d 57be fdc9 6fbe 4bae 7ebe cc9f 07be
000002a0: d55c 92be ffe2 b1be 171d acbe 740a 67be
000002b0: c9eb b9be f876 ffbe 63c9 443d 6c6a 1fbf
000002c0: b04a 8a3e 6955 b8be ead8 7dbe 4862 e03d
000002d0: ba98 743d 47f5 61bd f61b 69be aa5d 0bbf
000002e0: a134 b6be f8c5 c0bd d693 00bf f064 ffbe
000002f0: 3bfb 4a3d 8aa8 79be 815d 8bbe dba9 cfbe
00000300: 5c5c debe d77f 44bd b044 8abe a6e3 18be
00000310: 54e2 51be b0e2 bbbd 4c62 4a3d 9c79 88be
00000320: 0261 f4bd a823 3ebe f066 28be 720e a2be
00000330: 4f18 13bf 90cd 9cbe 252c 6dbe ee5e 993d
00000340: 2faa 38be 3b83 9fbe 22d2 5e3e ddd9 91be
00000350: 6bb0 9ebe b55f 08bf 8e19 b9bd 82f1 c0be
00000360: 4c8e e7bc 1bcf 6ebe 88ae 64be 66ec 88be
00000370: 8a2c 343e 70ee 49be 280a 813e 30a3 9bbe
00000380: 1a47 2abe 0007 e7be 65d5 01bd de78 bdbe
00000390: 4e29 dbbe a529 83be 6cf7 8f3e bcf9 1fbf
000003a0: 469b bc3d bbb9 c3be 77f1 a4be 46be f6bc
000003b0: 644d c7be e2ed 893e b04e b1bd dec3 8cbe
000003c0: 30a9 0bbf 165b 623d 0b8f 94be 24b0 b8bd
000003d0: e7eb 573d bd76 08be c1b8 afbd f763 21bf
000003e0: fae1 78be 8847 00bf 122c d23d 8952 1ebf
000003f0: 9853 31be f002 1ebf 2094 04bf a77e 9abd
0.12785429 -0.080324665 0.21689105 -0.26654613 -0.039663438 0.23462915 -0.107242696 0.0047914553
-0.1760833 -0.22555545 -0.4510476 -0.26209325 -0.40404436 -0.13005833 -0.18921831 -0.2749732
-0.30614835 -0.24897832 -0.2518098 -0.12302615 0.11003738 -0.36783612 0.6415686 0.0057627633
-0.34674892 -0.11548902 -0.13897142 -0.15820205 -0.16488153 -0.005896407 -0.24531674 -0.12601228
-0.16777742 0.04617913 -0.2121036 -0.1937466 0.3881864 -0.37190413 -0.3288265 -0.012798408
-0.25742215 -0.06933528 -0.18105596 0.025879458 -0.53381264 -0.15262829 -0.09051785 -0.14264528
-0.23900428 -0.7253289 -0.6063848 -0.39100856 0.11118878 -0.0059315674 -0.3842538 -0.03462828
-0.16065308 -0.47429913 -0.33702943 -0.26850083 -0.26418695 -0.41280454 -0.28853688 -0.29819763
0.031072646 0.17818981 -0.09701073 -0.45267037 -0.29154214 -0.29328832 0.15271483 -0.34884065
-0.17751652 -0.32471922 -0.14694712 -0.25648886 0.13327599 -0.2247221 -0.7156599 0.16210869
-0.25002748 -0.49391043 -0.56971914 -0.66751206 -0.50026065 -0.13181175 -0.16642223 -0.4228174
-0.12954329 -0.56583434 -0.12777568 -0.10426683 -0.23105346 -0.38193327 -0.31898397 -0.15194717
-0.0973796 0.08222911 -0.1665019 0.1114075 0.33552334 -0.1672588 -0.6245445 -0.058520988
0.100841574 -0.10026088 -0.43080118 -0.5373877 -0.11809316 -0.148839 -0.17949046 -0.3801878
-0.24404909 0.08727542 0.106214195 -0.047169186 -0.12893371 -0.28707138 -0.31332332 0.056508668
-0.2716362 -0.049452763 0.38443208 0.1073341 -0.4277833 -0.35856742 -0.030618386 -0.057366125
-0.22607878 -0.20128438 -0.20549843 -0.691591 -0.15683837 0.03701161 -0.3405669 -0.3350246
-0.104498155 0.23920296 -0.5800881 -0.57552886 -0.4586009 -0.28721058 -0.39811105 -0.1747685
-0.18430373 -0.4793031 -0.17490181 -0.32129967 -0.23838517 0.18325147 0.15172401 0.22307152
-0.54761094 -0.3767504 -0.6860169 -0.50041574 -0.10367569 -0.31443164 -0.13068087 0.18165205
0.0576249 -0.5172752 -0.49105626 -0.073645346 -0.2103158 -0.23416896 -0.24871175 -0.13244551
-0.2858645 -0.34743497 -0.33615944 -0.22562581 -0.36312702 -0.49895453 0.04804362 -0.6227176
0.27010107 -0.36002663 -0.24789777 0.10956246 0.059715964 -0.055165555 -0.22764573 -0.54439795
-0.35587028 -0.094127595 -0.5022558 -0.49881697 0.049556 -0.24380699 -0.27219775 -0.40559277
-0.4342984 -0.04797348 -0.2700553 -0.14930591 -0.20496494 -0.091740966 0.04941015 -0.2665528
-0.11932565 -0.1856829 -0.16445518 -0.31651646 -0.57458967 -0.30625582 -0.23161371 0.074888095
-0.1803367 -0.31154808 0.21759847 -0.2848653 -0.3099397 -0.5327104 -0.09038077 -0.37684256
-0.028266095 -0.23321192 -0.22332203 -0.26742858 0.17595115 -0.19719863 0.2520306 -0.3039794
-0.16628686 -0.45122528 -0.03169765 -0.37006277 -0.4280495 -0.2561771 0.28118455 -0.6249044
0.092093036 -0.3822764 -0.32215473 -0.030120026 -0.38926232 0.26939303 -0.086575866 -0.27493185
-0.54555035 0.055262648 -0.29015383 -0.09017971 0.05271521 -0.13326545 -0.08580161 -0.6304316
-0.24304953 -0.5010915 0.10262312 -0.6184469 -0.17317045 -0.6172323 -0.5178852 -0.07543688

mean f4 [256]
00000000: 0000 0080 0000 0000 0000 0080 0000 0000
00000010: 0000 0080 0000 0080 0000 0000 0000 0000
00000020: 0000 0000 0000 0000 0000 0000 0000 0000
00000030: 0000 0000 0000 0000 0000 0000 0000 0000
00000040: 0000 0000 0000 0000 0000 0000 0000 0000
00000050: 0000 0080 0000 0000 0000 0080 0000 0080
00000060: 0000 0000 0000 0000 0000 0000 0000 0080
00000070: 0000 0000 0000 0000 0000 0000 0000 0000
00000080: 0000 0080 0000 0080 0000 0000 0000 0000
00000090: 0000 0080 0000 0000 0000 0000 0000 0000
000000a0: 0000 0000 0000 0080 0000 0000 0000 0080
000000b0: 0000 0000 0000 0000 0000 0000 0000 0000
000000c0: 0000 0000 0000 0000 0000 0000 0000 0000
000000d0: 0000 0080 0000 0000 0000 0000 0000 0000
000000e0: 0000 0000 0000 0000 0000 0000 0000 0000
000000f0: 0000 0000 0000 0000 0000 0000 0000 0000
00000100: 0000 0080 0000 0080 0000 0000 0000 0000
00000110: 0000 0000 0000 0000 0000 0080 0000 0000
00000120: 0000 0000 0000 0000 0000 0000 0000 0000
00000130: 0000 0080 0000 0080 0000 0000 0000 0080
00000140: 0000 0000 0000 0000 0000 0000 0000 0000
00000150: 0000 0000 0000 0000 0000 0000 0000 0000
00000160: 0000 0000 0000 0000 0000 0000 0000 0000
00000170: 0000 0000 0000 0000 0000 0000 0000 0000
00000180: 0000 0080 0000 0080 0000 0000 0000 0080
00000190: 0000 0080 0000 0000 0000 0000 0000 0000
000001a0: 0000 0080 0000 0080 0000 0000 0000 0000
000001b0: 0000 0000 0000 0000 0000 0000 0000 0000
000001c0: 0000 0000 0000 0080 0000 0080 0000 0080
000001d0: 0000 0000 0000 0000 0000 0000 0000 0080
000001e0: 0000 0000 0000 0000 0000 0080 0000 0080
000001f0: 0000 0000 0000 0000 0000 0000 0000 0000
00000200: 0000 0000 0000 0000 0000 0000 0000 0000
00000210: 0000 0000 0000 0080 0000 0000 0000 0000
00000220: 0000 0000 0000 0080 0000 0000 0000 0000
00000230: 0000 0000 0000 0000 0000 0000 0000 0000
00000240: 0000 0000 0000 0000 0000 0000 0000 0000
00000250: 0000 0000 0000 0080 0000 0080 0000 0080
00000260: 0000 0000 0000 0000 0000 0000 0000 0000
00000270: 0000 0080 0000 0000 0000 0000 0000 0080
00000280: 0000 0080 0000 0000 0000 0000 0000 0080
00000290: 0000 0000 0000 0000 0000 0000 0000 0080
000002a0: 0000 0000 0000 0000 0000 0000 0000 0000
000002b0: 0000 0000 0000 0000 0000 0080 0000 0000
000002c0: 0000 0080 0000 0000 0000 0000 0000 0080
000002d0: 0000 0080 0000 0000 0000 0000 0000 0000
000002e0: 0000 0000 0000 0000 0000 0000 0000 0000
000002f0: 0000 0080 0000 0080 0000 0000 0000 0000
00000300: 0000 0000 0000 0080 0000 0000 0000 0000
00000310: 0000 0000 0000 0000 0000 0080 0000 0000
00000320: 0000 0000 0000 0000 0000 0000 0000 0000
00000330: 0000 0000 0000 0000 0000 0000 0000 0080
00000340: 0000 0080 0000 0000 0000 0080 0000 0000
00000350: 0000 0000 0000 0000 0000 0080 0000 0000
00000360: 0000 0000 0000 0000 0000 0000 0000 0000
00000370: 0000 0080 0000 0000 0000 0080 0000 0000
00000380: 0000 0080 0000 0000 0000 0080 0000 0000
00000390: 0000 0000 0000 0000 0000 0080 0000 0000
000003a0: 0000 0080 0000 0000 0000 0000 0000 0080
000003b0: 0000 0000 0000 0080 0000 0080 0000 0000
000003c0: 0000 0000 0000 0080 0000 0000 0000 0080
000003d0: 0000 0080 0000 0000 0000 0080 0000 0000
000003e0: 0000 0000 0000 0000 0000 0080 0000 0000
000003f0: 0000 0000 0000 0000 0000 0000 0000 0080
-0.0 0.0 -0.0 0.0 -0.0 -0.0 0.0 0.0
0.0 0.0 0.0 0.0 0.0 0.0 0.0 0.0
0.0 0.0 0.0 0.0 -0.0 0.0 -0.0 -0.0
0.0 0.0 0.0 -0.0 0.0 0.0 0.0 0.0
-0.0 -0.0 0.0 0.0 -0.0 0.0 0.0 0.0
0.0 -0.0 0.0 -0.0 0.0 0.0 0.0 0.0
0.0 0.0 0.0 0.0 -0.0 0.0 0.0 0.0
0.0 0.0 0.0 0.0 0.0 0.0 0.0 0.0
-0.0 -0.0 0.0 0.0 0.0 0.0 -0.0 0.0
0.0 0.0 0.0 0.0 -0.0 -0.0 0.0 -0.0
0.0 0.0 0.0 0.0 0.0 0.0 0.0 0.0
0.0 0.0 0.0 0.0 0.0 0.0 0.0 0.0
-0.0 -0.0 0.0 -0.0 -0.0 0.0 0.0 0.0
-0.0 -0.0 0.0 0.0 0.0 0.0 0.0 0.0
0.0 -0.0 -0.0 -0.0 0.0 0.0 0.0 -0.0
0.0 0.0 -0.0 -0.0 0.0 0.0 0.0 0.0
0.0 0.0 0.0 0.0 0.0 -0.0 0.0 0.0
0.0 -0.0 0.0 0.0 0.0 0.0 0.0 0.0
0.0 0.0 0.0 0.0 0.0 -0.0 -0.0 -0.0
0.0 0.0 0.0 0.0 -0.0 0.0 0.0 -0.0
-0.0 0.0 0.0 -0.0 0.0 0.0 0.0 -0.0
0.0 0.0 0.0 0.0 0.0 0.0 -0.0 0.0
-0.0 0.0 0.0 -0.0 -0.0 0.0 0.0 0.0
0.0 0.0 0.0 0.0 -0.0 -0.0 0.0 0.0
0.0 -0.0 0.0 0.0 0.0 0.0 -0.0 0.0
0.0 0.0 0.0 0.0 0.0 0.0 0.0 -0.0
-0.0 0.0 -0.0 0.0 0.0 0.0 -0.0 0.0
0.0 0.0 0.0 0.0 -0.0 0.0 -0.0 0.0
-0.0 0.0 -0.0 0.0 0.0 0.0 -0.0 0.0
-0.0 0.0 0.0 -0.0 0.0 -0.0 -0.0 0.0
0.0 -0.0 0.0 -0.0 -0.0 0.0 -0.0 0.0
0.0 0.0 -0.0 0.0 0.0 0.0 0.0 -0.0

var f4 [256]
00000000: 0000 803f 0000 803f 0000 803f 0000 803f
00000010: 0000 803f 0000 803f 0000 803f 0000 803f
00000020: 0000 803f 0000 803f 0000 803f 0000 803f
00000030: 0000 803f 0000 803f 0000 803f 0000 803f
00000040: 0000 803f 0000 803f 0000 803f 0000 803f
00000050: 0000 803f 0000 803f 0000 803f 0000 803f
00000060: 0000 803f 0000 803f 0000 803f 0000 803f
00000070: 0000 803f 0000 803f 0000 803f 0000 803f
00000080: 0000 803f 0000 803f 0000 803f 0000 803f
00000090: 0000 803f 0000 803f 0000 803f 0000 803f
000000a0: 0000 803f 0000 803f 0000 803f 0000 803f
000000b0: 0000 803f 0000 803f 0000 803f 0000 803f
000000c0: 0000 803f 0000 803f 0000 803f 0000 803f
000000d0: 0000 803f 0000 803f 0000 803f 0000 803f
000000e0: 0000 803f 0000 803f 0000 803f 0000 803f
000000f0: 0000 803f 0000 803f 0000 803f 0000 803f
00000100: 0000 803f 0000 803f 0000 803f 0000 803f
00000110: 0000 803f 0000 803f 0000 803f 0000 803f
00000120: 0000 803f 0000 803f 0000 803f 0000 803f
00000130: 0000 803f 0000 803f 0000 803f 0000 803f
00000140: 0000 803f 0000 803f 0000 803f 0000 803f
00000150: 0000 803f 0000 803f 0000 803f 0000 803f
00000160: 0000 803f 0000 803f 0000 803f 0000 803f
00000170: 0000 803f 0000 803f 0000 803f 0000 803f
00000180: 0000 803f 0000 803f 0000 803f 0000 803f
00000190: 0000 803f 0000 803f 0000 803f 0000 803f
000001a0: 0000 803f 0000 803f 0000 803f 0000 803f
000001b0: 0000 803f 0000 803f 0000 803f 0000 803f
000001c0: 0000 803f 0000 803f 0000 803f 0000 803f
000001d0: 0000 803f 0000 803f 0000 803f 0000 803f
000001e0: 0000 803f 0000 803f 0000 803f 0000 803f
000001f0: 0000 803f 0000 803f 0000 803f 0000 803f
00000200: 0000 803f 0000 803f 0000 803f 0000 803f
00000210: 0000 803f 0000 803f 0000 803f 0000 803f
00000220: 0000 803f 0000 803f 0000 803f 0000 803f
00000230: 0000 803f 0000 803f 0000 803f 0000 803f
00000240: 0000 803f 0000 803f 0000 803f 0000 803f
00000250: 0000 803f 0000 803f 0000 803f 0000 803f
00000260: 0000 803f 0000 803f 0000 803f 0000 803f
00000270: 0000 803f 0000 803f 0000 803f 0000 803f
00000280: 0000 803f 0000 803f 0000 803f 0000 803f
00000290: 0000 803f 0000 803f 0000 803f 0000 803f
000002a0: 0000 803f 0000 803f 0000 803f 0000 803f
000002b0: 0000 803f 0000 803f 0000 803f 0000 803f
000002c0: 0000 803f 0000 803f 0000 803f 0000 803f
000002d0: 0000 803f 0000 803f 0000 803f 0000 803f
000002e0: 0000 803f 0000 803f 0000 803f 0000 803f
000002f0: 0000 803f 0000 803f 0000 803f 0000 803f
00000300: 0000 803f 0000 803f 0000 803f 0000 803f
00000310: 0000 803f 0000 803f 0000 803f 0000 803f
00000320: 0000 803f 0000 803f 0000 803f 0000 803f
00000330: 0000 803f 0000 803f 0000 803f 0000 803f
00000340: 0000 803f 0000 803f 0000 803f 0000 803f
00000350: 0000 803f 0000 803f 0000 803f 0000 803f
00000360: 0000 803f 0000 803f 0000 803f 0000 803f
00000370: 0000 803f 0000 803f 0000 803f 0000 803f
00000380: 0000 803f 0000 803f 0000 803f 0000 803f
00000390: 0000 803f 0000 803f 0000 803f 0000 803f
000003a0: 0000 803f 0000 803f 0000 803f 0000 803f
000003b0: 0000 803f 0000 803f 0000 803f 0000 803f
000003c0: 0000 803f 0000 803f 0000 803f 0000 803f
000003d0: 0000 803f 0000 803f 0000 803f 0000 803f
000003e0: 0000 803f 0000 803f 0000 803f 0000 803f
000003f0: 0000 803f 0000 803f 0000 803f 0000 803f
1.0 1.0 1.0 1.0 1.0 1.0 1.0 1.0
1.0 1.0 1.0 1.0 1.0 1.0 1.0 1.0
1.0 1.0 1.0 1.0 1.0 1.0 1.0 1.0
1.0 1.0 1.0 1.0 1.0 1.0 1.0 1.0
1.0 1.0 1.0 1.0 1.0 1.0 1.0 1.0
1.0 1.0 1.0 1.0 1.0 1.0 1.0 1.0
1.0 1.0 1.0 1.0 1.0 1.0 1.0 1.0
1.0 1.0 1.0 1.0 1.0 1.0 1.0 1.0
1.0 1.0 1.0 1.0 1.0 1.0 1.0 1.0
1.0 1.0 1.0 1.0 1.0 1.0 1.0 1.0
1.0 1.0 1.0 1.0 1.0 1.0 1.0 1.0
1.0 1.0 1.0 1.0 1.0 1.0 1.0 1.0
1.0 1.0 1.0 1.0 1.0 1.0 1.0 1.0
1.0 1.0 1.0 1.0 1.0 1.0 1.0 1.0
1.0 1.0 1.0 1.0 1.0 1.0 1.0 1.0
1.0 1.0 1.0 1.0 1.0 1.0 1.0 1.0
1.0 1.0 1.0 1.0 1.0 1.0 1.0 1.0
1.0 1.0 1.0 1.0 1.0 1.0 1.0 1.0
1.0 1.0 1.0 1.0 1.0 1.0 1.0 1.0
1.0 1.0 1.0 1.0 1.0 1.0 1.0 1.0
1.0 1.0 1.0 1.0 1.0 1.0 1.0 1.0
1.0 1.0 1.0 1.0 1.0 1.0 1.0 1.0
1.0 1.0 1.0 1.0 1.0 1.0 1.0 1.0
1.0 1.0 1.0 1.0 1.0 1.0 1.0 1.0
1.0 1.0 1.0 1.0 1.0 1.0 1.0 1.0
1.0 1.0 1.0 1.0 1.0 1.0 1.0 1.0
1.0 1.0 1.0 1.0 1.0 1.0 1.0 1.0
1.0 1.0 1.0 1.0 1.0 1.0 1.0 1.0
1.0 1.0 1.0 1.0 1.0 1.0 1.0 1.0
1.0 1.0 1.0 1.0 1.0 1.0 1.0 1.0
1.0 1.0 1.0 1.0 1.0 1.0 1.0 1.0
1.0 1.0 1.0 1.0 1.0 1.0 1.0 1.0

dense_2/kernel:0 f4 [512, 256]
00000000: 2653 d5bc 0a36 22ba 6243 aebb 3439 fabb
00000010: a840 05bc ae3c 87bc 0771 6f3b 780c 7a3c
00000020: 8601 b7bc 985f 6c3c 505d 9c3c cd0f 08bc
00000030: 2c1e c0ba c70c 66bc 6c90 3bbc 8bf5 303c
00000040: 1834 703c e0aa 1c3d 6047 ee3b f59e 843d
00000050: 386d a33c 179b 98bb d161 08bd 4417 c6bc
00000060: d78c 9f3c e379 43bd b1b6 3dbc 83cd 78bc
00000070: 863e 4a3c 05f0 6d3c 37b5 f73b efbb a23b
00000080: f0a0 233c 59d5 a6b9 e75b 733c e325 20bb
00000090: cea0 9dbc 7b91 a43c a9d4 833c cefe f13b
000000a0: c1d1 5fba 4858 aebb dc02 bb3c c7dd e5bc
000000b0: b9fd 0c3d 8c93 553c 6097 40bc ea35 3ebb
000000c0: c243 d7bb 5430 0ebc 5ed4 903c 884a c5bb
000000d0: 7e58 9ebc e39c 443c ba91 653c 9378 6b3b
000000e0: 5161 e93c 1f30 143c 05c4 46ba b2a2 903b
000000f0: bd7c bf3c d268 b73c 21ad febb 0fdd 853c
00000100: ad9d bcbb b5eb d9bc a10e bc3c 9d57 9e3b
00000110: 6276 343c 6082 8b3c bcda 73bc f4a5 95bb
00000120: 1e6a 3a3c 9a8c fabb 1eb9 273d f5be bd3b
00000130: 6bfa e7bc dfe7 803c cda0 b63b 92ca f6bc
00000140: 96a0 133d f39a 5f3c cf9e 80b9 b9e8 533c
00000150: 86a3 953c 7337 eebb 5f76 2abd afdc 9b3c
00000160: d8ce b73c 085c 03bc 2876 88bc 7ea4 8c3c
00000170: 3ae1 3b3c a116 e03c 06a0 2dbd 61f5 04bd
00000180: ab98 d4bc bf3d 91bc 5444 f2ba bd3d 803b
00000190: 8e04 5fbc f042 233c b4d7 9ebc 7f1e 583c
000001a0: da9e 723a 71cf 0fbc 0433 ebbb 2203 273c
000001b0: 49fd b43a c0f8 7abc d11e 02bc ed9f 7bbc
000001c0: 8705 a33c 0b38 ffbb 24da 8abc b118 1fbd
000001d0: 253a b63a 36a6 5f3c 2999 2b3b 6508 d4bc
000001e0: 25da 883c 5e09 9cbc 64c8 48bd a30e e2b9
000001f0: dd03 253d ebea 5abb e31e 523c c8bc b7bb
00000200: eacb 2e3d 5b39 d63b cac7 b63c b31c a93c
00000210: 0f89 e9bc 4ae5 8abc bebe 9abb 832f d53c
00000220: 6dde c33a 9e0a debc 4a17 9b3c 87b2 b3ba
00000230: 9d04 9b3c 490b e1bc bc38 a8bc e124 4cbc
00000240: 23bc 2abc 6232 39bc cd5d f6bb 574b 87bc
00000250: 6402 59bc 3ebb 283b ef1f ccbc 88f9 81bc
00000260: bcd8 b73c 8f49 6a3d fc22 173d 421d b3bc
00000270: 0deb f43c bafe 0bbc 3dde 97bc f809 4ebc
00000280: d19e 153c e901 123c 2add 943c 7775 45bc
00000290: bb35 093d e003 ccbc 2d8f 243d d4f1 d8bb
000002a0: 92a1 56bc e051 f43b 7f76 063d 64d6 a7bc
000002b0: 8668 303b 7c6d 19bc 00ec cd3a a3cf e43b
000002c0: 2cb7 94bc b152 793c c8ee 313c 8441 5bba
000002d0: 0feb cd3c ab61 8cbc 7605 453c 089a 38bb
000002e0: a035 ec3c 9bfe 9d3b d3ab c33b 7529 8e3c
000002f0: 5a1f 933c a8ee 0fbc 625e 92bc f46d 4d3c
00000300: 3377 56bc f8aa 10bc 17bb 90bc 1320 7d3c
00000310: 3f4f ccbc 5cd4 20bc ae9e 51bc 84f9 563c
00000320: 3995 14bd e5cf 313d 2011 1dbc a80c 51bb
00000330: 587d 5d3b 14e4 4db9 d9d1 2e3d 8c66 39bc
00000340: 365b a2bb b451 a9ba 1dcd d03c 43ee 09bd
00000350: 06b3 02bb a51c 59bc 11a1 7d3c 0a1f ecbc
00000360: fbbf 1fbc 8747 4b3c 33fb e93b 8e27 8f3c
00000370: 35a1 f6ba 05f8 153d 4a62 85bc 92ae 84bc
00000380: ae69 cf3a 1874 6d3c 13c2 ca3b 00dd 06bc
00000390: 11d8 aa3b 4ec2 81bb c0e6 30bd f8a0 673c
000003a0: 00d1 6dbc 7971 253c e302 fd3c cf34 80bb
000003b0: 1a4d f5bc fe2b 10bc 680b 613b 0dd1 b2bb
000003c0: 278b 3f3c d00b 753c bab6 03bc 6d4b b13c
000003d0: 9a54 9cbc b78b 04bd c9e9 993c 337c 533d
000003e0: fe89 873b d014 413b 96dc d2bc a506 543c
000003f0: 650e 3bbc 13a8 3eba 0a30 34bc a486 693c
-0.026040625 -0.0006187862 -0.0053180913 -0.0076362137 -0.008133091 -0.016508427 0.0036535875 0.015261762
-0.022339594 0.014427088 0.019087464 -0.008304548 -0.001465743 -0.014041132 -0.011448007 0.0108007295
0.014660858 0.038248897 0.007271692 0.06475631 0.01994954 -0.00465716 -0.03329641 -0.024181016
0.019476337 -0.047723662 -0.011579202 -0.015185717 0.012344008 0.014522557 0.0075594443 0.004966251
0.009987101 -0.00031820944 0.014853454 -0.0024436645 -0.019241717 0.020088902 0.016092615 0.0073851114
-0.00085380307 -0.0053205825 0.022828512 -0.028059853 0.034421656 0.013035666 -0.011754841 -0.0029023835
-0.0065693567 -0.0086785145 0.01767939 -0.0060208477 -0.019329306 0.012000295 0.014011795 0.0035930022
0.028488787 0.009044676 -0.000758231 0.004413926 0.02337491 0.02238885 -0.0077721034 0.01634076
-0.005756101 -0.026601652 0.022956194 0.0048322217 0.011014553 0.017029941 -0.014883693 -0.0045669023
0.011377839 -0.0076461555 0.040948026 0.005790586 -0.02831765 0.015735565 0.005573368 -0.03012589
0.03604182 0.013647783 -0.00024532384 0.012933903 0.01826645 -0.0072697937 -0.041616794 0.019026129
0.022437498 -0.008017547 -0.016657904 0.01716828 0.011467272 0.02735454 -0.04238894 -0.032460574
-0.025951704 -0.017729638 -0.0018483498 0.00391361 -0.013611926 0.00996469 -0.019389965 0.013190865
0.0009255238 -0.008777485 -0.0071777124 0.010193618 0.0013808395 -0.015318096 -0.0079419175 -0.0153579535
0.019900097 -0.0077886633 -0.01694972 -0.038841907 0.0013902826 0.013650468 0.002618382 -0.02588291
0.016705582 -0.019047435 -0.049019232 -0.00043116984 0.040286887 -0.0033404182 0.012824747 -0.0056072213
0.042674936 0.006537599 0.022312064 0.020643568 -0.028507737 -0.016955037 -0.0047224453 0.026023632
0.0014943607 -0.027104672 0.018932004 -0.0013709822 0.018923098 -0.027471201 -0.020534866 -0.0124599645
-0.010420832 -0.011303516 -0.007518506 -0.016515417 -0.013245199 0.002574637 -0.02491757 -0.015866056
0.022442214 0.057199057 0.036898598 -0.021864537 0.029897237 -0.008544618 -0.018538589 -0.012575619
0.009132103 0.008911588 0.018171865 -0.012051932 0.033498507 -0.024904191 0.040175606 -0.006620625
-0.013100045 0.0074560493 0.03282785 -0.020487972 0.002691777 -0.009364482 0.0015710592 0.00698276
-0.01815375 0.015217469 0.010860153 -0.00083639496 0.025136499 -0.017136415 0.012025228 -0.0028167982
0.028834164 0.004821611 0.005971411 0.017353753 0.017959286 -0.008784927 -0.01786727 0.012538422
-0.013089943 -0.008829825 -0.017667336 0.015449542 -0.024940131 -0.009816255 -0.01279418 0.013121013
-0.036275122 0.043411154 -0.009586602 -0.0031898413 0.0033796635 -0.00019635289 0.042680595 -0.011315953
-0.004954721 -0.0012918026 0.02548843 -0.03367449 -0.0019943132 -0.013251458 0.015480296 -0.028823394
-0.009750362 0.01240719 0.007140541 0.017474916 -0.0018816354 0.036613483 -0.01628222 -0.016196523
0.0015824342 0.014493011 0.006187686 -0.008231401 0.0052137454 -0.0039599305 -0.04318881 0.014137499
-0.0145151615 0.010097855 0.030885166 -0.0039125453 -0.029943991 -0.008799551 0.0034339074 -0.0054570497
0.011690891 0.01495643 -0.008039171 0.021642411 -0.01908331 -0.032359805 0.018788235 0.051632117
0.004136323 0.0029461868 -0.02573995 0.012941037 -0.011417006 -0.000727297 -0.0109977815 0.014253292

dense_2/bias:0 f4 [256]
00000000: 9c32 d63a 7bd9 8b39 564b b53a 0c95 93b9
00000010: f489 11b9 561c 0d39 9caa 5aba 8503 4fba
00000020: 6fe6 0ebb 0a3e 5f3b 2d58 1c3b a2ed 5f39
00000030: 08da d23a f28a 1cba 0113 f9ba 6b2c 1239
00000040: 16d2 d53a a7aa 3d3a a889 863a f3c0 2aba
00000050: abdb 323b 5e5e 1a3b be82 8cba 84b1 04ba
00000060: 9d35 5dba acf7 1d3a 7f25 13bb ae00 10bb
00000070: 419e 02ba 8b5c e13a 2e3d 3239 1f73 743a
00000080: 3dbf 63ba 6158 a03a e4d9 30b9 a481 01b9
00000090: 9083 ab39 d40f 05bb 5a84 c13a d1d3 05ba
000000a0: 9deb 503b a383 adba be01 9f3a 345a e03a
000000b0: 2090 89b9 6d79 59ba b0b7 033a 6d1a 8c3a
000000c0: f690 3b3a 708f cd3a c7f0 4aba 3b06 29b9
000000d0: 724b 23ba 2abd 20bb a158 583a d6e1 c03a
000000e0: ef46 b937 fe28 06bb c19d a8b7 7aac 14ba
000000f0: df93 ff39 a24c 24bb bc45 933b 7b4d 273a
00000100: 6604 ceb8 cef8 f4ba 03be f5ba 3b45 593a
00000110: f4c8 e7ba 7c6f 2e3a e34b 893a d836 edba
00000120: ee6b fc3a 3050 55ba c5c0 93b9 d4e9 15ba
00000130: fe02 2b3a 7c03 e73a 85d2 8739 019c ea39
00000140: a8e8 a0ba ee24 603a d3f6 2338 2071 8cb9
00000150: c73c 8637 ae2e 483a f205 cd3a c7fe 353a
00000160: 2b7b 1d3b c52a 8b38 02f6 8c3a 2d51 f1ba
00000170: b07c 883a bd3f 3a39 0d46 bdba 4923 acb9
00000180: dc10 1038 f6ae 0aba ae00 4c3a 2ec3 023b
00000190: 493e e5ba 27ad 5d3b 4f04 62ba 0f2c ee3a
000001a0: 4773 0e3b 1e74 c03a 3cbe 4937 5b0b f73a
000001b0: 6623 3a3b bc71 96b9 26d7 a1b9 62b0 00ba
000001c0: a619 81ba eb84 733a 845c 443a 680f 443b
000001d0: 55fe 913a ed41 7a3a f61d 543a 512b 35bb
000001e0: c923 9f3a 16b6 bbba 303b 27b9 d72c ce3a
000001f0: a955 4739 399a 8c3a 19aa d33a 79a3 953a
00000200: 886a 263a f0e5 063a 620c b436 61f9 b5ba
00000210: 48e6 9f3b 0a7d ea3a 497f 3d39 9d4b 8d3a
00000220: 03dd 8cba d398 363b d1b8 6bba 40c4 20ba
00000230: 555f 55ba c523 6b39 90a4 9bba 4a83 6b38
00000240: 3599 20bb 2425 31bb 6eee d738 9192 6fbb
00000250: ba5c 13bb 69e8 6aba 9b64 05bb 13a2 cfba
00000260: 8795 64bb 9521 74bb 4bc3 8aba 347d 2e3a
00000270: f8cb ec39 9cb4 2439 a9d3 72ba 6604 4eb9
00000280: 7af7 03bb d401 57ba 7b28 00b9 af01 2339
00000290: e451 48bb 7ffc 02ba a87f fa39 b819 2c39
000002a0: 5757 90ba 1eab 813a 6ed6 a23a f468 cf3a
000002b0: 5e3e 87ba 64b9 bfb9 0459 83b9 5c9e d5ba
000002c0: d941 1138 6432 1eba 3aa7 22ba 4b35 1ab8
000002d0: d107 ab3a 1716 4d3b ed5d 173b ccc8 bd36
000002e0: 60da 193b fba0 633a db2a 86ba 1775 feba
000002f0: 72ab 073a 356d aa3a fda8 9039 b2c9 ba39
00000300: 43fa 1d3a ee82 12bb c1da c53a 665b 4dba
00000310: e45b a63a 367e 1739 a7ca 0fba dbd5 0239
00000320: 8d74 feb9 b738 733b cf9b 03ba c8e9 753a
00000330: 5ba3 0a3b f9e7 86ba 49f5 afba c2ab 963a
00000340: 6348 19bb 4bd0 ee3a eef1 3839 54ee a5b9
00000350: 2b4f ee39 ea3c 043a a0e4 c2b8 919d a53a
00000360: 4259 823a a84b 583b 1022 15b9 7854 6bb9
00000370: d5f7 f039 de37 c4b9 0d7f 81ba a8ba ebba
00000380: a09e b1b9 3629 e439 253c 3cba d65d 723a
00000390: 8f49 b1ba db77 35bb 1e11 2bb9 4545 a63a
000003a0: a780 1ab9 cbed c6b9 4a40 d33a 05cb 4a39
000003b0: bea1 86ba 60ff 4e39 5a55 d639 ff37 7639
000003c0: 54f3 fbba 7ac9 803a 103e 633a aae8 1039
000003d0: 62bf 303a e5c9 22b9 01aa f03a ba3f fa3a
000003e0: b3d0 15b9 269e a939 e837 50b9 8ef7 053b
000003f0: fa7f 6b3a 3134 8a3a e527 593a da3d a2ba
0.0016341987 0.00026674182 0.0013831656 -0.00028149073 -0.00013879669 0.00013457364 -0.0008341463 -0.0007896948
-0.002180483 0.0034064078 0.0023856268 0.00021355462 0.0016086707 -0.0005971632 -0.0019002856 0.00013940192
0.0016313221 0.0007235207 0.0010264413 -0.0006513737 0.0027291577 0.0023554782 -0.0010720117 -0.0005061852
-0.000843847 0.00060259807 -0.002245277 -0.0021973061 -0.0004982688 0.0017193718 0.00016998194 0.00093250157
-0.00086878595 0.001223337 -0.00016865839 -0.00012350694 0.00032713683 -0.0020303624 0.0014764175 -0.00051051105
0.0031878718 -0.0013238083 0.0012131257 0.0017116726 -0.00026238058 -0.0008295987 0.0005024625 0.0010689028
0.0007155085 0.0015683006 -0.0007741567 -0.00016119417 -0.0006229199 -0.0024526813 0.0008252953 0.0014715742
2.208675e-05 -0.002047121 -2.010062e-05 -0.0005671453 0.00048747563 -0.002507009 0.004494397 0.000638209
-9.823665e-05 -0.0018689872 -0.0018748645 0.0008288209 -0.001768379 0.00066541857 0.0010474887 -0.001809801
0.001925824 -0.0008137254 -0.0002818165 -0.0005718742 0.0006523578 0.001762494 0.00025906056 0.0004474819
-0.0012276368 0.0008550425 3.90921e-05 -0.00026787166 1.6002346e-05 0.00076363503 0.0015642031 0.0006942567
0.0024029713 6.636003e-05 0.0010754468 -0.0018411033 0.0010413136 0.00017762087 -0.0014440432 -0.00032832686
3.4347977e-05 -0.00052903534 0.00077820837 0.0019952762 -0.0017489876 0.003382513 -0.0008621858 0.001817109
0.002173619 0.0014683043 1.2024826e-05 0.0018847989 0.0028402447 -0.00028694968 -0.0003086861 -0.00049090956
-0.0009849563 0.00092895207 0.00074905925 0.002991641 0.0011138419 0.0009546567 0.0008091623 -0.0027644227
0.0012141402 -0.0014321234 -0.0001594841 0.0015729916 0.0001901003 0.0010727114 0.0016148716 0.0011416516
0.0006348272 0.00051459577 5.3658596e-06 -0.0013883525 0.0048797466 0.0017890048 0.00018071862 0.0010779981
-0.0010747019 0.0027862086 -0.00089920784 -0.0006132759 -0.0008139511 0.00022424672 -0.0011874605 5.615064e-05
-0.002450538 -0.0027030194 0.0001029641 -0.0036555866 -0.002248569 -0.00089610234 -0.0020354155 -0.0015841149
-0.0034879164 -0.0037251462 -0.0010586766 0.000665623 0.00045165396 0.00015707541 -0.0009263107 -0.0001964733
-0.0020136521 -0.00082018715 -0.00012222111 0.00015545519 -0.0030566389 -0.00049967313 0.00047778827 0.00016412779
-0.0011012357 0.0009892916 0.0012423524 0.0015824125 -0.001031827 -0.00036568486 -0.0002505259 -0.0016297805
3.463202e-05 -0.00060347305 -0.0006204728 -3.6766094e-05 0.0013048594 0.0031293684 0.0023096756 5.6560148e-06
0.002347611 0.0008683351 -0.0010236161 -0.0019413558 0.00051753887 0.0013002517 0.00027591726 0.0003562696
0.00060263666 -0.0022355872 0.0015095101 -0.0007833749 0.001269218 0.000144475 -0.00054852146 0.00012477433
-0.00048533492 0.0037112662 -0.00050204707 0.00093808444 0.0021154496 -0.0010292522 -0.0013424541 0.001149528
-0.0023389093 0.0018220035 0.00017637733 -0.0003164882 0.00045453882 0.00050444773 -9.2932256e-05 0.001263546
0.0009944814 0.003300408 -0.00014222437 -0.00022442813 0.00045961016 -0.00037425658 -0.0009879783 -0.0017984705
-0.00033878256 0.00043518253 -0.0007180593 0.000924555 -0.001352595 -0.0027689848 -0.00016314207 0.0012685439
-0.00014734511 -0.00037942672 0.0016117182 0.00019339852 -0.0010271592 0.00019740826 0.00040880853 0.00023481248
-0.0019222298 0.000982567 0.0008668611 0.00013819584 0.00067423854 -0.00015524735 0.0018361212 0.0019092478
-0.00014287494 0.00032352022 -0.00019857252 0.0020441744 0.00089836086 0.0010544119 0.0008283838 -0.0012378052

scale1 f4 [512]
00000000: e7ed 1f40 c3c6 3e40 3ac7 4140 919e 4740
00000010: 8ca1 9240 f394 3940 09dd 5740 9dee 4940
00000020: 7963 3540 5d87 4840 b611 8340 6a1a 4840
00000030: 859c 4140 1195 4540 ab18 5240 5d6a 3c40
00000040: 01b4 5740 e3b5 3440 d51d 2740 3795 3d40
00000050: 86f8 6a40 b05f 4b40 7b61 8140 ec2e 5d40
00000060: 45c6 5640 16ee 5040 6aa5 5240 d1eb 5740
00000070: af83 7d40 6ed1 5140 d79f 3440 8fd4 4040
00000080: d7be 3640 146a 6740 ddce 2440 34c2 7040
00000090: 3001 3b40 0b9a 2b40 d938 6140 ce06 2940
000000a0: c17b 6440 fa06 5640 b976 3c40 bc93 7940
000000b0: 9f3f 6540 4952 5040 8dfe 7540 a4cf 3240
000000c0: d6fe 4b40 3c9b 5340 ced7 5c40 9303 5a40
000000d0: 9739 5a40 2eaf 3d40 ebed 4840 f29c 3340
000000e0: eee8 4040 c565 5540 fcec 3d40 ca84 2c40
000000f0: a295 6c40 1509 7740 22fd 2340 6c54 4040
00000100: 479b 3a40 13fc 4c40 69d7 8340 e2f5 3140
00000110: afbc 8440 1a4b 3240 459e 5140 f12b 4d40
00000120: 6e58 4a40 e7eb 5d40 cb76 4c40 c5f3 5140
00000130: c40b 4c40 98f1 4840 f47b 3c40 641d 6e40
00000140: aa8e 3840 26e3 5040 8349 3240 c119 3040
00000150: ea92 4e40 9b2b 6540 1b08 4640 87f5 4540
00000160: 2d1f 6a40 8225 3b40 28a7 3d40 da8a 3440
00000170: 8614 9b40 60ff 8540 ad53 3540 5d0e 3940
00000180: 8940 6e40 2e8a 5d40 7b10 6e40 6d2d 6e40
00000190: 8323 6d40 cb8b 2240 9534 7040 702e 8440
000001a0: b4e7 3740 d017 7a40 348b 8140 4cee 7640
000001b0: f130 6c40 d420 5740 d195 3c40 5795 4c40
000001c0: 5d14 3f40 03c2 7140 505a 6740 6e50 3440
000001d0: 7887 3c40 aa0f 5740 0950 5a40 98df 1e40
000001e0: e293 4640 f736 4c40 d06d 2c40 fe8b 8c40
000001f0: 38f3 5040 c877 5240 ccec 3340 952f 5440
00000200: 08cb 2a40 c88a 2c40 ec5b 3e40 23ba 5440
00000210: 1c75 6840 3d85 3440 dfdc 5740 d213 8040
00000220: c664 5340 e839 5840 8d51 3640 6015 7b40
00000230: 1bc7 4c40 200e 5740 e606 4f40 e04c 2a40
00000240: e998 7c40 aa76 4c40 6e86 8840 b6cb 4240
00000250: 61b5 7640 6563 4c40 3b9e 8b40 7c2e 4a40
00000260: 99b9 5440 1d96 4a40 e5f3 3240 6e4e 4940
00000270: 2f5d 2740 5d70 8140 f71c 2d40 d373 6540
00000280: debc 8840 0d29 8340 a11f 6740 039f 2940
00000290: dbcb 3d40 1853 5840 45f9 6040 d6b8 7540
000002a0: 3472 5040 c666 5440 a07c 4e40 7af4 2e40
000002b0: 8081 6a40 bacd 4c40 0c4f 5840 93a7 5240
000002c0: 0bb5 4040 988b 6540 4bce 4c40 7999 5340
000002d0: ee93 5c40 dc8f 4c40 301e 4a40 0bb3 4840
000002e0: b2ab 3540 96d1 2940 5169 3740 a1b4 5d40
000002f0: 0f3b 4d40 8a99 6e40 58ff 4540 d241 5240
00000300: 616f a340 26e0 6040 4afb 2740 2c0b 3340
00000310: dc18 3940 d818 6540 0956 3340 b8bd 4840
00000320: 1143 7940 2cb8 5240 8035 4d40 195a 8940
00000330: 54fe 3e40 ab4e 5040 7e4f 6240 24c6 8440
00000340: 9a93 5c40 b614 3640 a5e9 5640 fc7b 4740
00000350: 8442 4740 7bab 6040 c0ca 4b40 4af6 3440
00000360: 9494 2f40 44af 5c40 e397 3c40 e960 4440
00000370: 93b4 6440 7724 2840 cb8b 2440 55b2 5540
00000380: 04d3 5140 3b85 2740 3f0d 4c40 d380 7c40
00000390: 26f1 2840 a2fe 3b40 f1ba 5340 c608 7140
000003a0: 9ba2 5140 2116 3240 7fd7 5f40 db13 6940
000003b0: 7d1a 4940 2054 3b40 a3b2 6740 afac 8240
000003c0: 7ad6 2e40 8b83 8c40 be6a 7240 4c18 4540
000003d0: 0bd9 4c40 2d87 4940 07e5 1540 a3a5 6740
000003e0: 80e4 5740 6cee 6d40 76aa 8a40 ce41 2c40
000003f0: d49c 5340 aaee 2d40 1317 6c40 3e55 3a40
2.4988954 2.9808815 3.0277848 3.1190531 4.58222 2.8997161 3.372866 3.1551888
2.8341963 3.133262 4.095912 3.1266122 3.0251782 3.0872233 3.2827556 2.943992
3.3703616 2.8236015 2.6111958 2.9622324 3.6714187 3.1777153 4.0431495 3.455989
3.3558514 3.2645316 3.291346 3.373768 3.9611623 3.2784076 2.8222558 3.0129735
2.855398 3.6158495 2.575126 3.7618532 2.9219475 2.681277 3.5190947 2.6410403
3.5700533 3.3441758 2.9447463 3.899642 3.5820081 3.2550223 3.8436615 2.7939234
3.187429 3.3063498 3.4506717 3.4064682 3.409765 2.9638171 3.1395214 2.8064542
3.014217 3.3343365 2.9675894 2.6956048 3.6966329 3.8599293 2.562325 3.0051527
2.9157274 3.2028854 4.120045 2.7806325 4.1480327 2.7858338 3.275285 3.205807
3.1616473 3.4675233 3.1947505 3.2805035 3.188218 3.1397457 2.9450655 3.7205439
2.8837075 3.263864 2.7857368 2.751572 3.227717 3.5807865 3.0942447 3.0931108
3.6581528 2.9241643 2.9633274 2.8209748 4.8462553 4.1874237 2.8332322 2.8915017
3.722689 3.4615588 3.719756 3.7215226 3.7052925 2.5397823 3.7532094 4.1306686
2.873517 3.9077034 4.0482426 3.8582945 3.6904871 3.3613787 2.946644 3.196615
2.9856179 3.7774665 3.6148872 2.817409 2.9457684 3.360331 3.411135 2.482397
3.102776 3.1908548 2.6942024 4.392089 3.264845 3.2885609 2.811328 3.3154042
2.668642 2.6959705 2.9743605 3.323861 3.6321478 2.8206322 3.372856 4.0024195
3.3030257 3.3785343 2.8487275 3.9231796 3.1996524 3.3602371 3.234796 2.660942
3.946833 3.1947427 4.26641 3.0436835 3.8548205 3.1935666 4.3630652 3.1590872
3.323828 3.1654122 2.7961361 3.145412 2.6150625 4.044966 2.7048929 3.5851943
4.273055 4.098761 3.6113055 2.6503303 2.9655674 3.3800716 3.5152142 3.8394065
3.2569704 3.3187728 3.2263565 2.7336717 3.664154 3.2000566 3.3798246 3.291478
3.01105 3.5866451 3.2000911 3.3062422 3.446529 3.1962805 3.1580925 3.135928
2.8386045 2.653417 2.865803 3.4641497 3.2067297 3.7281213 3.09371 3.2852674
5.107346 3.513681 2.6247125 2.7975569 2.8921423 3.5796413 2.8021262 3.1365795
3.8947184 3.292491 3.2063904 4.2922482 2.984273 3.2548015 3.5361018 4.149187
3.446509 2.845014 3.3580105 3.1169424 3.1134348 3.5104663 3.1842499 2.8275323
2.7434435 3.4481974 2.9467704 3.068415 3.5735214 2.6272256 2.5710323 3.3390095
3.2785044 2.6175067 3.1883085 3.9453628 2.6397185 2.9374166 3.308285 3.7661605
3.2755497 2.7826006 3.4975278 3.641837 3.1422417 2.9270096 3.6202781 4.0835795
2.7318406 4.3910575 3.787765 3.079608 3.2007473 3.1488755 2.3421037 3.6194847
3.3733215 3.717677 4.333308 2.6915164 3.306447 2.717692 3.6889083 2.9114528
