data/DNN/Inlusive_amcatnlo_xyComponent_JetLepXY_50EP__diff_xy_2018_20220621-1143genMETweighted.onnx (onnx, 578076 bytes, 16 tensors)

StatefulPartitionedCall/sequential/dense_3/MatMul/ReadVariableOp:0 f4 [256, 2]
000000 f8 f4 71 be 96 5b e6 3d be d7 4d 3e 07 8e 3b be
       -0.23628604 0.112479374 0.2010183 -0.18315898
000010 61 1f 7e 3a c1 78 06 3b c0 1a 61 3d 7b 1d 3a 3e
       0.0009694007 0.0020518752 0.05495715 0.18175308
000020 2c 81 4c 3d af 8a 3f be 54 2b 29 be 8c df da be
       0.049927875 -0.18705247 -0.16520435 -0.42748678
000030 74 57 66 be ac 5c a3 3d 6e 4b 09 be 19 25 10 be
       -0.22494298 0.0797666 -0.1340768 -0.14076652
000040 ea ea 4c 3c b2 20 d2 3d 3b 8c 08 3e e2 94 28 be
       0.01250718 0.102601424 0.13334744 -0.16463044
000050 90 00 8a 3d 4e 8e d9 3a 9a 80 0c 3e 60 2a 35 3e
       0.067383885 0.0016598196 0.13720933 0.17691946
000060 15 9f 71 3e 52 f2 d0 bc b6 14 98 bc f4 69 6c be
       0.23595841 -0.025506172 -0.018564563 -0.23087293
000070 d8 37 7f 3e 8e a7 dd 3d 88 6f 32 be af a8 6d 3d
       0.24923646 0.10822974 -0.17425358 0.058022197
000080 cf ad 16 3b ff ce 4f be e5 ac 80 bb e9 4a 61 3e
       0.0022991782 -0.20293806 -0.0039268606 0.22001232
000090 77 ad 24 bd 8c e1 5d be 26 51 9f 3d a2 db 0f 3d
       -0.04020449 -0.2166807 0.0777915 0.035121568
0000a0 9d 99 42 be 57 86 3d 3e 8e dd 9f 3e 10 f8 11 be
       -0.19003911 0.18508278 0.3122372 -0.14254785
0000b0 ca 1d c3 bd fb f1 25 3d 93 94 21 3d 75 83 5d be
       -0.09527166 0.040513974 0.039448332 -0.21632178
0000c0 09 b2 09 3d af fa 13 bc 58 7a 9d 3d a1 f9 88 bd
       0.033617053 -0.009031936 0.07689351 -0.06688238
0000d0 87 c5 59 3e 87 7a c4 3c a4 8e 7e be 5d 36 63 be
       0.21266757 0.023984207 -0.248591 -0.22188707
0000e0 67 4c 2f be 20 85 3b 3e 24 04 5c be e3 1e b7 be
       -0.17118989 0.18312502 -0.21485955 -0.35765752
0000f0 fa 81 d0 bd 5d 8b 2b 3e 5c 8d 02 be fa 2a 1c 3d
       -0.10181041 0.16752382 -0.12749237 0.038126923
000100 1b b6 54 3d 3b 35 30 3e aa 1b 4a be b1 b2 0c bd
       0.05193148 0.17207806 -0.19737116 -0.0343501
000110 cb 36 53 be 5a f9 ca bc 62 2a 56 be 46 44 31 bd
       -0.2062637 -0.024777103 -0.20914605 -0.043278
000120 90 82 3f be 3c a7 23 3d ac 56 e1 3d 26 eb 08 3e
       -0.1870215 0.03995441 0.110028595 0.13370952
000130 6e 23 a5 3c bf 55 97 be 1f 12 92 be 2d cb 0a bd
       0.020158496 -0.29557607 -0.2852945 -0.03388517
000140 22 d9 2b be 7d 0c 60 be a9 6f 42 be 96 ab bb bd
       -0.16782048 -0.21879764 -0.18987907 -0.09163587
000150 0a b8 ac 3d 09 f1 43 3d 85 20 58 3e 9b eb 63 3d
       0.0843354 0.04783729 0.21106155 0.055644613
000160 24 fe b1 3d 6d 45 ef bd 5f c5 84 bd f5 03 6c be
       0.086910516 -0.11683164 -0.06482958 -0.23048384
000170 0b af 61 3e cf b5 b8 3a f6 99 4f 3e 13 56 8b 3d
       0.2203943 0.0014092269 0.20273575 0.06803527
000180 14 31 41 bc c2 cd d6 bd f4 6b d9 3d b4 74 0a be
       -0.011791486 -0.10488464 0.106162935 -0.13521081
000190 6c fe 4d bc 06 32 1b be 94 e7 2e be ae 4b 3a 3d
       -0.012572866 -0.15155801 -0.17080528 0.04548233
0001a0 84 ed 0f 3e 3a e5 67 3d 00 c1 b3 be 0c a9 70 3e
       0.14055449 0.05661509 -0.35108185 0.23501986
0001b0 5b 97 90 3e 74 49 b0 3e 30 74 40 bd d6 e7 41 3e
       0.28240475 0.3443104 -0.046985805 0.18936095
0001c0 06 24 5c 3c 4f 1f 34 be bf fc ce 3d 3f 7c 28 3e
       0.013436323 -0.17590068 0.10106801 0.16453646
0001d0 ee c2 7c 3d 54 00 c9 3c 96 6e 46 3e 99 e3 46 bd
       0.061709337 0.02453629 0.19378123 -0.048556898
0001e0 8d 8c 44 3d a6 1d 56 be 35 97 85 be 4e 88 56 3b
       0.047985602 -0.20909747 -0.26091924 0.0032735053
0001f0 f1 bc 8f bd 53 51 37 be 21 07 3f 3e fc c2 89 bc
       -0.070184596 -0.17902116 0.18655063 -0.016816609
000200 1c 5d bc be 94 e8 0a bd 92 08 3d 3e f4 00 a1 3e
       -0.36789787 -0.03391321 0.184603 0.3144604
000210 15 ad 51 3e 9a 7c 93 bd 41 be 6a be f9 27 0a 3e
       0.20476182 -0.072015 -0.22924139 0.13491811
000220 17 83 22 3d c4 54 ef 3d 2a 39 13 3e 48 52 8e 39
       0.0396758 0.1168609 0.14377275 0.00027145655
000230 d8 91 5c 3d 10 4d 08 be eb 3f bf 3d 1f 31 69 3e
       0.053850025 -0.13310647 0.09338363 0.22772644
000240 22 e6 31 3e a2 34 87 bd 5e b9 6b bd af c2 62 3e
       0.17372945 -0.06601836 -0.057549827 0.22144578
000250 fb 83 3b 3a 0b 85 0f be 90 c2 3e 3e 93 dd ec bc
       0.00071531505 -0.14015596 0.18628907 -0.028914249
000260 27 4e c2 bc a4 33 59 3e 90 0b 81 3c ed 84 70 be
       -0.023718907 0.21211106 0.015752584 -0.23488207
000270 fa a0 0e be e0 a7 27 be 1d 11 2d 3e bb 5c b1 bd
       -0.13928595 -0.16372633 0.1690106 -0.08660265
000280 07 ff 31 bc f4 f3 48 3e 6e 64 e4 3d 84 d9 54 bd
       -0.010864026 0.1962431 0.11151968 -0.05196525
000290 15 84 94 3e d3 54 06 be 09 32 e8 bd 8b 96 50 bd
       0.2900702 -0.13118295 -0.113376684 -0.05092482
0002a0 85 da 11 3e d0 f7 7f 3c bf d1 7d 3e 39 22 64 3d
       0.14243515 0.015623048 0.24787043 0.0556967
0002b0 f4 b2 c0 ba 13 7c 56 3e 4d 40 05 3e db 00 96 3b
       -0.001470177 0.20945768 0.1301281 0.0045777387
0002c0 4c 87 7c 3d c8 58 b1 be dd e4 3e 3e 74 75 eb 3d
       0.061652467 -0.34638047 0.18641992 0.11497012
0002d0 c6 57 02 3e be 2e 33 3e f6 c9 23 be 93 9e f4 3c
       0.12728795 0.174983 -0.1599501 0.02986077
0002e0 14 09 7c 3d 48 01 8d be 60 df 7a be 1f ef bd bc
       0.061532095 -0.2754004 -0.24499273 -0.02318531
0002f0 0d 48 4c 3e 27 83 53 3e 88 60 79 3e a6 a0 b3 3d
       0.1994936 0.206555 0.2435323 0.08770876
000300 ad a5 07 bd ad 89 96 be 2b 25 27 3e 82 10 fe bd
       -0.033116985 -0.29401913 0.16322772 -0.12405492
000310 21 b2 70 be fe ec 13 be 4f 90 fe 3c c7 92 79 bc
       -0.23505451 -0.14445874 0.031074671 -0.015232748
000320 b8 9b 0e be f4 e7 16 3e 6c 05 30 be d1 51 ae 3d
       -0.1392659 0.1473692 -0.17189568 0.08511699
000330 90 e5 d2 bc 7e 7c 17 be 0f 3c 55 be 0d 6c 2c 3d
       -0.02574423 -0.14793584 -0.20823692 0.042095233
000340 4c 5c 2d be b4 7f 29 bd 6f 53 89 be b6 34 0c 3e
       -0.1692974 -0.041381553 -0.26821467 0.13691983
000350 5c 87 7c bd a3 17 60 3e 9e 95 29 bd e8 1c 73 be
       -0.061652526 0.21884017 -0.04140245 -0.23741496
000360 4f ae a8 bd 02 a0 13 3e 6b 0d 1c 3e 1b 2a 5d 3d
       -0.08236372 0.14416507 0.15239494 0.053995233
000370 71 dd 06 be b5 67 21 3e 06 05 0b 3e 00 ce 98 bd
       -0.1317041 0.15762217 0.13576135 -0.074611664
000380 ec 89 4c bd 7c 73 5d be b5 c9 42 3e 27 3a 08 bd
       -0.04993622 -0.21626085 0.19022258 -0.033258583
000390 ae e2 1f be 23 77 06 be 3d e5 5a 3e 5f 21 4d 3d
       -0.15613815 -0.13131385 0.2137651 0.050080653
0003a0 ad a4 b7 3d f7 61 91 be c8 8d 8d 3c 64 bd 60 3e
       0.08966956 -0.28395054 0.01727952 0.21947247
0003b0 4b 72 38 3e d2 16 ab bd e3 11 42 3d 50 c0 73 be
       0.1801235 -0.08353962 0.04738034 -0.2380383
0003c0 92 c9 3d be 04 24 ea 3d 8e 1e f2 bd 95 10 95 bd
       -0.18533924 0.11432651 -0.11822234 -0.072785534
0003d0 eb a5 43 3d 73 4f c6 3d 3a 83 4b bc ee 2c 1f bc
       0.047765654 0.096831225 -0.012421424 -0.009715302
0003e0 f4 3d 21 3e f8 2b fd bd fa 60 bd 3d dd 75 c1 3c
       0.1574629 -0.12361902 0.092470124 0.023615772
0003f0 0c cf dc bd 30 84 9e be 1f df b6 bd ae 6d 19 3e
       -0.107816786 -0.30960226 -0.08929276 0.14983246

StatefulPartitionedCall/sequential/dense_3/BiasAdd/ReadVariableOp:0 f4 [2]
000000 95 14 a6 3d c8 55 15 3e
       0.081093945 0.14583504

StatefulPartitionedCall/sequential/dense_2/MatMul/ReadVariableOp:0 f4 [512, 256]
000000 e0 1a 5b bc 1e 7a 01 3d fa 5f a8 3b 61 c9 22 bc
       -0.013373107 0.0316106 0.0051383944 -0.009935708
000010 cf a0 75 3b 83 d3 dc bc 13 28 18 3b 13 5e 03 3c
       0.0037479883 -0.026956325 0.0023217245 0.0080180345
000020 82 e3 10 bc b1 c6 02 3d d7 32 18 3b 4f ce 61 bc
       -0.008843305 0.03192777 0.0023223662 -0.013782098
000030 7a d1 f3 3c 7d 72 bd 3b cb f6 10 3d 0c 28 94 bc
       0.029762972 0.0057814703 0.03539161 -0.018085502
000040 c6 b2 17 3d 06 f6 61 bc b0 d1 d3 3c ec 16 79 3c
       0.037035726 -0.013791567 0.025856823 0.015203219
000050 4a e0 f0 bc 28 91 03 3d 83 91 74 bc 9f 48 46 3d
       -0.029403824 0.032120854 -0.014927271 0.0484091
000060 31 72 21 3c c2 c7 61 3c 2d dd c4 3c 07 11 17 bc
       0.0098538855 0.013780536 0.024031246 -0.009220368
000070 87 a0 91 bc 24 d5 d2 3c 49 7d 19 bc 04 73 47 bc
       -0.01777674 0.025736399 -0.009368249 -0.012173418
000080 57 87 c1 bc 62 ac 28 3b da 7b cc 3b 77 9f eb 3b
       -0.023624105 0.0025737514 0.00624035 0.0071906406
000090 14 21 f7 bc 19 6c e1 3b 57 a8 94 bc 1f 08 57 bc
       -0.03016714 0.0068793413 -0.018146677 -0.013124495
0000a0 dd cd 3d 3c c3 b9 cd 3c 10 68 83 3c 1c 7e c5 bb
       0.011584726 0.025112992 0.016040832 -0.0060269963
0000b0 c4 2f c6 3c 62 ee ac 3c 1c 16 c3 3c 43 df 2e 3c
       0.024192698 0.021109764 0.023814254 0.010673347
0000c0 51 05 07 3c 71 9b d9 3c 84 c6 c8 3c ef e2 ea 3b
       0.008241014 0.026563378 0.024508722 0.007168166
0000d0 a9 c7 33 3b ff aa b6 bc 48 c7 a9 bb 63 49 b3 bc
       0.002743224 -0.022298334 -0.005181227 -0.02188558
0000e0 ca e4 03 3d 47 aa 09 3c fe 96 03 3c 39 f1 ae 3c
       0.032200612 0.008402414 0.008031605 0.021355258
0000f0 52 4a 05 3c f1 b1 96 3c 11 8b e6 3c 08 a3 ca 3c
       0.008135395 0.018395396 0.028142484 0.024735942
000100 fa 99 93 bc 78 55 fa 3b 9d 2b a7 3b a0 15 a6 bc
       -0.018017758 0.007639583 0.0051016347 -0.020273983
000110 9c 3c d6 bb bf 0a b8 3c fc fb 89 3c a3 47 ff 3b
       -0.006537987 0.022466062 0.016843788 0.007790522
000120 ca 1e 06 3d 30 23 b8 3b fe 8b bd 3b 36 9d 8b 3c
       0.032744206 0.005619429 0.0057845106 0.017042737
000130 c1 5c 54 bc 14 ea ca 3b 6d 82 b2 ba 76 00 89 3c
       -0.012961567 0.006192455 -0.0013619192 0.016723853
000140 de 09 95 3c 5a 2d 77 3c 19 dc 58 3d 30 a4 11 3c
       0.018193182 0.015086496 0.052944276 0.008889243
000150 5a 56 b7 3b 4d 2c db 3c dd 69 eb bb 83 b1 18 bb
       0.0055950107 0.026754523 -0.0071842507 -0.0023299165
000160 f7 34 78 3c 14 bd 2e 3c 78 7b f8 3b 99 71 d2 bb
       0.015149347 0.010665197 0.007583078 -0.0064222333
000170 80 16 60 3c e7 ca 45 bb ff 0d 9a 3c dc 89 18 3a
       0.013677239 -0.0030180754 0.018805502 0.00058188825
000180 95 f6 02 3d df fd 1e 3c 9b 99 40 3b fe 5f b7 3a
       0.03197344 0.009704082 0.002938843 0.00139904
000190 25 ea c7 bc 6a f3 ee bc fe da 17 3d 0e 24 d4 bc
       -0.024403641 -0.029168803 0.03707408 -0.025896098
0001a0 a9 42 cc 3c a0 be 05 3c 97 de 0c bc 87 a6 13 3d
       0.02493413 0.008163124 -0.008597991 0.036047485
0001b0 83 e5 83 bc 93 5a 61 3c ad 65 0f bb 2f e4 83 3c
       -0.01610065 0.013754505 -0.0021880672 0.016100017
0001c0 eb 18 21 bd 51 d6 08 3d 50 1c 91 3c cf 6d 94 3c
       -0.039330404 0.033407513 0.017713696 0.018118767
0001d0 2f aa cd 3c 71 6d 23 3b ec 37 0c 3d 75 66 0a bc
       0.025105564 0.0024937058 0.03423302 -0.008447279
0001e0 e7 73 0c bc 5f f7 1d bc 2f da 48 3c ae 3a 25 bc
       -0.008572555 -0.009641497 0.01225905 -0.010084791
0001f0 c3 5b d1 3c 7c 58 8c 3b 02 89 1b 3d 1a 15 6d bc
       0.02555645 0.004283009 0.037972458 -0.014470363
000200 78 2b 2c bc 38 3f fb 3b 3a ce 05 3d 62 20 d7 3b
       -0.010508411 0.0076674484 0.032667376 0.0065651396
000210 81 91 9c bc 57 2a 8c ba 94 13 d7 3c 6f 89 03 3d
       -0.01911235 -0.0010693771 0.026254453 0.03211349
000220 ef 4a 48 3d c6 6a 11 3d 38 4b 8b 3c 28 82 27 bc
       0.048899587 0.035502218 0.01700364 -0.010223903
000230 59 8d ff 3b 96 fc 6d 3c 45 2a 97 bc fd 9b 56 3c
       0.0077988324 0.014525553 -0.018452773 0.013098714
000240 ad 04 3d bc 2c ac a2 3b 94 f9 08 bc 9f 92 ba 3b
       -0.011536759 0.004964372 -0.008360285 0.005693748
000250 d2 37 b2 bb 56 06 87 bc bc 19 8f 3c 9a a6 8b 3c
       -0.005438783 -0.016482513 0.017468326 0.017047215
000260 03 64 9b 3c d7 43 21 3c e3 95 a8 3b bd 57 86 bc
       0.018968588 0.009842834 0.005144821 -0.016399259
000270 cf a1 df 3a b3 f5 98 3c 92 1d 59 3b f2 65 55 3d
       0.0017061773 0.018671846 0.0033129198 0.052099176
000280 94 1d cf bc ee ed 7e 3a f8 0b 9d bc a0 30 02 3d
       -0.025282659 0.00097247853 -0.019170746 0.031784654
000290 32 66 ca 3c 5b 9d ed bb e3 b8 17 3b be 75 dd bc
       0.024706934 -0.0072514242 0.0023150973 -0.027033683
0002a0 b0 1c f5 bc 7f 63 c0 3a 9e a5 99 3b 3e a3 09 3d
       -0.029920906 0.001467809 0.0046889326 0.033602946
0002b0 4f 74 b9 3c 1b 34 9e bc 7f 08 a5 3a ee 52 6e 3c
       0.022638468 -0.019311955 0.0012591033 0.014546139
0002c0 8c 86 f3 bc 8c 0f 94 bc 75 47 4a bb e4 a5 c6 3b
       -0.029727243 -0.01807382 -0.0030865346 0.006062256
0002d0 7d 51 b8 3c d7 ac 9c bb b6 ed 73 3c f8 65 ce 3c
       0.022499794 -0.0047813463 0.014888218 0.025195107
0002e0 2a ec 9a bb b1 e8 36 3c 82 86 97 3c eb ae 8b bc
       -0.00472786 0.011163876 0.018496756 -0.01705118
0002f0 30 4f b1 bb ce b6 a6 bc 00 3c 48 bc 31 b9 af 3c
       -0.005411051 -0.02035084 -0.012221336 0.02145061
000300 53 55 98 b9 13 92 ee 3b 8a cb be 3c a2 12 84 bc
       -0.0002905527 0.007280597 0.023290414 -0.016122166
000310 2b c5 cb 3c 19 d2 e4 bb 1d 02 29 3c f5 25 30 3c
       0.02487429 -0.0069830534 0.010315445 0.010751237
000320 f3 95 0d 3c ea 22 73 bc a1 b4 b8 3c e8 72 7d 39
       0.008641708 -0.014839867 0.022547068 0.00024170766
000330 95 a8 f2 3b 7a 4e 78 bc 57 1e 41 bb 25 e6 1d 3c
       0.0074053505 -0.015155429 -0.0029467547 0.00963739
000340 de 0d 29 3d 44 5e e5 3b 61 da 75 3c 88 07 d5 bc
       0.04127299 0.0069997627 0.015005679 -0.026004568
000350 d7 47 84 3c f5 4c c9 3c 56 0c 10 3c f7 d2 39 3d
       0.016147537 0.024572829 0.008792004 0.045367207
000360 7e 18 b1 3c a7 0d 6f bc 9f 41 c7 bb bd 10 2e 3c
       0.021618124 -0.014590657 -0.0060808207 0.010624108
000370 15 da ba 3c a9 0a e4 3c be 66 60 3c 25 c8 34 bb
       0.022809068 0.027837114 0.013696371 -0.0027585116
000380 dd 16 61 3c be 37 36 3d 98 fe 2c 3d 9b 85 ac bc
       0.013738361 0.044486754 0.042234987 -0.021059802
000390 28 c5 33 3c f5 02 1d bc 36 24 94 bc 0f 93 28 3c
       0.010972299 -0.009583225 -0.018083673 0.010288968
0003a0 d6 e0 0e 3d 3f 37 20 bc 98 03 76 bc 02 9d 71 3c
       0.03488239 -0.009778797 -0.015015505 0.014746906
0003b0 51 91 c7 bc d8 3b e0 3c d7 46 a7 3c e0 9c 1e 3d
       -0.024361284 0.027372286 0.020419521 0.038723826
0003c0 ef c0 1b 3d 81 63 07 3c 9f ce 26 3c 0f 73 b3 bc
       0.038025793 0.00826347 0.010181098 -0.02190545
0003d0 35 cb bc 3c b2 a9 7f bc 7f 20 b2 bb fd a6 3a 3c
       0.023046115 -0.015604423 -0.0054360027 0.011392352
0003e0 8a 31 e4 3c 4b 13 fb ba b7 ca 70 3c 2c 6f ed bb
       0.027855653 -0.001915553 0.0146967685 -0.0072459187
0003f0 2d e9 37 3c 6a e0 1b 3d 71 46 24 bb 20 33 e1 bc
       0.011225027 0.038055815 -0.00250664 -0.027490199

StatefulPartitionedCall/sequential/dense_2/BiasAdd/ReadVariableOp:0 f4 [256]
000000 06 a9 a8 3a 7f ef b6 ba 06 fd a4 ba d6 92 11 bc
       0.0012867756 -0.0013956873 -0.0012587614 -0.008885106
000010 46 f0 46 bc 66 12 18 bb 9c 7e 72 bb 1e e2 1a 39
       -0.012142247 -0.0023204326 -0.0037001735 0.0001477082
000020 19 2d 6b 39 c2 83 8e bb 7e ed 70 bb 9d b4 f5 ba
       0.00022428147 -0.004349203 -0.003676265 -0.0018745844
000030 de 65 e9 39 c6 e7 84 bb 5e 4b 81 3b 50 9f bd 3a
       0.0004451712 -0.00405595 0.003945752 0.0014467034
000040 79 29 28 3c a4 de a3 bb ac 28 59 3a fc 8d be ba
       0.010263794 -0.005000906 0.00082839536 -0.0014538164
000050 90 14 32 3b aa 3e 2e 3c 84 ab 9e 3b d6 19 a3 3b
       0.00271729 0.010635057 0.0048422236 0.004977445
000060 32 b3 33 3b c6 29 d4 3b c7 33 48 bc 2d 49 36 3c
       0.002742004 0.0064747063 -0.012219376 0.011125845
000070 d8 e6 0c 3c c7 74 67 bb fc 73 33 bb 0a 5d 12 3b
       0.008599959 -0.0035317407 -0.0027382364 0.0022333288
000080 42 5e 28 3c 9f e9 70 3c 11 f5 1c 3c fb 24 58 3b
       0.010276379 0.014704137 0.009579913 0.0032981026
000090 a0 a5 45 3c 74 58 ac 3b 78 a1 8c 3a 6d ce 2f ba
       0.012063414 0.005259568 0.0010729274 -0.000670648
0000a0 72 fe 27 bb 69 1c 04 39 77 56 fb 3b b8 c5 9b ba
       -0.002563384 0.00012599085 0.0076702195 -0.0011884486
0000b0 ec 4d aa 3b df 7c 9b bb bb 03 b6 3b 62 59 a8 3b
       0.0051972773 -0.0047451104 0.005554644 0.0051376084
0000c0 a8 75 c5 b9 82 7c 78 b9 c9 3f ca bb 56 5e c8 b9
       -0.0003766243 -0.00023697506 -0.0061721546 -0.00038217258
0000d0 31 9e 9a 3b 6c 48 24 3b 02 bd 70 3a cd 83 ec 3a
       0.004718565 0.002506758 0.0009183438 0.0018044651
0000e0 bd 8d 82 39 21 fc 71 3b 12 7f 15 3b 27 a4 31 39
       0.00024901135 0.0036923962 0.0022811336 0.00016941187
0000f0 2f 44 5f bb 0f b5 26 3c 0f dc 88 bb 17 75 b3 bb
       -0.003406774 0.010175004 -0.0041766237 -0.0054766047
000100 2f 1c 6c bb e2 79 0c 3c 34 e0 39 3b c1 95 87 bb
       -0.003602754 0.008573981 0.0028362395 -0.004137725
000110 a7 fd 32 3b 23 45 c7 3b 90 3c 34 3c 2c c4 39 bb
       0.0027311833 0.00608124 0.011000767 -0.0028345687
000120 89 e8 22 3a f5 da 43 3c 40 0b ec 3b 2a dd 17 bc
       0.000621446 0.011954059 0.0072034895 -0.009269038
000130 b1 d1 16 3b 2a 45 8c b9 65 55 9f 3b b8 b2 29 3b
       0.002301317 -0.00026754412 0.0048624747 0.0025893878
000140 76 0f 0a 3b fe 93 ce 3a 7e bc c0 bb 8e 84 0b bb
       0.0021066344 0.0015760658 -0.005881845 -0.0021288726
000150 4b 2e 99 3b 6d 13 54 3c ed 09 1c bc b6 06 dd ba
       0.004674708 0.012944085 -0.009523851 -0.0016862962
000160 f3 85 13 bc d3 3b 56 3c 98 38 75 3a 74 44 84 3b
       -0.009004104 0.013075787 0.00093544414 0.0040364806
000170 70 66 e1 bb e5 31 e1 bb b4 c7 cf 3b d4 e4 91 bb
       -0.0068786666 -0.006872403 0.006340945 -0.0044523273
000180 ed 2b 97 3b 57 91 2e ba f5 cb 09 bc 64 e3 43 3a
       0.0046133907 -0.00066592306 -0.008410444 0.00074725435
000190 20 37 53 3b c9 83 80 3b 37 00 c0 bb 05 7b 3f 3b
       0.0032228902 0.00392196 -0.0058594006 0.0029217612
0001a0 39 80 8c 3b 96 95 4c bb 11 0b 40 bc a6 a6 d0 bb
       0.0042877463 -0.003121709 -0.011721388 -0.0063675223
0001b0 0b 1d 83 bb 8c 9c ec bb ab 73 28 bb c6 12 60 3b
       -0.004001265 -0.0072208103 -0.002570371 0.0034190877
0001c0 5a dd 1c 3c 2b 0d e3 b9 c5 41 73 bb c0 36 ca 3b
       0.009574259 -0.00043306625 -0.003711806 0.0061710775
0001d0 55 d3 4d 3b d1 ce 47 3b 00 e3 8a 3b fa 2a bd bb
       0.0031406481 0.0030488262 0.0042384863 -0.0057729455
0001e0 e2 63 b2 3a cd 7f 48 3c d1 33 d0 3a 17 2e c2 ba
       0.001361009 0.012237501 0.0015884583 -0.0014814761
0001f0 66 ea 3f bc fe 3d 0f bb 8c 52 da bb 44 eb 34 3c
       -0.0117136 -0.0021857019 -0.0066626724 0.01104242
000200 f0 38 be 3b 88 74 46 bb b1 a0 b5 3b d9 88 7d bb
       0.0058051273 -0.003028186 0.0055428375 -0.0038686304
000210 24 8d 4c 3a 11 ef c8 bb d8 dc 08 3b 10 cd 75 3b
       0.0007803014 -0.0061320146 0.0020883586 0.003750626
000220 22 bb 4c 3b b8 3b fa ba b5 e1 cc bb 96 bf c6 3a
       0.003123947 -0.0019091284 -0.0062524923 0.0015163298
000230 8b ff 46 3c 0a 1a 36 3c 57 b0 22 3b 0b 81 67 3b
       0.012145887 0.011114607 0.0024824345 0.0035324718
000240 8f 63 bc bb 00 bf 99 bb 81 d7 c0 3b 08 4c 38 bb
       -0.005749173 -0.0046919584 0.005885065 -0.002812149
000250 9d 0a 2f bb 39 8a 0a 3c 4a 97 cf 3b 93 3d 80 3a
       -0.0026709207 0.008455806 0.0063351737 0.0009783976
000260 f0 89 7c bb 46 11 70 ba 3f ab ca 3b 64 68 a3 b9
       -0.0038534366 -0.00091578474 0.006184965 -0.0003116756
000270 ae be 61 ba c2 e6 d5 bb 61 bc 97 bb 4a 3f 3b bc
       -0.00086114823 -0.0065277526 -0.004630611 -0.0114286635
000280 e8 05 18 bb ed 8a c7 bb 29 c1 b9 3b a7 4e 05 3b
       -0.002319688 -0.0060895593 0.0056687784 0.002034107
000290 af 27 6d 3a a5 ce 2c 3c ab b9 f0 ba b1 11 1e 3a
       0.0009046746 0.010547315 -0.001836588 0.0006029858
0002a0 e6 50 15 3b ef 1a dc ba ef 46 70 3a e9 39 21 bb
       0.0022783815 -0.0016792695 0.00091658434 -0.0024601168
0002b0 3e 47 0e bc ea 7a cd 3b c9 59 5e 39 b7 21 67 bb
       -0.008683978 0.006270756 0.00021205017 -0.0035267898
0002c0 72 56 99 3b fe 86 f2 3a b8 34 91 bc 65 c9 ca ba
       0.0046794945 0.0018503366 -0.017725334 -0.0015471397
0002d0 a2 fc f4 3b a2 83 2f 3b 00 9f fa bb b8 d2 3c bc
       0.0074764052 0.002678134 -0.007648349 -0.011524849
0002e0 ad 17 87 3b 84 e1 9f 3a 28 41 2e 3b 7b 30 fe 3b
       0.0041226954 0.0012197946 0.002658913 0.007757244
0002f0 e8 ef 0f 3c f5 9b 32 bc 5d a4 8d ba e1 e4 0c 3c
       0.008785225 -0.010901441 -0.001080643 0.008599491
000300 22 ec ee 3a 73 52 f3 39 f1 86 df ba 24 a2 12 3c
       0.0018228332 0.0004641 -0.0017053765 0.00894979
000310 8e 9e f8 37 94 29 e0 3b 91 25 1a 3b 35 c3 a1 38
       2.9637737e-05 0.006840894 0.0023520926 7.7134384e-05
000320 b3 46 35 bc f1 b3 0a bc 0d 57 dc bb b4 92 73 bb
       -0.011064219 -0.008465753 -0.0067242444 -0.00371663
000330 af be ab 3a 2e 80 82 3b d6 fb b4 3b 9a 7b 2e 3b
       0.0013103093 0.0039825654 0.0055231852 0.0026623965
000340 6a f0 04 bc ec f3 85 3b 51 68 27 b9 57 7d fb 3b
       -0.00811396 0.0040879156 -0.00015965222 0.007674854
000350 3d 9d 14 bc 88 98 33 3b 53 8a 2d bb e0 d8 5d 3c
       -0.009070692 0.0027404148 -0.0026480153 0.013540477
000360 b6 ab 03 bb 63 e0 28 3b e0 9e 4e 3c 85 7d 22 ba
       -0.0020091361 0.002576851 0.012611121 -0.00061985134
000370 87 0f 00 bc dd c1 37 bb 54 07 dd bb 71 eb 84 bb
       -0.007816202 -0.0028039136 -0.0067452583 -0.004056387
000380 e0 2a b3 3b 06 5a 25 ba d0 04 87 3a 9a e7 fa bb
       0.0054677576 -0.0006307665 0.0010301117 -0.0076570036
000390 a4 ee 15 3b ca f3 1a 3b df 55 9d 3a 28 7c 2b bb
       0.0022877837 0.0023643845 0.0012003741 -0.0026166532
0003a0 69 58 13 bb 83 a3 e1 ba 47 e6 1f 3b 4c a6 90 bb
       -0.0022483116 -0.0017214868 0.002439873 -0.0044143554
0003b0 d3 cc 44 bb 38 10 20 bb 6b 15 9a ba f4 38 48 3c
       -0.0030029311 -0.002442373 -0.0011755651 0.01222061
0003c0 d0 cc e2 3a f2 5e 2b bc f0 28 f9 37 db 38 81 38
       0.001730347 -0.010459648 2.9702176e-05 6.1617895e-05
0003d0 1e 01 b5 bb 51 2d 79 bb 69 b8 ec bb 62 10 9f bb
       -0.005523815 -0.0038021395 -0.007224132 -0.004854248
0003e0 d2 17 a2 3a 6d 45 be bb 6d d4 0a bc 2a ee db bb
       0.0012366718 -0.005806616 -0.008473498 -0.006711741
0003f0 e6 d4 cf 3b 09 ed b5 3b 59 e4 28 bb e8 22 43 3b
       0.006342518 0.0055519384 -0.0025770871 0.0029775444

StatefulPartitionedCall/sequential/dense_1/MatMul/ReadVariableOp:0 f4 [17, 512]
000000 26 ee f9 3d 42 ea c2 3b b1 dc 00 bd 1b 31 16 bc
       0.12203626 0.005948336 -0.031460468 -0.009166981
000010 6e ce 19 3d 38 f1 2b 3d d4 f1 21 bd 7d 7e 63 bb
       0.037550382 0.04197809 -0.039537266 -0.0034712844
000020 3e e2 00 bd 17 e1 ac bd 53 ba 19 bd f2 b9 46 bd
       -0.03146576 -0.0844137 -0.03753121 -0.048517175
000030 ca e3 bf bd 8f 7a c4 bc ff 63 45 bd 13 fb 99 3d
       -0.09369619 -0.023984222 -0.048191067 0.07518592
000040 68 15 98 bc db a4 c3 3d 73 76 fd bc 8e 68 27 bd
       -0.018564895 0.09552928 -0.03094027 -0.040871195
000050 a3 a2 de bd 2e 0e 5d bd 0f 26 bb bc 82 5a 4c 3b
       -0.10870864 -0.0539686 -0.022845296 0.0031181877
000060 e7 82 7f bd 08 ef cd bc 5f be 64 bd 77 55 89 bd
       -0.062380698 -0.025138393 -0.055845615 -0.06705754
000070 fa 1d 1e 3c d1 64 0b 3d 72 81 a0 bd b4 20 89 3d
       0.009650702 0.034031693 -0.0783719 0.06695691
000080 2a 09 4b bd 51 03 0f 3d ae 2e 8a bb 69 0a 53 3d
       -0.049569286 0.034915272 -0.0042169904 0.0515236
000090 ba 84 81 bd 70 a1 a0 bd 05 ab 1d 3c 56 73 67 3c
       -0.06324144 -0.07843292 0.009623294 0.014126619
0000a0 76 71 85 bd c7 8b ce bc ba 43 25 bd 6e 6d af bd
       -0.065157816 -0.025213135 -0.040347792 -0.08565794
0000b0 c1 38 9f bd 32 f9 d7 bc 2d a8 85 3d f6 75 d5 bc
       -0.07774497 -0.026363943 0.065262176 -0.026057225
0000c0 f0 eb 85 bd 2d d4 91 bb b5 58 82 bd 08 b2 a6 bd
       -0.06539142 -0.004450342 -0.06364576 -0.081394255
0000d0 3d b0 8e bd 14 91 8f bc 2e 85 ef 3c 6d 66 7d bb
       -0.069672085 -0.017525233 0.02923831 -0.0038665787
0000e0 e2 ec 50 bd 6b 1b ba 3c 8f 01 1d 3e 63 2a 09 bd
       -0.05100716 0.022718152 0.15332626 -0.03348769
0000f0 bc a7 de 3d 66 db 81 bd 54 a7 f9 bc 82 07 f4 bc
       0.108718365 -0.06340675 -0.030475296 -0.029788736
000100 a5 9a 70 bd fa 33 85 bd 3d 25 69 bc 49 bf 45 bd
       -0.05874123 -0.06504054 -0.01423007 -0.048278127
000110 f9 5a 86 bd cd 7f 98 3d 02 88 d8 3d bd 74 91 bc
       -0.065603204 0.07446251 0.105728164 -0.01775586
000120 14 31 5a 3c 1f 64 80 bd 6c 92 74 3c 30 ac 1c bc
       0.013317365 -0.062690966 0.014927488 -0.009562537
000130 45 12 50 3d 0b 94 04 bd 44 19 07 3d 33 b2 a8 3d
       0.050798673 -0.032367747 0.03298308 0.08237114
000140 45 7c d9 bb f4 39 78 3d ca 53 9c 3b b9 a1 01 3e
       -0.0066371285 0.060602143 0.0047707306 0.12659349
000150 93 ad 2b bd 4c 47 b5 3c 1b f0 e8 3c cb 4f 05 3d
       -0.04191358 0.022128724 0.028434804 0.0325468
000160 9c 08 85 bd 3c 71 52 3d 02 8a aa bd ca 2e 93 bd
       -0.06495783 0.05137752 -0.08327104 -0.07186659
000170 db e2 8c 3d 24 97 c5 bc 04 af e4 bc e6 da c8 3c
       0.06879207 -0.024119921 -0.027915485 0.024518441
000180 46 02 1a bd 64 50 b2 bd 76 99 02 bd 57 74 49 bd
       -0.037599824 -0.087067395 -0.031884633 -0.049183216
000190 15 21 96 bd 11 21 72 bd 01 88 24 bc 91 df 82 bd
       -0.07330529 -0.059113566 -0.0100421915 -0.06390298
0001a0 0b 16 4a bd 00 27 68 3d 70 36 cf bc 98 7c 88 3c
       -0.049337428 0.05667782 -0.025294513 0.016660973
0001b0 9d 90 7e 3d 81 6d a5 3c 01 ad 6e bd 80 5f 17 3c
       0.062149633 0.020193817 -0.058270458 0.009239078
0001c0 c5 1e 9c 3d c8 7d 20 3d 4f 71 da bc 66 f9 78 bd
       0.07623056 0.039182454 -0.026665358 -0.06078472
0001d0 1d e8 8e 3b 17 32 6e bc cc d3 38 bd 98 cc 57 3d
       0.004361166 -0.01453831 -0.04512386 0.05268535
0001e0 a0 57 73 bc 0e 9f 82 bc 47 fa c8 bd 99 03 16 bd
       -0.014852434 -0.015944984 -0.098133616 -0.036624525
0001f0 73 36 59 bd f3 df 8d 3d 1f c0 27 3c 86 be 9c bd
       -0.053030442 0.069274805 0.010238676 -0.07653527
000200 49 8f 8e bd a1 a9 d6 3d 12 a5 80 bc a1 1a b1 3b
       -0.06960923 0.10481573 -0.015703712 0.0054047857
000210 bd 4a b3 bc cc 22 cc 3a 78 8b 50 bd 91 bf b4 bc
       -0.021886224 0.0015574335 -0.050914258 -0.022064002
000220 15 d4 9f 3d 5e 1b d9 bc af 41 83 3d 3d 1d 9a 3d
       0.07804123 -0.026502308 0.064090125 0.07525108
000230 7c 29 06 bd 50 f4 4e 3d 1e ef db bc 13 56 04 3e
       -0.032754406 0.050525963 -0.026847418 0.1292346
000240 d6 b2 0c 3e 2e cf 36 bd c5 e6 65 bc 17 4b 22 bc
       0.13740095 -0.044631176 -0.0140320705 -0.009905598
000250 0d 15 21 3e 10 44 51 3d 83 d1 c1 bd 3a 91 9a bc
       0.15730686 0.0510903 -0.09463789 -0.018868078
000260 25 22 d0 3d d5 b4 a4 bd 92 16 4b bd 74 04 03 3d
       0.101627626 -0.080423035 -0.04958207 0.03198667
000270 b4 18 75 3c e2 b0 a0 bd 1a df 31 bc fb c0 d9 3c
       0.014959503 -0.07846238 -0.010856414 0.026581278
000280 6f fe e2 3d 4f c5 06 3b 10 68 29 38 cc 5c bf 3c
       0.110836856 0.0020564382 4.0389656e-05 0.023359679
000290 c1 4c d3 bd 1a cb 89 bb 23 b5 88 bd 9a 66 ce bd
       -0.10317374 -0.00420512 -0.06675174 -0.100781634
0002a0 04 ea ce bc 0b 7b 91 3d 83 d9 8e 3d a1 cf b0 3d
       -0.025258072 0.07103547 0.06975081 0.08633352
0002b0 7e f0 93 bd 5e e2 39 bd 6f d9 d9 3b 61 ca fd bc
       -0.072236046 -0.045381896 0.0066482346 -0.03098029
0002c0 9e a7 f9 bc 35 d1 29 bd 2e 1b bf bc 20 8a 98 3c
       -0.030475434 -0.04145928 -0.02332839 0.01862055
0002d0 7f f2 7b 3c 29 9d 63 bd 71 02 4d bd 7b b3 95 bd
       0.01537764 -0.0555698 -0.050051156 -0.07309624
0002e0 8e 3c 9d 3c 54 9e 13 bd 8c 27 c4 bd 32 66 95 bd
       0.019193914 -0.036039665 -0.095778555 -0.07294883
0002f0 ed 8d 7d bb 0a 98 bb bd 2a c9 45 3b 21 7b 17 3d
       -0.003868933 -0.091598585 0.0030179718 0.03698266
000300 35 d4 d9 3d 88 f8 51 3e 47 0b 0f bd 38 f4 d6 3d
       0.106361784 0.20504963 -0.034922864 0.104958
000310 77 45 ad bd 40 9f 93 3c 9e 86 6d 3d 03 d4 d1 3d
       -0.08460515 0.018020272 0.05798971 0.10245516
000320 ef 73 f6 bc 16 d4 57 bd cf ba ce bd d5 5a 12 3c
       -0.030084578 -0.052692495 -0.10094225 0.008932789
000330 3e a4 2b 3e 51 90 8e bd d0 a9 78 bc 4f 98 6a bc
       0.16761872 -0.0696112 -0.015177205 -0.01431854
000340 2d 69 93 3c 2d 1f 3b 3d 34 89 22 bd 43 0f 9e 3d
       0.017994488 0.04568403 -0.03968163 0.07717755
000350 77 c0 17 3d 3e f6 54 3d b1 a2 30 3c cd c9 c9 3c
       0.037048783 0.051992647 0.010780976 0.024632359
000360 a3 11 8c bd 94 1b b6 bc 36 f1 38 bd e5 93 d8 bc
       -0.068393014 -0.022229947 -0.04515191 -0.02643771
000370 02 1d e0 3c a0 fb 93 bc 8b 67 b4 3c 93 5b 98 3c
       0.027357582 -0.01806432 0.02202203 0.018598353
000380 ae e4 3e 3d be c4 c6 bc a4 44 97 bc ef f0 33 bd
       0.046604805 -0.024263736 -0.018465348 -0.043930944
000390 b5 a1 ec 3b 1c 04 85 bd 61 5d 33 bd 54 ac 26 bd
       0.0072214254 -0.064949244 -0.043790225 -0.04069169
0003a0 99 5f 27 3c 74 0e 4a 3e d6 12 d7 3d 57 5c 33 bd
       0.010215663 0.19732076 0.105016395 -0.043789234
0003b0 9f a7 d9 bc 1d e8 11 bc 99 6f c4 bc 62 b9 2a bd
       -0.026569186 -0.008905438 -0.023978995 -0.0416807
0003c0 01 05 0d 3d 09 0f 30 3b 24 43 aa 3d 3c 0a 32 3e
       0.0344286 0.002686443 0.08313587 0.17386717
0003d0 e2 3a a6 bd 0e 65 db 3b b4 41 85 3d 68 d9 00 bd
       -0.081167 0.0066953963 0.065066725 -0.031457335
0003e0 fc 91 89 bc 70 c8 be bc 32 63 a6 bc ee f5 18 bd
       -0.016793244 -0.023288935 -0.020310972 -0.03734391
0003f0 e2 16 2d bd ff 9d 9b bc 0a f0 2f 3d 6c e3 e7 3c
       -0.04225815 -0.018996237 0.04295353 0.028306685

StatefulPartitionedCall/sequential/dense_1/BiasAdd/ReadVariableOp:0 f4 [512]
000000 03 78 1e bb 13 f9 a0 3c d6 4c 9b bc 35 2a 7c bc
       -0.002418042 0.019650018 -0.018957537 -0.015390922
000010 fa ac 40 3c 40 ea 01 3d 98 f4 e2 bb 54 04 98 bb
       0.011759991 0.03171754 -0.0069261305 -0.004639188
000020 7e d3 09 3d ca 7a 29 3d 3c 16 c7 ba 46 5b 6c 3c
       0.03364896 0.041376866 -0.0015189121 0.014426058
000030 d2 90 d8 3c 89 3b 1b 3d e6 23 5a bc 1a d9 0e 3d
       0.026436243 0.037898574 -0.013314223 0.034875013
000040 ea 95 93 3c 8d a0 b2 bc 89 52 2a bc 9c 18 04 3c
       0.01801582 -0.021805072 -0.0103956545 0.008062508
000050 ce 3a 2a 3c 46 20 a6 3c 8b 06 8d bc 73 ee 93 bc
       0.010389997 0.020279061 -0.017215034 -0.018058037
000060 b5 ce c0 bc 08 d9 29 bd 0c 17 45 bc e5 4a 10 3b
       -0.023536066 -0.041466743 -0.012029421 0.0022017297
000070 ad 7e b8 bc ea bb ac bb 04 29 4f 3d 29 a6 90 3c
       -0.022521341 -0.0052714245 0.050576225 0.017657356
000080 a9 57 da 3a d1 4e 18 bd 50 21 58 3a 19 be 00 bb
       0.0016658205 -0.03718454 0.000824471 -0.0019644557
000090 1c 6d 89 b9 88 a4 b5 3b 4c ce bf 3b 35 74 04 bb
       -0.0002621197 0.0055432953 0.00585345 -0.0020210866
0000a0 08 cc fa bb d2 17 50 3c a0 b6 52 ba db 26 3e 3b
       -0.007653717 0.012700992 -0.00080380775 0.002901486
0000b0 94 bd 57 bc f9 91 38 bb 77 7c 80 3c 45 48 0b 3d
       -0.013167758 -0.0028163178 0.01568435 0.03400447
0000c0 97 95 6d bc 07 e6 a1 bc 21 bc 24 3c c6 02 db bb
       -0.014500997 -0.019763006 0.010054619 -0.00668368
0000d0 e1 b5 94 bc f1 87 a1 3b bc 14 29 3c 18 56 14 3b
       -0.018153133 0.0049295356 0.010319885 0.0022634324
0000e0 e1 02 7d 3c 80 6c 8b bb 59 82 e3 3c b2 42 42 bb
       0.015442581 -0.0042548776 0.027772116 -0.0029641804
0000f0 39 02 a0 3c f2 fb 11 3c e6 57 03 b8 82 24 8f bc
       0.01953231 0.008910166 -3.1314696e-05 -0.017473463
000100 c3 30 49 bc e7 46 0f bc 61 d0 95 bc c8 76 6f 3b
       -0.012279692 -0.008744932 -0.01828784 0.0036539305
000110 f6 8e 8d 3c fd e1 9a bb fc c5 88 bb 3c 5f 25 bc
       0.017280083 -0.004726647 -0.004173992 -0.010093506
000120 d6 2a f1 bc de cf 37 3c ed 21 ea ba 2f 92 98 bb
       -0.029439371 0.011218993 -0.0017862894 -0.0046560983
000130 21 6f a5 3b 02 9a 2a 3d ba 95 6e 3c 65 c1 4a 3c
       0.005048648 0.04165078 0.014562065 0.01237521
000140 57 3e 2d 3c 44 25 d0 3c 85 77 a2 bb b9 5a 79 bc
       0.010573945 0.025408395 -0.0049580955 -0.015219384
000150 ad 69 8a 3b 99 f2 ad 3b 6f 76 0b 3c 97 5f 7f bc
       0.0042240233 0.005308461 0.0085121235 -0.015586755
000160 ad bc 2f bc 32 96 4e 3c 96 43 ce 3b 05 6b d5 3c
       -0.010726136 0.012609052 0.006294678 0.026052007
000170 77 98 8b 3c 56 92 1f 3c 42 6f c3 3b 36 07 d1 bc
       0.017040474 0.009739479 0.0059641907 -0.025516134
000180 a4 2f c1 3c 45 3e cf 3a 30 1a c5 bc b5 3d 1c 3c
       0.023582287 0.0015811404 -0.024060339 0.0095361965
000190 09 2a 47 3a 2f ae 07 3c b6 dc 15 b9 db a4 4b 3c
       0.0007597511 0.008281275 -0.00014291969 0.012429441
0001a0 80 bc 10 3d bc e6 a5 bc 35 2e dc 3c d6 58 8a bc
       0.035336018 -0.020251624 0.026877502 -0.016888063
0001b0 70 94 ca 3c 0a 33 62 3c bc 8f c4 bc 6b a0 c6 bb
       0.024728984 0.013806114 -0.02399432 -0.006061604
0001c0 fe 0f 95 3b 26 ce c2 ba 12 cd 25 bc ff 76 00 3c
       0.0045490256 -0.0014862462 -0.010119693 0.007840871
0001d0 6b ff 8b 3c b8 7a bc 3b 9b ba 57 3c 67 21 b5 3b
       0.017089566 0.005751934 0.013167049 0.0055276635
0001e0 d5 4a 11 bc 29 99 87 bb 17 93 b8 bb fc d6 23 bc
       -0.008867939 -0.004138131 -0.005632769 -0.009999987
0001f0 ff 68 06 3d cc f2 65 3c bc 5c 07 bb f0 4b 8b bc
       0.032814976 0.014034938 -0.002065464 -0.017003983
000200 5a 49 46 3b e4 94 0c 3c 9a a0 80 3b fc e6 e5 3c
       0.0030256123 0.00858042 0.003925395 0.028064243
000210 65 b7 7d 3c 22 49 26 bc 72 1a 4d 3c 03 e3 9f 3b
       0.015485619 -0.010149272 0.012518512 0.004879357
000220 9a 23 0d bb 52 2c a3 bc 13 91 ad ba 52 0d f1 3b
       -0.0021536113 -0.019918595 -0.0013242088 0.0073563242
000230 0d 86 41 bc b7 9a 1c bb 5a e1 2f 3c 17 78 9b bc
       -0.011811745 -0.0023895928 0.01073488 -0.018978162
000240 de 0e 71 3c bb ad 01 3b 46 c7 be bb 6b 06 39 3b
       0.014713017 0.001978739 -0.005822095 0.0028232585
000250 5d cf 0a bc 90 a4 70 bc 8d 54 d0 3b d8 2c bb bb
       -0.008472291 -0.014687672 0.0063577355 -0.005712133
000260 61 fd 1d bd 82 c3 1b bc ba 93 b1 bc c5 14 d5 3b
       -0.03857172 -0.009507062 -0.021676887 0.00650272
000270 65 81 c7 bc 98 dc 06 bd 7d b6 b6 3c e4 67 b2 bb
       -0.024353692 -0.03292522 0.022303814 -0.0054445136
000280 f3 31 e5 bb d0 6f d5 bb 43 45 a4 bb fa 78 ec bb
       -0.00699448 -0.006513573 -0.0050131395 -0.00721657
000290 31 1a 4a 3d 92 f9 15 bb f1 e1 67 3c 8f 2d 57 bc
       0.049341384 -0.0022884351 0.01415299 -0.013133421
0002a0 99 40 72 38 3d fe 2a 3b 51 1b aa bb c9 26 ea 3b
       5.7757457e-05 0.002609148 -0.0051912447 0.007145737
0002b0 5f 05 15 bc d8 ac 00 bd c1 18 90 3c c3 d6 d0 ba
       -0.009095519 -0.031414837 0.017589929 -0.0015933145
0002c0 38 f1 3c bc 64 e2 17 bc d8 a6 94 bc 6a 0c ae bb
       -0.01153212 -0.009270284 -0.018145964 -0.0053115385
0002d0 25 c5 53 bc 54 88 73 bb 58 cf 00 3d f0 bb f0 3c
       -0.012925421 -0.0037160115 0.03144774 0.02938649
0002e0 a2 ee 89 bc b3 43 ff 3b 94 d3 8d 3c ef d6 b5 bc
       -0.016837422 0.007790053 0.017312802 -0.022197215
0002f0 d5 81 48 3b cb b8 4a bc 87 0c 80 bb d8 b2 8f 3c
       0.0030594964 -0.01237316 -0.0039077434 0.017541334
000300 b2 82 f5 3c 1b b0 51 3c 40 40 d8 bc ba 65 bb 3b
       0.029969547 0.0127983345 -0.026397824 0.005718914
000310 44 71 85 bc cd d5 f6 bb 5d 3d 61 3b 73 2f c6 3c
       -0.01628936 -0.0075328113 0.003436885 0.024192547
000320 b8 aa 9e bb 91 74 36 ba 9d c2 81 bc 31 b6 68 3d
       -0.0048421286 -0.0006960119 -0.01583987 0.056814376
000330 71 2c 4c 3b af 50 e1 bb 03 0c 9e 3a 54 98 73 ba
       0.0031154419 -0.0068760733 0.0012058023 -0.0009292413
000340 5a f5 0e 3c dc 3a 6b bb 02 cd 46 3c ba 6c d5 3c
       0.008725489 -0.0035893237 0.012133839 0.026052821
000350 49 1b 16 bb 1c 0f c2 bb 8b 4e b4 3a 5a 2a 3e bc
       -0.0022904447 -0.0059222113 0.0013756318 -0.011606777
000360 22 e3 34 3a f8 c9 b0 3a 85 c5 99 bc 83 90 ac bc
       0.00069003005 0.0013487926 -0.018770942 -0.021065002
000370 c3 20 1b bc 44 db 6f b9 d5 60 ba 3a 24 03 e8 3b
       -0.00946826 -0.00022874499 0.0014219532 0.0070804525
000380 3c 96 5a 3b eb 97 c7 3a e7 57 e1 bc 31 99 19 bd
       0.0033353707 0.001522777 -0.027507735 -0.03749961
000390 68 40 13 3d a7 91 13 3c 30 7d c7 3b ca 6f da bc
       0.035950094 0.009006894 0.0060879216 -0.026664633
0003a0 40 c7 e2 3b 9d d4 8e 3c 1c f4 23 bc 8c 41 7b bc
       0.006920725 0.017435366 -0.010006931 -0.015335452
0003b0 b2 3a 9e bb 74 fc 49 bc 5b 23 f0 3b 69 29 b9 3c
       -0.0048287744 -0.012328256 0.0073284335 0.022602754
0003c0 ec 3e 81 bc 6a 07 05 3c eb 42 32 bb 74 00 ab bc
       -0.015777074 0.008119443 -0.002720053 -0.02087424
0003d0 06 27 e4 bc 25 9e 30 bb 5c 63 03 bc c9 7b 3c 3c
       -0.02785064 -0.002694973 -0.008019295 0.011504122
0003e0 1e 0c 4b 3c eb c5 ba b9 c3 95 d6 3c 0a e0 b1 3c
       0.012393026 -0.00035624145 0.026194459 0.021713275
0003f0 40 3f b6 bc 7c e0 ff bb 09 37 de 3c b3 76 1d bd
       -0.022246957 -0.007808743 0.027125852 -0.03844328

StatefulPartitionedCall/sequential/dense/MatMul/ReadVariableOp:0 f4 [17, 17]
000000 77 7d 9a be 62 8f c5 be d3 5c ac be a2 24 9e 3e
       -0.30173847 -0.38585955 -0.3366457 0.30887324
000010 7a 10 a3 be da 7b 13 3f 45 89 5c 3e 56 93 28 be
       -0.31848508 0.5761086 0.21536739 -0.16462454
000020 63 e4 59 3e 58 87 0f bf 62 32 ad 3e b9 88 94 bd
       0.21278529 -0.56065893 0.33827502 -0.0725264
000030 45 b6 8a 3d b1 9c 5e 3e c6 e4 a2 3e 2b 35 d6 3e
       0.067730464 0.2173946 0.31815165 0.4183744
000040 82 e4 df 3e f3 4d 0d 3f 16 7f 25 3e f5 e5 8d bd
       0.43729025 0.55197066 0.1616176 -0.069286264
000050 a2 d7 fa 3d 1e 4c db be 45 7e da 3d be e5 00 3e
       0.1224816 -0.4283151 0.10668615 0.1258764
000060 84 4e 87 be 9a aa a2 be 85 90 12 be 3c 68 97 bd
       -0.2642709 -0.31770784 -0.14312942 -0.07392928
000070 cf a6 ab be 0b 74 09 bf 34 58 e7 3e 0f 79 ee be
       -0.33525702 -0.5369269 0.4518448 -0.46576735
000080 f8 44 12 3e 0b d6 be be 57 0c 83 3e e3 50 af 3e
       0.14284122 -0.37272677 0.25595352 0.342414
000090 82 47 95 3e 6d 32 d8 bd 17 4a 59 3e dd d5 d4 be
       0.2915612 -0.10556493 0.2121967 -0.41569415
0000a0 51 20 83 be 73 71 dd 3d 03 17 f6 bd bb da 06 3f
       -0.25610593 0.10812654 -0.12016108 0.52677506
0000b0 30 7d c7 be f7 49 70 3d 86 14 cc bd 92 45 47 be
       -0.38962698 0.05866429 -0.09964852 -0.19460133
0000c0 f9 de de be 14 7b 50 be 8b 47 c6 bd a3 ea f7 be
       -0.4352949 -0.2035945 -0.096816145 -0.484212
0000d0 c8 9b 74 be 53 10 fd 3c 41 c2 bc bd 41 8c 99 3e
       -0.23887551 0.030891573 -0.092167385 0.29989818
0000e0 ab f1 18 be 4e c1 b3 bc 3e 33 85 3e d8 8e 04 3e
       -0.14935939 -0.02194276 0.26015657 0.12945116
0000f0 39 c3 30 3e c5 ee fc bc 89 0d a7 3e 84 33 de 3e
       0.17261972 -0.030875573 0.32627514 0.43398678
000100 a4 0e d2 be 27 40 c8 3e f7 a1 ed bb bb e4 de 3e
       -0.41026795 0.39111444 -0.0072519737 0.43533882
000110 34 67 1d 3e 31 7d 97 be f5 fa 9a be 50 a1 d4 3e
       0.153714 -0.295877 -0.3026959 0.41529322
000120 24 b4 c7 bc 4c 06 ae 3c 4a 35 60 bd c3 25 18 3d
       -0.02437789 0.021243237 -0.05473832 0.037145387
000130 04 c2 14 3e c4 0a 0d be 7a 97 95 be f3 fb 5a be
       0.14527136 -0.13773638 -0.2921713 -0.21385173
000140 c9 8a 25 3e a8 ac 2a 3d 0e 97 5a be 1f 0a a5 3e
       0.16166224 0.041668564 -0.21346685 0.32234284
000150 a1 c7 a8 3e f3 81 be bc 6c 25 38 3d 8d 84 a6 bd
       0.32964805 -0.023255324 0.044957563 -0.08130751
000160 f7 d4 7c 3d f4 ca 72 bd 5a 2d 41 be 4d 7c 1e 3e
       0.061726537 -0.059275582 -0.18864956 0.15477104
000170 97 2d a8 bd 26 66 70 be 48 30 94 bd ca 5e 22 be
       -0.082118206 -0.23476467 -0.072357714 -0.15856472
000180 3b 3f 97 3d d6 22 8f be 2d 1f 75 3e 78 c4 a1 be
       0.07385107 -0.27956265 0.23937674 -0.31595206
000190 cd 2d 54 be 6f 5f 74 3e 4e ed c2 bd 86 95 74 be
       -0.20720597 0.2386453 -0.095179185 -0.23885164
0001a0 d8 d8 9b bc 95 40 d6 3c a5 6e 18 be 57 15 3b bd
       -0.019024298 0.026153842 -0.14885958 -0.045674648
0001b0 df 11 08 bd c5 ea 1f be 67 d2 55 3d b8 7a 56 3e
       -0.03322017 -0.15616901 0.05220261 0.20945251
0001c0 80 5b 79 3e d1 ff 19 3d 85 5b 85 bc ea 3b 52 3e
       0.2435131 0.03759748 -0.016278991 0.20530668
0001d0 30 26 14 bd 36 d2 49 3e 42 4b 8b 3e 71 94 01 be
       -0.03616923 0.19709095 0.27205855 -0.12654282
0001e0 00 36 97 3e ab 0c 91 3e 67 ff 1e bd d9 81 29 bd
       0.29533386 0.28329977 -0.03881779 -0.041383598
0001f0 38 6f 6f 3e d4 57 74 bd b5 3c 09 be 53 1e a6 3d
       0.2338227 -0.059654072 -0.13402064 0.08111253
000200 b5 d1 88 3e e4 17 85 3e 67 0d 8e 3c b0 44 ac be
       0.26722494 0.2599479 0.017340375 -0.33646154
000210 cf da da bc 6d 31 63 bd 1c 3c 9c 3d 12 dd b2 3e
       -0.026715664 -0.055467058 0.076286525 0.34934288
000220 f5 87 c8 bd 4e 2a f0 bd 61 68 55 be fd 2e 92 bd
       -0.09791557 -0.11726819 -0.20840599 -0.071378686
000230 a3 8c 71 be 29 44 45 3d ac 0c c9 bd 0b 97 fe 3d
       -0.23588805 0.048160706 -0.0981687 0.12431153
000240 40 74 19 be 4b b9 72 3d 56 23 3b 3e 28 5a de bd
       -0.14985752 0.05925874 0.18275198 -0.1085704
000250 fe a4 b5 3c f2 53 35 be 60 45 3c be 39 41 9d be
       0.022173401 -0.17707804 -0.1838584 -0.30713823
000260 81 40 cf bd 7b 7b 63 3e f3 9f 29 be b3 ee ca bd
       -0.10119725 0.22215073 -0.16564922 -0.099088095
000270 fa b4 22 be b5 09 3b be 90 e8 53 3d 7b 91 18 bd
       -0.1588935 -0.18265422 0.05173546 -0.037248116
000280 1e 37 6e be 21 68 1c 3e 5e b6 35 3d 3b f6 17 be
       -0.23263213 0.15274097 0.044363372 -0.14840023
000290 52 4b b7 3d 3b a9 0d be dd c8 33 3d 22 84 f4 bd
       0.08949913 -0.13834088 0.04389273 -0.11939265
0002a0 4c 9e 1c be c6 ca 29 3e a2 6a 34 3d 32 72 57 bd
       -0.1529476 0.16581258 0.044047005 -0.05259914
0002b0 bc 54 b7 3d 8a 05 8f 3e cd d3 54 bd 5c d2 de bc
       0.08951709 0.27933913 -0.0519598 -0.027199917
0002c0 50 5c 40 be 1f 50 38 be fb 0b 3e be ac a8 1e 3d
       -0.18785214 -0.17999314 -0.18559258 0.038735077
0002d0 5e 0e c1 3d 41 22 bc be c3 d1 15 bd b1 27 71 3d
       0.094265684 -0.36744884 -0.036576997 0.058875743
0002e0 34 8c a1 bc 23 12 4d 3c 96 6c e6 3e 32 64 8d 3e
       -0.019720174 0.012516531 0.4500472 0.27615505
0002f0 5c 6a 8f be 38 16 31 bd 41 ff bc ba da b2 83 be
       -0.28010833 -0.04323408 -0.0014419333 -0.2572239
000300 ae 63 31 3d 3f fa 18 3e ae b7 6a 3e 53 63 0b 3d
       0.043307953 0.14939211 0.2292163 0.03403027
000310 4e 1c 32 3e 74 d5 26 be b5 d4 92 3b 6d e0 95 3d
       0.1739361 -0.16292363 0.004480923 0.073181964
000320 c5 8b 62 be 2d 98 59 3e 47 c5 8a 3e aa 54 58 3c
       -0.2212363 0.21249457 0.27103636 0.013203779
000330 43 88 6f bd 4a 25 b5 bd 90 54 62 3e 3e ba e9 3d
       -0.05847956 -0.08845003 0.2210257 0.11412476
000340 96 c1 5c bc 65 cd d5 3c f2 c5 08 be f7 7c b5 3d
       -0.013473889 0.026098916 -0.1335676 0.08861726
000350 1f 16 13 3e c0 d3 22 3e 8a 3a 71 be d2 aa 18 bd
       0.14363907 0.15901089 -0.23557487 -0.037272282
000360 f7 09 b1 be e1 8c 6d 3c 11 f1 81 3e a1 67 49 3e
       -0.34577915 0.01449892 0.25379232 0.19668438
000370 84 c2 34 3e 8d 79 4f 3e f3 b1 6b 3e 27 7e 04 3e
       0.17652327 0.20261212 0.23017101 0.12938748
000380 14 77 3d be e2 95 5c 3e 09 e0 39 3d d5 50 b8 3d
       -0.18502456 0.21541551 0.045379672 0.089997925
000390 b0 1e 48 bd 51 12 2c 3e f0 c1 92 be 39 23 78 be
       -0.04885739 0.16803862 -0.28663588 -0.24232186
0003a0 8d 64 b2 bd 60 53 04 3e 36 6e 21 be bc 14 4f 3d
       -0.08710585 0.1292243 -0.15764698 0.050556883
0003b0 6d 84 92 be 04 80 0a be 61 ea 4e 3e fa 64 e6 3d
       -0.28616658 -0.13525397 0.20206596 0.112497285
0003c0 15 b3 b9 3e f6 33 06 3e 8b 06 97 3e de 04 21 3d
       0.3626944 0.13105759 0.2949718 0.039311282
0003d0 4f ce 1f 3e a2 82 a7 3d 40 ca 7d be bd d8 2f be
       0.15606044 0.08179213 -0.24784184 -0.17172523
0003e0 ae 00 27 3c b7 e1 14 3e 8b 02 0b 3e 4b 52 20 3e
       0.010193033 0.14539228 0.13575189 0.15656392
0003f0 23 23 ce bd 72 3f 76 3e d0 6d 8b bd 10 b7 99 bc
       -0.100652955 0.2404764 -0.068080544 -0.018764049

StatefulPartitionedCall/sequential/dense/BiasAdd/ReadVariableOp:0 f4 [17]
000000 1c c5 f1 bd 16 ef 9d 3d 0c 84 c4 bd df 74 fb 3d
       -0.11805174 0.07711618 -0.095954984 0.12278151
000010 dc b6 4d 3d 23 b6 44 3e 1e 8f 3d bd 13 db 5f 3c
       0.050223216 0.19210105 -0.046279065 0.013663071
000020 a4 f9 9d bd 4f c3 27 3d 68 b2 2d bc 28 bd 5e bd
       -0.07713631 0.040957745 -0.010601617 -0.054379612
000030 be 0d 6f bc 4c 36 84 bd 83 da c9 bd 3a 24 0a 3d
       -0.014590679 -0.06455669 -0.09856131 0.033725955
000040 5f be b6 3d
       0.08923029
