data/DNN/Inlusive_noMetCut_genMETweight500enlarge_amcatnlo_xyComponent_JetLepXY_50EP__diff_xy_2018_20230315-1648genMETweighted.onnx (onnx, 580407 bytes, 24 tensors)

dense_3/kernel:0 f4 [256, 2]
000000 54 26 fa 3d 9b 31 e7 3d f5 a2 31 be c1 4b c0 bd
       0.12214342 0.11288758 -0.1734732 -0.09389449
000010 25 84 83 be f4 9b 0d 3e 1d fd 74 3e de 52 af 3d
       -0.25686756 0.13829023 0.2392468 0.085607275
000020 2d 53 00 3e da 98 6c bc 19 e0 0d bd b9 ce 62 3e
       0.12531729 -0.0144407395 -0.034637544 0.22149171
000030 68 f7 82 bd a5 32 09 be bc cd 61 be 80 1c 98 bd
       -0.06394845 -0.13398226 -0.22051138 -0.07427311
000040 89 70 7d 3e 27 ff ab 3d 87 4d 8e bd db 7c 77 3d
       0.2474996 0.08398276 -0.06948381 0.060421806
000050 e9 cb 82 3d 61 83 3a 3d e1 7e 5b be 5f 0b c9 3d
       0.06386549 0.04553545 -0.21435119 0.09816622
000060 01 d0 8f bc 16 df cd bc b2 bc d8 3d 43 e8 d1 bc
       -0.017555239 -0.02513079 0.10582866 -0.025623446
000070 05 41 59 3e 05 f7 85 bd a3 6a 05 bc 3c f9 2c 3e
       0.21216209 -0.06541256 -0.0081431 0.1689195
000080 88 f3 45 be 16 5d ee 3d fb b2 70 be e1 96 92 bc
       -0.19331181 0.116388485 -0.23505776 -0.01789421
000090 97 ff 9d 3e 4d 9b 01 3d 74 1a 58 bd 76 5d c9 bd
       0.30859062 0.031642247 -0.052759603 -0.098322794
0000a0 43 e8 56 be 27 aa 14 3e 1f 12 33 bc 32 07 86 bc
       -0.20987038 0.14518033 -0.010929613 -0.016360853
0000b0 fa 43 8b 3d 33 15 59 bd 31 6c 8d 3d 19 ac c6 3d
       0.06800075 -0.052998733 0.069054015 0.09700794
0000c0 1d 32 a1 bd 6c 60 42 be ec 04 bb 3d ea fe 02 be
       -0.078708865 -0.18982095 0.09131798 -0.12792554
0000d0 be 5f 4f be 64 46 23 3c fb fb ca 3d a0 43 e0 3c
       -0.20251366 0.009965513 0.09911343 0.027375996
0000e0 21 a2 05 3e a2 1b 0b be 6e 30 41 bd 2b 6b 4f bd
       0.13050129 -0.1358476 -0.047165327 -0.050639313
0000f0 07 24 53 3e 4e 9d de 3c 1d 35 9d bd ae 2c 80 be
       0.20619212 0.027174618 -0.07676146 -0.25034088
000100 28 8c 2d bd 54 39 47 be e9 46 81 be fd 66 21 3e
       -0.04236999 -0.19455463 -0.25249413 0.15761943
000110 ed 3f d4 3d 5d 30 0c 3e c7 fd 47 be 06 d6 cf bd
       0.103637554 0.13690324 -0.19530402 -0.101482436
000120 cc 8f 4d be 11 2a 8b 3c 34 7e 44 3e a7 b9 99 3d
       -0.20074385 0.016987832 0.19188768 0.075061135
000130 6a b0 37 bc 85 d0 7c 3e a1 6c 01 be 52 51 99 3d
       -0.011211494 0.24688919 -0.12639095 0.07486214
000140 e5 54 a0 3d d0 6c 80 3e e1 e7 98 bd 74 48 31 3e
       0.07828692 0.25083017 -0.074661024 0.17312795
000150 5a 30 50 bd b9 f9 af bd cb d9 6a be 67 52 50 be
       -0.05082736 -0.08592553 -0.22934644 -0.20343934
000160 a3 5f 83 be 22 f0 29 bd 05 97 9a 3c 83 bc 28 3e
       -0.25658903 -0.041488774 0.01887084 0.16478162
000170 f2 73 87 3e 59 53 f0 3d bd ce 19 3e 75 1a 3b 3d
       0.26455647 0.11734647 0.1502027 0.04567953
000180 5e 1e 98 bc cf cd 8f 3e 2b 60 75 be 9e d7 1d 3e
       -0.018569168 0.28086707 -0.23962466 0.15414283
000190 64 ab 38 3e 85 8e 85 3d c0 1d f8 bc 34 7c 87 3e
       0.1803413 0.06521324 -0.030287623 0.26461947
0001a0 00 c0 07 be 6f e0 7e 3d 4b 22 0c 3e 6e 3a 9e bd
       -0.13256836 0.062225755 0.13684957 -0.07725988
0001b0 11 2d 94 be 93 10 43 3d 36 36 ca bd a7 a1 b6 bd
       -0.28940633 0.04762323 -0.09873621 -0.089175515
0001c0 fb 5b bb 3d 14 75 e0 3d dd b6 b6 3d d8 99 03 be
       0.09148403 0.10959831 0.08921597 -0.12851655
0001d0 36 47 1d 3e 84 77 56 3d 34 2f 9f 3d 70 6b 99 3e
       0.15359196 0.052360073 0.07772675 0.2996478
0001e0 24 57 21 be 3a 53 2a 3d f7 14 38 be c5 b7 39 3c
       -0.15755898 0.041583277 -0.17976747 0.011335318
0001f0 a7 22 e8 bd be 0d 3b 3e da c6 9b bd 99 4c ad 3d
       -0.113347344 0.18266961 -0.07606287 0.084618755
000200 50 48 07 3e f0 f0 5a be 9e f2 08 3e 93 d0 1a be
       0.13211179 -0.21380973 0.13373801 -0.15118627
000210 45 45 83 3e 1f 72 40 3d 56 8d 05 bd 5d 40 54 3e
       0.25638786 0.046983834 -0.03260549 0.20727678
000220 fb 7a 49 be 93 58 5a bd 0d 80 bb 3d 4e bc de bd
       -0.1967582 -0.053307127 0.09155283 -0.1087576
000230 63 49 10 bd 47 c5 28 3e 5a bd 4f 3e 7f f1 a2 3d
       -0.035226237 0.16481505 0.20287076 0.07956218
000240 7f 3e f0 3d 5d 23 51 3e a6 85 e3 bd 22 ac 7b be
       0.1173067 0.20423646 -0.11109476 -0.24577382
000250 c8 e5 94 be 60 8a 93 3e 8f aa 2b bd 48 eb 25 3e
       -0.2908156 0.2881651 -0.041910704 0.16203034
000260 64 de 42 be 42 35 cf 3c 65 6b 96 3c 12 68 25 3e
       -0.19030148 0.02529395 0.018361757 0.16152981
000270 cc 82 00 3e 5a ff 62 be e4 4b 12 bc 12 cb fd bc
       0.12549895 -0.22167721 -0.008929227 -0.03098062
000280 a9 8a 7d bd 59 fb 52 bd d7 6c 67 be 19 c3 9d 3e
       -0.061899815 -0.051509235 -0.22600113 0.3081291
000290 63 ab 8f be a7 41 b8 3c c8 95 88 3d 5c bb 49 3e
       -0.28060445 0.022492243 0.066691935 0.19700378
0002a0 73 b1 75 be 50 49 1e bd 89 f8 26 bd d9 ad 32 3e
       -0.23993473 -0.038644135 -0.040764365 0.1744913
0002b0 49 ff 1b 3e c2 2c 0d 3e 28 97 3a 3e 62 07 c8 3c
       0.15234102 0.13786605 0.18221724 0.024417583
0002c0 a3 13 06 be 30 d8 82 3e 4a f4 9e bd fc 2b 87 be
       -0.13093428 0.25555563 -0.07761438 -0.26400745
0002d0 c1 d2 d3 3d 00 b4 f0 3c 3c 02 04 3e 22 f1 54 be
       0.103429325 0.029382706 0.12891477 -0.2079511
0002e0 1f 32 31 3e 73 2d c8 bd 00 b6 82 3d 06 67 9b 3e
       0.17304276 -0.09774294 0.0638237 0.30352038
0002f0 77 c5 37 be 08 c2 1a be 30 24 6e 3e 3f 14 5f be
       -0.1794642 -0.1511308 0.23255992 -0.21785067
000300 2c 0b aa bc d5 29 4f ba 50 24 33 be a3 52 a2 bd
       -0.02075728 -0.0007902657 -0.17494321 -0.07925918
000310 86 e7 ec 3d 67 f3 25 3d e5 e6 38 be 12 eb f2 bd
       0.11567597 0.04051533 -0.1805683 -0.11861242
000320 1b 87 f4 3d 32 33 06 be e7 59 0b be d0 11 94 3d
       0.11939832 -0.13105467 -0.13608514 0.0722996
000330 c0 f9 e8 3d cf 38 cd 3c 6a 5f 85 bd 0e a8 e4 3d
       0.11375761 0.025051503 -0.065123394 0.111648664
000340 b6 35 03 be d2 dc 98 be e7 db 3c bd f4 86 49 be
       -0.12813458 -0.29855973 -0.046108153 -0.19680387
000350 d3 b6 6c 3d 04 2b ec 3d 46 fe af 3d a1 88 f1 bd
       0.057791542 0.11531642 0.08593421 -0.11793638
000360 c0 40 bf 3d a9 b5 ef 3d 9a 80 4d 3e 72 87 d0 bc
       0.09338522 0.11704571 0.20068589 -0.02545521
000370 86 38 21 3e fa c9 ff 3c c3 e1 da bd 9f 44 23 be
       0.15744218 0.03122424 -0.10687592 -0.15944146
000380 31 12 d1 bd 12 18 0f 3e 8e fb c5 bb 7c c3 56 3e
       -0.10208548 0.13974026 -0.0060419505 0.20973009
000390 af 1c 0f 3e 2d ab b5 3d 70 50 7f 3e 0b 44 46 be
       0.13975786 0.0887054 0.24933028 -0.19361894
0003a0 ee 39 32 be d7 84 68 be df 89 43 be 9b b1 be bd
       -0.17404911 -0.22706924 -0.19095562 -0.09311219
0003b0 60 a3 3a be 3b 6f f1 bd 88 cb 35 be d9 d4 a3 bc
       -0.18226385 -0.11788794 -0.17753422 -0.019998955
0003c0 0d 93 fc bd 2e 1a 34 be 35 d4 84 bd 1e 4c 66 bd
       -0.12332735 -0.17588112 -0.06485788 -0.056224935
0003d0 da f8 eb 3c 33 37 69 3e 92 08 96 3d 31 70 b7 3a
       0.028805185 0.22774963 0.073258534 0.0013995228
0003e0 75 ac 29 be 71 cf 2b be a5 8e 38 3c 11 32 79 3e
       -0.16569693 -0.16778351 0.011264478 0.24335505
0003f0 e7 53 d8 3d 31 9f a7 3d c3 8d ca 3d af e2 16 be
       0.10562878 0.0818466 0.0989032 -0.1473491

dense_3/bias:0 f4 [2]
000000 4c c1 2a 3e 7a 27 14 3e
       0.166753 0.14468184

scale f4 [256]
000000 ef 3d b2 3e 87 c6 cb 3e 81 eb 9e 3e 68 8f 1b 3f
       0.34812877 0.39799902 0.3103905 0.60765696
000010 9f a0 11 3f 43 f3 9f 3e 4e 84 c7 3e cb d4 b7 3e
       0.56885713 0.3124028 0.38968128 0.35904536
000020 03 59 04 3f e5 31 0c 3f e9 49 cd 3e f7 38 9e 3e
       0.5169832 0.54763633 0.4009545 0.30902836
000030 86 ae ea 3e a0 2c b8 3e 40 29 b1 3e 33 52 f4 3e
       0.45836276 0.35971546 0.34601784 0.47718963
000040 7b f9 91 3e c4 65 de 3e ef 2d d5 3e 41 93 02 3f
       0.2851065 0.43437016 0.41636607 0.5100594
000050 43 20 d9 3e dd d7 34 3f 58 3a be 3e b0 29 c9 3e
       0.42407426 0.7064188 0.37153888 0.39289618
000060 cc b3 c5 3e 79 f7 a9 3e 43 32 a1 3e e0 18 12 3f
       0.38613737 0.3319662 0.3148366 0.57069206
000070 bd 4e d9 3e 65 79 07 3f 32 52 b5 3e 1f df a6 3e
       0.42442885 0.5291961 0.35414273 0.32592103
000080 17 da c0 3e 90 16 b8 3e 14 02 b0 3e 31 5b af 3e
       0.3766639 0.35954714 0.34376585 0.3424926
000090 98 34 c2 3e 5f 75 bb 3e dc 13 a6 3e c0 06 ce 3e
       0.3793075 0.36612985 0.32437027 0.40239525
0000a0 e8 6a ab 3e 6a 8c cc 3e 3e e3 bf 3e 91 2c b2 3e
       0.3348 0.39950877 0.3747806 0.34799626
0000b0 24 45 ef 3e 2e 1d b3 3e 08 57 ad 3e 45 a8 b6 3e
       0.46732438 0.349832 0.33855462 0.35675254
0000c0 bb 77 fa 3e eb 9e 9f 3e a3 50 ff 3e d7 bc 9e 3e
       0.48919472 0.31175932 0.49866208 0.31003448
0000d0 ca 8d d4 3e bb e0 c3 3e 6b bb a3 3e 14 84 d4 3e
       0.41514426 0.38257393 0.31978926 0.41507018
0000e0 32 99 b7 3e 76 cf 90 3e 8d 98 02 3f 9d 5b 9a 3e
       0.35859066 0.2828328 0.51014024 0.3014802
0000f0 f1 0e a5 3e e9 b4 b3 3e 7b 5b 9b 3e 59 44 be 3e
       0.32237962 0.3509896 0.30343232 0.3716152
000100 40 46 b6 3e 61 c8 ab 3e 8b 2f bd 3e 17 e8 b4 3e
       0.35600471 0.33551314 0.36950335 0.3533332
000110 03 69 a2 3e 75 e2 b0 3e c2 c5 aa 3e bd 5d 8c 3e
       0.31720743 0.34547773 0.33354002 0.27415267
000120 78 f5 b7 3e a3 73 b2 3e c9 39 b3 3e 23 ae a4 3e
       0.35929465 0.3485385 0.35005024 0.32164106
000130 65 de bc 3e ca 68 dc 3e b8 56 ae 3e 4a a9 06 3f
       0.36888424 0.43048698 0.34050536 0.52602065
000140 5e 9c f4 3e 35 41 bf 3e d2 0e ea 3e ec c2 97 3e
       0.4777555 0.37354437 0.45714432 0.296409
000150 47 cc cd 3e d1 0f e6 3e db 0f b4 3e af ac b2 3e
       0.40194914 0.44933942 0.35168347 0.34897372
000160 a8 56 a5 3e 5e 81 b2 3e b6 75 f4 3e b1 28 96 3e
       0.32292676 0.34864324 0.47746056 0.2932792
000170 00 71 a7 3e 94 f7 a7 3e 64 f6 b6 3e e2 11 d9 3e
       0.327034 0.32806075 0.35734856 0.42396456
000180 e0 95 65 3f 30 80 bf 3e fa a8 d5 3e 1f 84 d2 3e
       0.89681816 0.37402487 0.4173048 0.41116425
000190 a9 7a b2 3e 59 cd f0 3e 9f 01 07 3f c3 18 ce 3e
       0.34859207 0.47031668 0.5273685 0.40253267
0001a0 23 2f 8c 3e 14 e0 9f 3e 98 75 dd 3e 79 32 ba 3e
       0.27379712 0.31225646 0.4325378 0.36366633
0001b0 86 1c f5 3e bc 97 8f 3e 14 f3 9e 3e b7 c7 d8 3e
       0.47873324 0.28045452 0.3104483 0.4233987
0001c0 a6 1f d2 3e 9b ae 01 3f da e2 d4 3e af 37 cf 3e
       0.4103977 0.5065705 0.41579324 0.4047217
0001d0 b8 8a f0 3e 44 2d c4 3e a5 b0 c8 3e c3 26 c3 3e
       0.46980834 0.38315785 0.3919727 0.3811551
0001e0 24 20 ad 3e b8 f7 e8 3e 74 6f fd 3e 8b 44 d3 3e
       0.33813584 0.45501494 0.49499094 0.41263232
0001f0 8d 2e bf 3e 91 41 11 3f bd bf d3 3e 1d d2 af 3e
       0.37340203 0.5674067 0.41357222 0.3433999
000200 a0 e7 09 3f e3 65 93 3e 5a a9 e8 3e 91 92 b4 3e
       0.53869057 0.2878867 0.45441705 0.3526807
000210 d1 d6 07 3f 03 77 00 3f 48 0c 94 3e 4e d9 70 3f
       0.5306216 0.501816 0.2891562 0.9408158
000220 7e 1e c7 3e aa c4 b8 3e d5 e2 88 3e 1b 8b a3 3e
       0.3889045 0.36087543 0.2673556 0.31942067
000230 9b 67 9d 3e 3f 97 ab 3e bf 91 9b 3e a9 cc 98 3e
       0.30743107 0.3351383 0.30384633 0.29843643
000240 b9 91 b2 3e e8 cc ca 3e c1 f6 d7 3e 17 1f a3 3e
       0.34876803 0.39609456 0.42180446 0.31859657
000250 17 5f c3 3e e3 cd a8 3e c3 68 b3 3e f5 7e f2 3e
       0.38158485 0.3296958 0.35040864 0.47362486
000260 a2 4d d1 3e e3 c8 98 3e 0b ed a5 3e 8a 24 d1 3e
       0.40879542 0.29840764 0.32407412 0.4084819
000270 80 10 d5 3e 95 a1 a4 3e cb 7c a4 3e c9 84 c1 3e
       0.4161415 0.32154527 0.3212646 0.3779662
000280 cb 9c 8a 3e 92 a8 9e 3e 9c ec ad 3e 26 28 9c 3e
       0.2707275 0.30987984 0.3396958 0.3049938
000290 89 13 c7 3e 15 4d e4 3e b7 2b ab 3e a8 2e bf 3e
       0.38882092 0.4459006 0.3343179 0.37340283
0002a0 35 ef 9b 3e 7f c9 0f 3f 0b fa a3 3e ec 7e af 3e
       0.30455938 0.56166834 0.32026705 0.3427652
0002b0 97 fc a1 3e 14 f4 ed 3e 9d ad df 3e c5 3d e3 3e
       0.31638023 0.4647528 0.43687144 0.44383064
0002c0 28 2b 90 3e 3e a5 a2 3e 45 ff ec 3e f0 e1 c8 3e
       0.28157926 0.31766695 0.46288505 0.39234877
0002d0 12 d1 f6 3e a3 74 e1 3e a6 f8 bd 3e 1c 9c 96 3e
       0.48206383 0.440343 0.37103766 0.29415977
0002e0 dd 64 e9 3e bf 50 bf 3e 87 38 be 3e 1b d1 39 3f
       0.45584765 0.37366292 0.37152502 0.72584695
0002f0 54 37 0f 3f 51 19 cf 3e 86 2a 8e 3e 46 c5 c4 3e
       0.559438 0.40449002 0.27766818 0.38431758
000300 82 f9 c1 3e a1 77 9e 3e f5 c1 d0 3e 2e 80 cf 3e
       0.37885672 0.30950645 0.40772977 0.4052748
000310 1e 71 ec 3e 00 8d bc 3e 8f fb af 3e 47 53 9d 3e
       0.46180052 0.36826324 0.3437161 0.30727598
000320 d0 b5 9c 3e e7 f1 bf 3e 5b f6 a2 3e b0 39 a0 3e
       0.30607462 0.37489244 0.3182858 0.31294012
000330 1d 25 ce 3e a9 ff d2 3e de ef a4 3e 97 97 91 3e
       0.4026269 0.41210678 0.32214254 0.28435966
000340 31 d3 bf 3e 43 c8 68 3f fc e7 cb 3e 6e be ae 3e
       0.37465814 0.90930575 0.39825428 0.3412966
000350 02 6b c1 3e f6 86 84 3e 5c 63 b4 3e d3 e2 d9 3e
       0.37776953 0.25884217 0.35232055 0.42555866
000360 19 88 e1 3e d0 bd 9c 3e a6 d8 b5 3e 78 fd 0d 3f
       0.44049147 0.30613565 0.35516852 0.5546489
000370 d8 24 dc 3e b5 77 af 3e 3a 2d aa 3e 97 b5 da 3e
       0.4299686 0.34271017 0.3323763 0.42716667
000380 8b 3b 98 3e 84 f8 f4 3e d2 7c b0 3e 47 9d 9e 3e
       0.29732928 0.47845852 0.3447023 0.30979368
000390 9f a1 d9 3e 88 79 b2 3e 42 55 98 3e da e7 be 3e
       0.4250612 0.34858346 0.29752547 0.37286264
0003a0 be 32 18 3f 0c 93 b8 3e 5b 89 e4 3e 8b 7e a0 3e
       0.59452426 0.36049688 0.44636044 0.31346545
0003b0 f3 30 11 3f 37 bb a4 3e e1 db bf 3e b5 1f ec 3e
       0.56715316 0.32174084 0.37472442 0.4611794
0003c0 02 bd a7 3e 52 26 d5 3e bd a4 a8 3e 72 76 d8 3e
       0.3276139 0.416308 0.32938185 0.42277867
0003d0 4f c2 d5 3e bd c1 c3 3e 73 e3 9e 3e e6 76 a1 3e
       0.41749808 0.38233748 0.31032905 0.31536025
0003e0 1c 24 ae 3e 0b 08 d3 3e dd 67 d3 3e 61 8e a1 3e
       0.34011924 0.41217074 0.4129018 0.3155394
0003f0 b3 a1 b3 3e ad cb db 3e 99 83 c3 3e 2b af c9 3e
       0.35084304 0.4292883 0.3818634 0.39391455

bias f4 [256]
000000 91 ed 9d 3e 51 d0 3e be 8d 59 19 bf 50 30 e0 be
       0.3084531 -0.18634154 -0.5990227 -0.4378686
000010 5f 35 87 be 31 0b 85 bd 4e 1b 5d be 90 a9 41 be
       -0.26407906 -0.06496275 -0.21592447 -0.18912339
000020 6e 4e e8 3d 3e 33 5d be 76 f9 0f 3e 01 ad 11 bf
       0.11343084 -0.21601579 0.14060006 -0.5690461
000030 fa 27 8a be 9e 46 1a 3e ae 0f 93 3d 85 26 14 bf
       -0.26983625 0.15066001 0.07180725 -0.57871276
000040 7e 12 af bd 9b fe 1e bf 33 88 a8 3e 84 1a 5d bf
       -0.08548449 -0.6210725 0.32916412 -0.86368585
000050 ed 16 98 be 24 eb 21 bf 7c a5 44 bd 60 e2 5b 3e
       -0.2970499 -0.6324942 -0.04800938 0.21473074
000060 cb 4b 2a bf b1 07 06 be 37 86 d8 bc 9c 6b f9 3b
       -0.665219 -0.13088872 -0.026431186 0.007611705
000070 30 15 e0 be 34 94 1b bf 3e ea 63 bd 99 90 25 bf
       -0.43766165 -0.60773015 -0.055643313 -0.64673764
000080 ba dd 1d bf 9e 53 07 bf 8f 0a 8a 3c d7 38 86 bd
       -0.6166645 -0.52861965 0.016850738 -0.0655381
000090 58 f7 03 bf 44 99 38 3e 04 64 f6 3c 5b c6 7c be
       -0.5154929 0.18027216 0.030076988 -0.24685042
0000a0 fa 7f 0b be ac d5 39 bf 1e b4 f3 be 09 d5 5b be
       -0.13623038 -0.7259166 -0.47598356 -0.21467985
0000b0 30 7d 28 bf 18 3c ad bb 1c 3a 82 3d 2c 23 93 3d
       -0.6581602 -0.0052867047 0.0635874 0.07184443
0000c0 d8 53 b2 be 1b 1d cc be ef 29 66 3e 90 fd c0 3c
       -0.34829593 -0.39865956 0.22476934 0.023558408
0000d0 10 e1 c2 be ff 73 65 be 59 6b c9 be 2a 70 ed be
       -0.38062334 -0.2240753 -0.39339712 -0.46374637
0000e0 20 28 bb 3d 24 4f 92 be be 4f 7a be 4a b2 58 bd
       0.091385126 -0.28576005 -0.24444482 -0.052904405
0000f0 c3 e5 d1 bd 08 be 8b be e8 2b 7e bc 0e 6a 26 be
       -0.10248902 -0.2729342 -0.015513398 -0.16251394
000100 93 d5 f7 bd a4 e5 9e be cb 3b 12 3e be f3 2d 3e
       -0.12101283 -0.31034577 0.14280622 0.16987512
000110 8e 26 e7 be aa c9 a2 be be 23 80 3e cc a3 fe 3d
       -0.45146602 -0.31794482 0.2502727 0.124335855
000120 22 3b 83 be c7 18 67 bf b6 83 15 3d 80 1a 92 bc
       -0.25631052 -0.9027218 0.036502562 -0.017834902
000130 e4 6e 50 be 0a b9 a7 3e 23 7b 15 bf 54 cf 9d be
       -0.20354801 0.3275836 -0.58391017 -0.3082224
000140 b7 a2 2a bf 2f 01 35 bf ca af 82 bf 48 51 12 be
       -0.66654533 -0.7070493 -1.0209897 -0.14288819
000150 15 47 20 bf 3a d4 34 bf c8 93 0a be e3 10 bc 3e
       -0.6260846 -0.7063633 -0.13532937 0.36731634
000160 15 d2 9e be bf bc 78 be fb d7 50 3e 5e 78 a8 be
       -0.31019655 -0.24290751 0.2039489 -0.32904333
000170 c6 3c 0e 3e ea 5e e8 bd 94 95 17 bf 6c fc 0f be
       0.1389037 -0.113462284 -0.59212613 -0.14061135
000180 9b 2c 71 be 39 e6 44 be a9 d5 40 3e 7a 04 1f bf
       -0.23552172 -0.19228448 0.18831505 -0.62116206
000190 f9 6d 05 be da 91 bf be 03 61 d4 3d f8 dd 4d be
       -0.13030232 -0.37415963 0.10370066 -0.20104206
0001a0 35 1c eb be 4f 7c d0 bd 36 52 03 be e1 66 bb be
       -0.45919958 -0.1017996 -0.1282433 -0.36601928
0001b0 ca a9 7b be 90 1b 8b 3d ee 8d 0a be 80 5f 1b bf
       -0.24576488 0.067923665 -0.13530704 -0.60692596
0001c0 0e 93 d9 be 03 2a 29 be 38 5c b6 3c be e7 ca be
       -0.42495006 -0.16519932 0.02226077 -0.3962993
0001d0 5a 2b 60 bf 2d ca bf be fc 41 ea bd 60 3c d9 be
       -0.8756615 -0.37458935 -0.11438367 -0.42428875
0001e0 f8 59 0a be b7 cd da be fd 87 07 bf 1e 0a b6 3d
       -0.13510883 -0.42735073 -0.52941877 0.088886485
0001f0 ce 11 06 bf c2 f0 46 bf f9 e1 21 3e 83 67 db be
       -0.5237092 -0.7771112 0.15808858 -0.4285241
000200 47 e2 2a bf 2b 6c 1e 3e c0 fe 07 be a3 33 81 3e
       -0.6675152 0.1547095 -0.13280773 0.25234708
000210 49 f5 99 be 56 40 03 bf 61 69 ee be 72 29 d9 be
       -0.3006995 -0.51270044 -0.46564773 -0.42414433
000220 d2 a5 1a bf 70 78 30 be be 07 5f 3e 6f 5a bb be
       -0.6040927 -0.17233443 0.21780297 -0.36592433
000230 a1 ee ae bd bd 8b 9c be 15 9c db 3d 2e 7c 99 be
       -0.085416086 -0.30575362 0.1072313 -0.29977554
000240 8a 15 33 3e 86 ef c7 bd c1 01 d7 bd 88 f6 9a be
       0.17488685 -0.09762482 -0.104983814 -0.30266213
000250 53 6b 2c bf 47 91 ca be e9 91 31 bf 48 e8 1d bf
       -0.67351264 -0.39563963 -0.69363266 -0.6168256
000260 46 0a 37 bf be 89 38 3e fd eb ad be 66 2f f2 be
       -0.7150005 0.18021294 -0.33969107 -0.47301787
000270 0d e7 e3 bd 9e 6f e9 be ed 02 6d 3d f6 ac 74 be
       -0.11128054 -0.4559297 0.05786412 -0.23894104
000280 3e 51 81 bd 7a f6 18 bc a7 37 e4 be 5a 9c 14 3d
       -0.06314324 -0.009336108 -0.4457371 0.03628192
000290 e4 c2 61 be 98 3d ec be f2 ac e4 be d8 55 6a bf
       -0.22047001 -0.46140742 -0.44663197 -0.9153724
0002a0 53 65 4f be ba c4 19 bf f1 4c 77 be 7c 1f 40 be
       -0.20253496 -0.60065806 -0.24150445 -0.1876201
0002b0 70 1c 3b 3e 8b be c1 bd e2 04 17 be 19 ce 89 be
       0.18272567 -0.09460171 -0.14747956 -0.26915053
0002c0 d3 f0 03 be 0a 3b eb be 3e 9d 58 bf b4 da 2a 3d
       -0.12884836 -0.4594348 -0.8461493 0.041712478
0002d0 3a 9d d0 be 15 98 65 be 7e 17 2b bf 24 15 2a be
       -0.40744954 -0.22421296 -0.6683272 -0.16609627
0002e0 1c 16 06 3e f7 6a 1c bd 25 b9 0e bd ab 9e 9a be
       0.13094372 -0.038187947 -0.034844536 -0.3019918
0002f0 22 46 1c be 24 96 e8 bd 61 80 75 3e 27 59 d4 bd
       -0.15261129 -0.11356762 0.23974754 -0.10368567
000300 fa 10 cc be 1e dd 17 3d 2f 5f aa bd 20 71 30 3b
       -0.39856702 0.03707611 -0.08318936 0.0026922897
000310 97 db e8 be 56 3e b3 be d9 18 fe bd 0d 54 0a 3e
       -0.45480034 -0.35008496 -0.12407083 0.13508625
000320 98 07 52 be 1c b8 81 be 5e fb 4c 3e 44 16 7b be
       -0.2051071 -0.25335777 0.20017764 -0.24520212
000330 b5 c7 8b 3e 08 b7 b1 be 19 c8 87 3d 6c ba f3 bc
       0.27300802 -0.34709954 0.066299625 -0.029751979
000340 7a af 0a 3e 66 5c 75 3e 80 65 f9 bc 16 71 af 3e
       0.13543501 0.23961028 -0.030443907 0.34265965
000350 40 5f 2a be f5 da 18 3e 1f 63 c5 be d7 f1 76 bf
       -0.16637897 0.14927275 -0.38552186 -0.9646277
000360 d9 9a 24 be ae 84 35 3e ae 9e 00 3e e6 77 cf be
       -0.16074695 0.17726395 0.12560531 -0.40521163
000370 cf 6a dc be 7d a7 ed bc 48 b3 a0 bd 8d ee c9 be
       -0.43050238 -0.029010529 -0.07846695 -0.39439812
000380 62 1c 9c 3e 86 87 09 be 99 41 2b 3e 16 4a 85 be
       0.30490404 -0.13430604 0.16724242 -0.26033086
000390 ec e3 e6 be 60 72 06 bf 42 2b 16 3d e0 a5 af be
       -0.45095766 -0.5251827 0.036662348 -0.3430624
0003a0 2d e9 80 be 8c 9a e6 bc 22 0e 66 be 4f 80 7a 3d
       -0.251779 -0.028149866 -0.22466329 0.06115752
0003b0 de 19 17 3e a2 11 9d 3e 2a 8f 6d 3e ac a3 ea be
       0.14755961 0.30677515 0.23199144 -0.45827997
0003c0 80 7f ae 3c 99 44 70 bf 62 36 a6 be 0e 9c b5 be
       0.021301031 -0.9385467 -0.32463366 -0.35470623
0003d0 27 f1 db be db 28 d9 be ca 08 c4 be 18 e4 0e bf
       -0.42957422 -0.42413983 -0.38287956 -0.55816793
0003e0 95 dd 64 3d 2e fe dc be 40 5e 21 be 01 21 d3 be
       0.05587538 -0.43162674 -0.1575861 -0.41236117
0003f0 33 69 8e be b9 34 4f be 6e 38 1b bf 44 64 ae be
       -0.27814636 -0.20234956 -0.6063298 -0.34060872

mean f4 [256]
000000 00 00 00 80 00 00 00 00 00 00 00 00 00 00 00 00
       -0.0 0.0 0.0 0.0
000010 00 00 00 00 00 00 00 80 00 00 00 00 00 00 00 00
       0.0 -0.0 0.0 0.0
000020 00 00 00 80 00 00 00 00 00 00 00 80 00 00 00 00
       -0.0 0.0 -0.0 0.0
000030 00 00 00 00 00 00 00 80 00 00 00 00 00 00 00 00
       0.0 -0.0 0.0 0.0
000040 00 00 00 00 00 00 00 00 00 00 00 80 00 00 00 00
       0.0 0.0 -0.0 0.0
000050 00 00 00 00 00 00 00 00 00 00 00 00 00 00 00 80
       0.0 0.0 0.0 -0.0
000060 00 00 00 00 00 00 00 00 00 00 00 80 00 00 00 80
       0.0 0.0 -0.0 -0.0
000070 00 00 00 00 00 00 00 00 00 00 00 80 00 00 00 00
       0.0 0.0 -0.0 0.0
000080 00 00 00 00 00 00 00 00 00 00 00 00 00 00 00 80
       0.0 0.0 0.0 -0.0
000090 00 00 00 00 00 00 00 00 00 00 00 00 00 00 00 00
       0.0 0.0 0.0 0.0
0000a0 00 00 00 00 00 00 00 00 00 00 00 00 00 00 00 00
       0.0 0.0 0.0 0.0
0000b0 00 00 00 00 00 00 00 00 00 00 00 80 00 00 00 80
       0.0 0.0 -0.0 -0.0
0000c0 00 00 00 00 00 00 00 00 00 00 00 80 00 00 00 00
       0.0 0.0 -0.0 0.0
0000d0 00 00 00 00 00 00 00 00 00 00 00 00 00 00 00 00
       0.0 0.0 0.0 0.0
0000e0 00 00 00 80 00 00 00 00 00 00 00 00 00 00 00 00
       -0.0 0.0 0.0 0.0
0000f0 00 00 00 00 00 00 00 00 00 00 00 80 00 00 00 00
       0.0 0.0 -0.0 0.0
000100 00 00 00 00 00 00 00 00 00 00 00 80 00 00 00 80
       0.0 0.0 -0.0 -0.0
000110 00 00 00 00 00 00 00 00 00 00 00 80 00 00 00 00
       0.0 0.0 -0.0 0.0
000120 00 00 00 00 00 00 00 00 00 00 00 80 00 00 00 00
       0.0 0.0 -0.0 0.0
000130 00 00 00 00 00 00 00 80 00 00 00 00 00 00 00 00
       0.0 -0.0 0.0 0.0
000140 00 00 00 00 00 00 00 00 00 00 00 00 00 00 00 00
       0.0 0.0 0.0 0.0
000150 00 00 00 00 00 00 00 00 00 00 00 00 00 00 00 80
       0.0 0.0 0.0 -0.0
000160 00 00 00 00 00 00 00 00 00 00 00 80 00 00 00 00
       0.0 0.0 -0.0 0.0
000170 00 00 00 80 00 00 00 00 00 00 00 00 00 00 00 00
       -0.0 0.0 0.0 0.0
000180 00 00 00 00 00 00 00 00 00 00 00 80 00 00 00 00
       0.0 0.0 -0.0 0.0
000190 00 00 00 00 00 00 00 00 00 00 00 80 00 00 00 00
       0.0 0.0 -0.0 0.0
0001a0 00 00 00 00 00 00 00 00 00 00 00 00 00 00 00 00
       0.0 0.0 0.0 0.0
0001b0 00 00 00 00 00 00 00 00 00 00 00 00 00 00 00 00
       0.0 0.0 0.0 0.0
0001c0 00 00 00 00 00 00 00 00 00 00 00 00 00 00 00 00
       0.0 0.0 0.0 0.0
0001d0 00 00 00 00 00 00 00 00 00 00 00 00 00 00 00 00
       0.0 0.0 0.0 0.0
0001e0 00 00 00 00 00 00 00 00 00 00 00 00 00 00 00 80
       0.0 0.0 0.0 -0.0
0001f0 00 00 00 00 00 00 00 00 00 00 00 80 00 00 00 00
       0.0 0.0 -0.0 0.0
000200 00 00 00 00 00 00 00 00 00 00 00 00 00 00 00 80
       0.0 0.0 0.0 -0.0
000210 00 00 00 00 00 00 00 00 00 00 00 00 00 00 00 00
       0.0 0.0 0.0 0.0
000220 00 00 00 00 00 00 00 00 00 00 00 80 00 00 00 00
       0.0 0.0 -0.0 0.0
000230 00 00 00 00 00 00 00 00 00 00 00 00 00 00 00 00
       0.0 0.0 0.0 0.0
000240 00 00 00 80 00 00 00 00 00 00 00 00 00 00 00 00
       -0.0 0.0 0.0 0.0
000250 00 00 00 00 00 00 00 00 00 00 00 00 00 00 00 00
       0.0 0.0 0.0 0.0
000260 00 00 00 00 00 00 00 80 00 00 00 00 00 00 00 00
       0.0 -0.0 0.0 0.0
000270 00 00 00 80 00 00 00 00 00 00 00 80 00 00 00 00
       -0.0 0.0 -0.0 0.0
000280 00 00 00 00 00 00 00 00 00 00 00 00 00 00 00 80
       0.0 0.0 0.0 -0.0
000290 00 00 00 00 00 00 00 00 00 00 00 00 00 00 00 00
       0.0 0.0 0.0 0.0
0002a0 00 00 00 00 00 00 00 00 00 00 00 00 00 00 00 00
       0.0 0.0 0.0 0.0
0002b0 00 00 00 80 00 00 00 00 00 00 00 00 00 00 00 00
       -0.0 0.0 0.0 0.0
0002c0 00 00 00 00 00 00 00 00 00 00 00 00 00 00 00 80
       0.0 0.0 0.0 -0.0
0002d0 00 00 00 00 00 00 00 00 00 00 00 00 00 00 00 00
       0.0 0.0 0.0 0.0
0002e0 00 00 00 80 00 00 00 80 00 00 00 00 00 00 00 00
       -0.0 -0.0 0.0 0.0
0002f0 00 00 00 00 00 00 00 80 00 00 00 80 00 00 00 00
       0.0 -0.0 -0.0 0.0
000300 00 00 00 00 00 00 00 00 00 00 00 80 00 00 00 80
       0.0 0.0 -0.0 -0.0
000310 00 00 00 00 00 00 00 00 00 00 00 00 00 00 00 80
       0.0 0.0 0.0 -0.0
000320 00 00 00 00 00 00 00 00 00 00 00 80 00 00 00 00
       0.0 0.0 -0.0 0.0
000330 00 00 00 80 00 00 00 00 00 00 00 00 00 00 00 80
       -0.0 0.0 0.0 -0.0
000340 00 00 00 80 00 00 00 80 00 00 00 00 00 00 00 80
       -0.0 -0.0 0.0 -0.0
000350 00 00 00 00 00 00 00 80 00 00 00 00 00 00 00 00
       0.0 -0.0 0.0 0.0
000360 00 00 00 00 00 00 00 80 00 00 00 80 00 00 00 00
       0.0 -0.0 -0.0 0.0
000370 00 00 00 00 00 00 00 00 00 00 00 00 00 00 00 00
       0.0 0.0 0.0 0.0
000380 00 00 00 80 00 00 00 00 00 00 00 80 00 00 00 00
       -0.0 0.0 -0.0 0.0
000390 00 00 00 00 00 00 00 00 00 00 00 80 00 00 00 00
       0.0 0.0 -0.0 0.0
0003a0 00 00 00 80 00 00 00 80 00 00 00 00 00 00 00 00
       -0.0 -0.0 0.0 0.0
0003b0 00 00 00 80 00 00 00 80 00 00 00 80 00 00 00 00
       -0.0 -0.0 -0.0 0.0
0003c0 00 00 00 80 00 00 00 00 00 00 00 00 00 00 00 00
       -0.0 0.0 0.0 0.0
0003d0 00 00 00 00 00 00 00 00 00 00 00 00 00 00 00 00
       0.0 0.0 0.0 0.0
0003e0 00 00 00 80 00 00 00 00 00 00 00 00 00 00 00 00
       -0.0 0.0 0.0 0.0
0003f0 00 00 00 00 00 00 00 00 00 00 00 00 00 00 00 00
       0.0 0.0 0.0 0.0

var f4 [256]
000000 00 00 80 3f 00 00 80 3f 00 00 80 3f 00 00 80 3f
       1.0 1.0 1.0 1.0
000010 00 00 80 3f 00 00 80 3f 00 00 80 3f 00 00 80 3f
       1.0 1.0 1.0 1.0
000020 00 00 80 3f 00 00 80 3f 00 00 80 3f 00 00 80 3f
       1.0 1.0 1.0 1.0
000030 00 00 80 3f 00 00 80 3f 00 00 80 3f 00 00 80 3f
       1.0 1.0 1.0 1.0
000040 00 00 80 3f 00 00 80 3f 00 00 80 3f 00 00 80 3f
       1.0 1.0 1.0 1.0
000050 00 00 80 3f 00 00 80 3f 00 00 80 3f 00 00 80 3f
       1.0 1.0 1.0 1.0
000060 00 00 80 3f 00 00 80 3f 00 00 80 3f 00 00 80 3f
       1.0 1.0 1.0 1.0
000070 00 00 80 3f 00 00 80 3f 00 00 80 3f 00 00 80 3f
       1.0 1.0 1.0 1.0
000080 00 00 80 3f 00 00 80 3f 00 00 80 3f 00 00 80 3f
       1.0 1.0 1.0 1.0
000090 00 00 80 3f 00 00 80 3f 00 00 80 3f 00 00 80 3f
       1.0 1.0 1.0 1.0
0000a0 00 00 80 3f 00 00 80 3f 00 00 80 3f 00 00 80 3f
       1.0 1.0 1.0 1.0
0000b0 00 00 80 3f 00 00 80 3f 00 00 80 3f 00 00 80 3f
       1.0 1.0 1.0 1.0
0000c0 00 00 80 3f 00 00 80 3f 00 00 80 3f 00 00 80 3f
       1.0 1.0 1.0 1.0
0000d0 00 00 80 3f 00 00 80 3f 00 00 80 3f 00 00 80 3f
       1.0 1.0 1.0 1.0
0000e0 00 00 80 3f 00 00 80 3f 00 00 80 3f 00 00 80 3f
       1.0 1.0 1.0 1.0
0000f0 00 00 80 3f 00 00 80 3f 00 00 80 3f 00 00 80 3f
       1.0 1.0 1.0 1.0
000100 00 00 80 3f 00 00 80 3f 00 00 80 3f 00 00 80 3f
       1.0 1.0 1.0 1.0
000110 00 00 80 3f 00 00 80 3f 00 00 80 3f 00 00 80 3f
       1.0 1.0 1.0 1.0
000120 00 00 80 3f 00 00 80 3f 00 00 80 3f 00 00 80 3f
       1.0 1.0 1.0 1.0
000130 00 00 80 3f 00 00 80 3f 00 00 80 3f 00 00 80 3f
       1.0 1.0 1.0 1.0
000140 00 00 80 3f 00 00 80 3f 00 00 80 3f 00 00 80 3f
       1.0 1.0 1.0 1.0
000150 00 00 80 3f 00 00 80 3f 00 00 80 3f 00 00 80 3f
       1.0 1.0 1.0 1.0
000160 00 00 80 3f 00 00 80 3f 00 00 80 3f 00 00 80 3f
       1.0 1.0 1.0 1.0
000170 00 00 80 3f 00 00 80 3f 00 00 80 3f 00 00 80 3f
       1.0 1.0 1.0 1.0
000180 00 00 80 3f 00 00 80 3f 00 00 80 3f 00 00 80 3f
       1.0 1.0 1.0 1.0
000190 00 00 80 3f 00 00 80 3f 00 00 80 3f 00 00 80 3f
       1.0 1.0 1.0 1.0
0001a0 00 00 80 3f 00 00 80 3f 00 00 80 3f 00 00 80 3f
       1.0 1.0 1.0 1.0
0001b0 00 00 80 3f 00 00 80 3f 00 00 80 3f 00 00 80 3f
       1.0 1.0 1.0 1.0
0001c0 00 00 80 3f 00 00 80 3f 00 00 80 3f 00 00 80 3f
       1.0 1.0 1.0 1.0
0001d0 00 00 80 3f 00 00 80 3f 00 00 80 3f 00 00 80 3f
       1.0 1.0 1.0 1.0
0001e0 00 00 80 3f 00 00 80 3f 00 00 80 3f 00 00 80 3f
       1.0 1.0 1.0 1.0
0001f0 00 00 80 3f 00 00 80 3f 00 00 80 3f 00 00 80 3f
       1.0 1.0 1.0 1.0
000200 00 00 80 3f 00 00 80 3f 00 00 80 3f 00 00 80 3f
       1.0 1.0 1.0 1.0
000210 00 00 80 3f 00 00 80 3f 00 00 80 3f 00 00 80 3f
       1.0 1.0 1.0 1.0
000220 00 00 80 3f 00 00 80 3f 00 00 80 3f 00 00 80 3f
       1.0 1.0 1.0 1.0
000230 00 00 80 3f 00 00 80 3f 00 00 80 3f 00 00 80 3f
       1.0 1.0 1.0 1.0
000240 00 00 80 3f 00 00 80 3f 00 00 80 3f 00 00 80 3f
       1.0 1.0 1.0 1.0
000250 00 00 80 3f 00 00 80 3f 00 00 80 3f 00 00 80 3f
       1.0 1.0 1.0 1.0
000260 00 00 80 3f 00 00 80 3f 00 00 80 3f 00 00 80 3f
       1.0 1.0 1.0 1.0
000270 00 00 80 3f 00 00 80 3f 00 00 80 3f 00 00 80 3f
       1.0 1.0 1.0 1.0
000280 00 00 80 3f 00 00 80 3f 00 00 80 3f 00 00 80 3f
       1.0 1.0 1.0 1.0
000290 00 00 80 3f 00 00 80 3f 00 00 80 3f 00 00 80 3f
       1.0 1.0 1.0 1.0
0002a0 00 00 80 3f 00 00 80 3f 00 00 80 3f 00 00 80 3f
       1.0 1.0 1.0 1.0
0002b0 00 00 80 3f 00 00 80 3f 00 00 80 3f 00 00 80 3f
       1.0 1.0 1.0 1.0
0002c0 00 00 80 3f 00 00 80 3f 00 00 80 3f 00 00 80 3f
       1.0 1.0 1.0 1.0
0002d0 00 00 80 3f 00 00 80 3f 00 00 80 3f 00 00 80 3f
       1.0 1.0 1.0 1.0
0002e0 00 00 80 3f 00 00 80 3f 00 00 80 3f 00 00 80 3f
       1.0 1.0 1.0 1.0
0002f0 00 00 80 3f 00 00 80 3f 00 00 80 3f 00 00 80 3f
       1.0 1.0 1.0 1.0
000300 00 00 80 3f 00 00 80 3f 00 00 80 3f 00 00 80 3f
       1.0 1.0 1.0 1.0
000310 00 00 80 3f 00 00 80 3f 00 00 80 3f 00 00 80 3f
       1.0 1.0 1.0 1.0
000320 00 00 80 3f 00 00 80 3f 00 00 80 3f 00 00 80 3f
       1.0 1.0 1.0 1.0
000330 00 00 80 3f 00 00 80 3f 00 00 80 3f 00 00 80 3f
       1.0 1.0 1.0 1.0
000340 00 00 80 3f 00 00 80 3f 00 00 80 3f 00 00 80 3f
       1.0 1.0 1.0 1.0
000350 00 00 80 3f 00 00 80 3f 00 00 80 3f 00 00 80 3f
       1.0 1.0 1.0 1.0
000360 00 00 80 3f 00 00 80 3f 00 00 80 3f 00 00 80 3f
       1.0 1.0 1.0 1.0
000370 00 00 80 3f 00 00 80 3f 00 00 80 3f 00 00 80 3f
       1.0 1.0 1.0 1.0
000380 00 00 80 3f 00 00 80 3f 00 00 80 3f 00 00 80 3f
       1.0 1.0 1.0 1.0
000390 00 00 80 3f 00 00 80 3f 00 00 80 3f 00 00 80 3f
       1.0 1.0 1.0 1.0
0003a0 00 00 80 3f 00 00 80 3f 00 00 80 3f 00 00 80 3f
       1.0 1.0 1.0 1.0
0003b0 00 00 80 3f 00 00 80 3f 00 00 80 3f 00 00 80 3f
       1.0 1.0 1.0 1.0
0003c0 00 00 80 3f 00 00 80 3f 00 00 80 3f 00 00 80 3f
       1.0 1.0 1.0 1.0
0003d0 00 00 80 3f 00 00 80 3f 00 00 80 3f 00 00 80 3f
       1.0 1.0 1.0 1.0
0003e0 00 00 80 3f 00 00 80 3f 00 00 80 3f 00 00 80 3f
       1.0 1.0 1.0 1.0
0003f0 00 00 80 3f 00 00 80 3f 00 00 80 3f 00 00 80 3f
       1.0 1.0 1.0 1.0

dense_2/kernel:0 f4 [512, 256]
000000 a5 5f 57 bc ec 4a 9e bc d2 7d 2f bb 72 5d 39 bd
       -0.013145362 -0.019322835 -0.0026777876 -0.045255132
000010 00 ee 22 bb 9b d7 8f 3c f3 96 0c bc 29 a3 8c bc
       -0.0024861097 0.017558863 -0.008580911 -0.017167645
000020 4d 1b eb bc 9a 84 ab bc cc 81 cf bc 58 8c 87 bc
       -0.028699541 -0.020937253 -0.025330447 -0.016546413
000030 43 bf 0f bc 67 29 ea bc f1 30 0e bd c2 4b 89 bc
       -0.008773628 -0.028584195 -0.034714643 -0.016759757
000040 53 2f fa bb 3a 19 33 bd 78 2d fc bc 50 e1 b5 bc
       -0.007635036 -0.04372523 -0.0307834 -0.022202164
000050 f9 da b3 bb b1 48 c2 ba b8 51 fb 3b a6 69 18 bd
       -0.00548875 -0.0014822689 0.0076696537 -0.03721013
000060 28 21 9a bc 4f e6 92 3b 5e 3f 1c bd 40 44 09 bd
       -0.018814638 0.0044830213 -0.03814637 -0.033512354
000070 4c cd 1f 3d 33 69 fa bb 68 95 3b b9 4c 43 cd bc
       0.039014146 -0.0076419353 -0.00017889368 -0.025056504
000080 92 dc b0 bc ae e1 50 39 6b d3 15 bd d9 37 48 bd
       -0.021589551 0.00019920498 -0.036578577 -0.048881385
000090 5f a1 3b bc c8 1b b1 bc 8e cb 7e bb ab ec ce 3b
       -0.011452048 -0.021619692 -0.0038878652 0.006314834
0000a0 7e a0 88 bd e2 b6 ad bb 74 5b ad bc a4 fc 06 bd
       -0.066712365 -0.0053013423 -0.021161772 -0.03295578
0000b0 af b0 f7 bc 2b 1c 38 bc 7c c9 e1 bc e3 62 91 bc
       -0.030235616 -0.0112371845 -0.027561896 -0.017747348
0000c0 f3 c0 f4 bc f7 da 9b 3c 6d cb 09 bb 94 9e 87 bd
       -0.029877162 0.019025309 -0.0021025792 -0.06622043
0000d0 b0 25 36 3c 4b 1a 95 bc 2f d0 1b bd 5e bd 45 bb
       0.011117384 -0.018201014 -0.038040336 -0.0030172686
0000e0 70 03 1f bc 54 3b 76 bc 9f 59 b7 bc 36 93 cd bc
       -0.009705409 -0.015028793 -0.022381602 -0.02509461
0000f0 1b 08 2b bd 04 55 9b bc 15 84 32 3b 1e 54 4b bc
       -0.041755777 -0.018961437 0.0027239372 -0.012410192
000100 b4 27 f1 bc 67 7d 4a bd 9f 95 05 bd 41 63 d3 bc
       -0.029437877 -0.049436 -0.032613393 -0.025804164
000110 bf f9 41 bc 3f a4 be bc b0 ef 95 bb 76 a6 eb 3c
       -0.011839329 -0.023271678 -0.004575692 0.028765898
000120 c8 e4 b5 bc 7e ff 88 bc e1 bc 6b bd b7 e8 7c bc
       -0.022203818 -0.01672339 -0.057553176 -0.015436343
000130 ac 1c e9 bc c6 85 30 bd 8e e9 8f bc 2d 6b 2d bc
       -0.028456055 -0.043096326 -0.017567422 -0.010584635
000140 f1 eb 22 bc f3 91 4b 3c e8 ca 29 3b b9 3f d2 bc
       -0.009943948 0.012424934 0.0025908295 -0.025665151
000150 79 9b 93 bc 0d 5b d6 3b 37 79 bc bb 8d 73 ec bc
       -0.018018471 0.006541616 -0.0057517546 -0.028863693
000160 57 27 cb 3c 6b c8 30 bd 3d b1 fb bc e8 41 cf bc
       0.024799032 -0.043159883 -0.030724162 -0.025299981
000170 86 d6 97 bc f4 ba d7 bc 8e ae f9 bc b8 b2 b0 bc
       -0.01853491 -0.026334263 -0.030478742 -0.021569595
000180 7b 72 96 bc 51 2c c9 bc cf f7 3d bd 37 58 e2 bc
       -0.018365135 -0.024557265 -0.046378907 -0.027629955
000190 b7 34 77 bb f6 2c 28 3d de 20 d7 bc 4b 13 20 bc
       -0.003772063 0.041058503 -0.02626079 -0.009770225
0001a0 89 15 37 3b 83 00 64 bc 44 90 7e bc ef 41 2d bc
       0.002793642 -0.013916138 -0.015537325 -0.010574802
0001b0 17 8e b8 bc f4 ad 87 3b 7e ed 0e bd 71 b0 17 bd
       -0.022528691 0.00414061 -0.03489446 -0.037033502
0001c0 e0 69 f6 bc 71 76 f0 bb c1 5f 84 bb 99 06 1c 3d
       -0.030079782 -0.007338338 -0.004039735 0.03809223
0001d0 2d c7 0d bd da ed a4 bc 50 c5 dc bb 25 d3 f0 bc
       -0.034613777 -0.020132948 -0.0067373887 -0.029397557
0001e0 e7 67 de bc ee 13 e5 bc 17 76 d4 bc 47 fc 95 bc
       -0.027149154 -0.027963605 -0.025935216 -0.018308772
0001f0 c6 fa 38 bd b0 45 8c bb e4 4f 68 bc bc 8b fd bc
       -0.04516103 -0.0042807683 -0.014179204 -0.03095042
000200 e4 b3 ac bc 05 9b 01 bc ab 26 e0 bc 5c 50 2c bd
       -0.021081872 -0.007910495 -0.027362188 -0.042068824
000210 09 10 3a bc a8 16 6b bb 8c a3 b9 bb 14 f9 4a 3b
       -0.011356362 -0.0035871658 -0.0056652483 0.0030971216
000220 2c b2 5b bc 28 bb a7 bc b5 a6 11 3b 1e 42 0d bd
       -0.013409179 -0.020474985 0.002222461 -0.034486882
000230 97 07 20 3b e0 3c 56 bc e9 f9 99 3c 20 ff d7 bc
       0.0024418586 -0.013076037 0.018795924 -0.02636677
000240 1c 58 1b bc 13 32 13 bc 03 03 a3 bc fc f0 85 bc
       -0.009481456 -0.008984107 -0.019898897 -0.016350262
000250 c8 f3 74 bc 32 e7 3f bd bb 4c 25 bd 84 d6 16 bb
       -0.0149507 -0.046851344 -0.04035638 -0.0023016045
000260 25 e0 99 bc f4 80 05 bc 75 70 47 3c 68 5c 28 bc
       -0.018783638 -0.008148421 0.012172808 -0.010275938
000270 c5 77 cc bb cc d6 c6 bc 81 b6 27 bd 52 ca c9 bc
       -0.0062398636 -0.024272345 -0.040945534 -0.024632607
000280 54 e9 13 bd 50 84 11 bd db f8 9e bc 61 be 25 3b
       -0.03611119 -0.035526574 -0.019405773 0.0025290477
000290 84 0a 15 3c 6f c6 dc bc d4 94 33 bd 4d cb 07 bb
       0.009096745 -0.02695009 -0.043843105 -0.0020720542
0002a0 88 24 01 bd 2d 7a e3 bc 2f 79 a4 bc ac 25 de bc
       -0.03152898 -0.027768219 -0.020077316 -0.027117573
0002b0 61 04 b1 bc bf e4 16 bc 1b 4f 75 bc 6c ef 17 bd
       -0.021608533 -0.009209811 -0.0149724735 -0.037093565
0002c0 15 3f 68 bc 75 f1 b7 bc a7 2c cd bc a7 62 d9 bb
       -0.014175196 -0.022454003 -0.025045706 -0.0066340747
0002d0 91 f6 10 bd 7c f7 bc bb 48 5c 0d bc 5c 96 a4 3a
       -0.035391394 -0.005766807 -0.008627959 0.0012557018
0002e0 55 ac d2 3c 65 82 4f 3c 79 54 0b bd 02 4e 2c bc
       0.02571694 0.012665366 -0.034016106 -0.010516645
0002f0 be c1 08 bc 0e da 09 bc b2 ab e4 bb 6a 7a dd bc
       -0.008346973 -0.008413805 -0.0069784755 -0.02703591
000300 8d e6 59 bc ea bc 0e bd 9a c4 07 3c 46 86 7b bc
       -0.0132995965 -0.03484813 0.00828662 -0.0153518375
000310 a6 25 70 bc 9e 21 1b bd ea b3 d9 bc c5 a9 f8 bb
       -0.014657414 -0.037873857 -0.026575048 -0.0075885975
000320 d9 d3 16 bd f7 21 60 bd 05 ea 3a bc 9f 6a 15 bc
       -0.036823127 -0.05471989 -0.011408334 -0.009119659
000330 19 21 a6 bc 5f 89 ff bc a1 78 ae bb 9a 66 be bc
       -0.020279454 -0.031193433 -0.0053244387 -0.023242284
000340 c8 0c 09 bd 01 50 27 3b eb fc 80 bd 28 fa 63 bd
       -0.033459455 0.0025529864 -0.0629824 -0.05565849
000350 58 96 e4 bc c1 aa a3 bc 00 41 9c bc 89 dd 14 3b
       -0.02790372 -0.019978883 -0.019073963 0.0022715053
000360 be 08 c4 bc 21 2c 2c 3a 20 81 ee bb 4d d1 68 bc
       -0.02392995 0.0006567855 -0.0072785765 -0.014210057
000370 35 e7 48 bb b9 fb 7d bc 81 0e b7 bc 72 11 5a bc
       -0.0030655388 -0.01550191 -0.022345783 -0.013309823
000380 8c 94 04 bd d9 27 aa bc fc d2 85 3b c2 8a 6e 3d
       -0.032368228 -0.020770954 0.004083989 0.0582378
000390 50 4b 67 3b a1 ed 07 bd 46 aa 0e bd c2 a5 a5 bc
       0.0035292692 -0.033185605 -0.034830354 -0.020220641
0003a0 b7 f1 0f 3c d8 fc 26 bd 73 46 14 bd 2b a6 b6 ba
       0.008785657 -0.040768474 -0.036199998 -0.001393502
0003b0 d1 c8 86 bc 24 9a 08 bd 7e d1 ba bb 5d de 7c 3c
       -0.016453179 -0.033350125 -0.005701243 0.015433875
0003c0 08 c9 71 3c 4e c9 6d bc 72 82 96 bb b1 a8 8b bb
       0.014757402 -0.014513327 -0.004593187 -0.004262053
0003d0 ae 31 3c bc a0 7a 0a bc 3e 7d 71 3c 60 04 49 bd
       -0.011486454 -0.008452088 0.014739333 -0.049076438
0003e0 4d 41 08 bd ac de 05 bc d1 3b 37 ba db 9a 5a bc
       -0.0332654 -0.008170765 -0.00069898093 -0.0133425845
0003f0 e8 42 10 3b e9 7d dc bc 57 82 25 3b 9a f4 f5 3c
       0.0022012535 -0.026915507 0.002525469 0.030023862

dense_2/bias:0 f4 [256]
000000 4e cf 51 3a 89 72 82 bb 7e 28 64 3b 01 c4 b9 3a
       0.0008003608 -0.003980939 0.0034814174 0.0014172794
000010 db 6d 84 ba 37 bf 40 3b 12 a1 12 ba 94 bc d4 ba
       -0.001010354 0.0029410848 -0.00055934594 -0.0016230517
000020 9c d3 f8 3a 63 06 19 ba b2 3c 32 3b 61 30 e9 bb
       0.0018983963 -0.00058374385 0.0027196822 -0.007116363
000030 46 7d 02 39 f8 09 1a b9 df 7a 55 39 42 76 02 3b
       0.00012444434 -0.00014690298 0.00020359036 0.0019906913
000040 5f 37 e1 ba 03 e7 85 3a da 53 94 ba 2b 9e a3 39
       -0.001718264 0.0010215942 -0.0011316494 0.00031207627
000050 72 cd 96 bb 90 78 42 3b 7a 92 93 3a c5 ae 61 3b
       -0.0046021277 0.0029673912 0.0011258863 0.0034436446
000060 ab 80 c8 3a d5 c4 45 ba bf 8e b7 3b cc 93 74 3a
       0.0015297135 -0.0007544284 0.0056017335 0.0009329885
000070 21 ac 14 bc b8 52 73 3a ad fd 75 b8 ce 3e b3 39
       -0.009074242 0.00092820404 -5.8648806e-05 0.00034188334
000080 a3 6a 64 bb d1 e9 02 bc e0 36 26 3b e5 f9 b1 3b
       -0.00348536 -0.0079903165 0.0025362298 0.005431401
000090 6e 39 a4 3b c4 85 c1 b9 b2 4c 34 3b 08 06 be ba
       0.005011729 -0.00036911492 0.0027511534 -0.0014497647
0000a0 c1 cd 40 bb 3b b6 92 3b 35 fc 1f b9 c7 81 3d 3b
       -0.0029419514 0.00447729 -0.00015257376 0.0028916465
0000b0 b5 7b 8b 3b 28 71 d5 b6 c1 62 26 ba 14 60 94 3a
       0.0042566904 -6.361068e-06 -0.0006347113 0.0011320137
0000c0 ab 03 c1 bb 9e c0 a5 ba 4d 4d 5a 3b 02 2a 64 3b
       -0.00589033 -0.0012645905 0.0033310235 0.0034815078
0000d0 af 2e 2b 3a 93 db 84 b9 9b 52 36 bb a7 ac b3 ba
       0.0006530089 -0.00025340597 -0.0027820233 -0.0013708071
0000e0 39 e4 c2 ba 79 b3 82 3b 7f f5 de ba 01 f7 99 bb
       -0.0014869041 0.00398868 -0.0017010419 -0.0046986346
0000f0 23 15 36 bb 4e fc 8d 37 97 87 0d 3c f8 8f 8c bb
       -0.0027783595 1.6925998e-05 0.008638284 -0.0042896233
000100 07 0a 39 ba eb 0c b3 39 db 64 17 3b da fe 44 3b
       -0.0007058684 0.00034151165 0.0023100886 0.003005913
000110 e5 03 c6 ba aa 2b 29 ba 33 c2 9d 3a bf 95 8a 3b
       -0.0015107362 -0.0006453345 0.0012036025 0.004229277
000120 fc f1 76 bb 79 df b7 3b c3 13 89 3b 96 02 1f 3b
       -0.0037680855 0.005611357 0.004183264 0.0024263016
000130 80 5e 94 3a 5f 5d 36 bb b4 f1 79 3a af 8d a8 39
       0.0011319667 -0.002782665 0.0009534613 0.0003214902
000140 fd d5 73 3a 1f 84 9b 3c 53 ed 1f 3b c2 c5 07 bb
       0.0009301601 0.018983899 0.002440293 -0.0020717238
000150 f4 ae 9b bb 46 e2 9e ba 3f 49 df 3b 02 1a d5 39
       -0.0047510806 -0.0012121878 0.0068141515 0.00040645903
000160 ad 4e 3c 3b f7 7d 12 b9 1c 83 40 38 f6 81 cf 3b
       0.0028733418 -0.0001397057 4.5898472e-05 0.006332631
000170 fb 71 de bb 8a 0d 65 3b d5 0e 38 bb 22 10 3c bb
       -0.00678849 0.0034950697 -0.0028085012 -0.002869614
000180 7b 92 75 3a a4 c6 06 ba 1b 94 28 ba bb 26 ba ba
       0.00093678356 -0.0005141294 -0.0006430761 -0.0014202216
000190 39 24 69 3b 92 30 32 b9 4b e9 6a bb 81 83 37 ba
       0.003557457 -0.00016993497 -0.003584462 -0.00070004916
0001a0 c1 a1 be 3b a6 bf d0 3b a7 b1 5a ba a5 08 ad 3b
       0.0058176224 0.0063705025 -0.00083425123 0.0052805715
0001b0 50 ff d6 ba 24 ec 5d ba 8d 75 9b 3b 4b 0c 9e bb
       -0.0016402993 -0.00084656687 0.0047442378 -0.004823243
0001c0 1d d9 21 bb 3e d2 b9 3a 04 2b 7e bb 2d 74 8f ba
       -0.002469606 0.0014177037 -0.0038782964 -0.0010944657
0001d0 32 36 5b 3a 18 09 ad 3a 0c 0f 83 3a 4d d9 d7 3b
       0.0008362263 0.0013201563 0.0009998991 0.0065871836
0001e0 a0 7c 59 bb 5f 68 b9 ba 98 3e 9e 3b 51 05 4f 3b
       -0.0033185855 -0.0014145485 0.004829239 0.0031588862
0001f0 b4 df 61 3b 1d 37 a5 3b ba ba 54 ba e1 6a 96 bb
       0.0034465613 0.0050419704 -0.00081149826 -0.0045903777
000200 70 8b 9a 3a 4f c5 78 bb 4f 76 0c bb d7 e3 9f ba
       0.0011790823 -0.0037959402 -0.0021432822 -0.0012198639
000210 96 23 dc bb 3b 95 a3 3a 07 d2 a3 ba 41 90 81 39
       -0.0067181094 0.0012480387 -0.0012498506 0.00024712275
000220 06 3a 89 3a 63 0b ac 39 bc fd ae 3a bb 36 1e 3b
       0.0010469563 0.0003281488 0.0013350765 0.0024141509
000230 9b 1c 0c 3a d9 65 83 3a 51 b7 b5 3b 56 40 cb ba
       0.0005344839 0.001002486 0.0055455347 -0.0015506845
000240 40 75 cf ba c2 c3 bb 3a 5a 65 8e bb f8 23 43 3b
       -0.001582779 0.0014325308 -0.004345578 0.0029776078
000250 33 ec 7a bb b9 dc fe 3a f2 a1 41 3b 84 90 f7 ba
       -0.0038287758 0.0019444443 0.002954599 -0.0018887674
000260 22 9f e7 b9 fc 68 10 3c 57 62 ae 3a 2d 2b d4 3a
       -0.00044178317 0.008814093 0.0013304454 0.0016187184
000270 b9 8f e1 3a d4 03 32 bb 80 98 cf 3a 9f 09 75 b9
       0.001720897 -0.0027162926 0.0015838295 -0.00023368605
000280 1c 84 91 3b 42 cd 7c bb 4c ad 24 3b 29 dd 8d 3a
       0.0044407975 -0.0038574492 0.0025127707 0.0010823357
000290 c9 b0 93 3a ea 9c 74 3b cc 46 c2 39 76 d7 32 bb
       0.0011267896 0.0037324973 0.0003705531 -0.002728907
0002a0 90 65 62 bb 98 6d fe 3a 82 03 f5 ba 1f c3 47 3b
       -0.00345454 0.0019411324 -0.0018693062 0.0030481291
0002b0 30 57 6e bb 09 a2 9e 3b 0e 42 bb ba fd ca 1b 3a
       -0.0036367886 0.0048410934 -0.0014286654 0.00059430284
0002c0 43 52 45 bb b8 e5 84 3a fd 48 59 bb e3 af 34 3b
       -0.0030108846 0.0010139262 -0.0033155077 0.0027570657
0002d0 45 0d 34 ba e4 fc a1 ba 89 21 78 3b 00 fa 5e 3b
       -0.00068684324 -0.0012358692 0.0037861785 0.0034023523
0002e0 6a 45 df ba 7c 9a 0c ba f1 32 ae bb f7 14 10 3b
       -0.0017034237 -0.0005363596 -0.0053161313 0.0021985152
0002f0 7f 0e 0d 3a 1c 2a b5 b8 51 47 ba ba 93 64 63 bb
       0.0005380883 -8.638596e-05 -0.0014211928 -0.0034697398
000300 f0 3e 1c 3b b7 0e 63 3b 5e 93 03 bb 62 fe 8c 3b
       0.0023841225 0.0034646222 -0.0020076851 0.0043027857
000310 66 a3 5f 3b 82 44 dd ba e5 d6 c3 3a 16 c5 84 37
       0.0034124493 -0.0016881379 0.0014941363 1.5827402e-05
000320 1b 5a bc bb 9c 54 91 3b a3 2d d6 39 36 76 9a 3b
       -0.005748046 0.004435135 0.00040851263 0.004713799
000330 46 03 1c bb 97 8e 8a 3b 4f 8c 01 bc 49 26 74 3b
       -0.0023805662 0.004228424 -0.007906987 0.0037254265
000340 8e c5 a9 3b 65 b0 ac ba 80 7b 2b 3c 94 ed c7 bb
       0.005181021 -0.0013175128 0.010466456 -0.0061013196
000350 60 77 f3 39 37 e6 9b b7 8b 72 7a 3b a3 35 74 3b
       0.00046437513 -1.8584642e-05 0.0038215246 0.0037263415
000360 1e 8a ec 3a 01 6a 63 ba 9d 00 eb 39 7c 2b 90 3b
       0.0018046533 -0.00086751586 0.0004482315 0.004399715
000370 4d b7 94 bb 98 3e 33 3a 15 9c cf bb b8 3a b6 3b
       -0.0045384527 0.00068376353 -0.006335745 0.005561199
000380 7b 70 9b ba 98 c7 59 3b b3 fd 42 b7 92 63 e2 3b
       -0.0011859083 0.003323054 -1.162237e-05 0.0069088424
000390 33 db ed 3a 84 db 94 3b 75 04 ed b9 e2 14 d3 3a
       0.0018146991 0.00454277 -0.00045207483 0.0016104246
0003a0 59 5e b5 ba e5 b3 7f ba c6 5c 7f ba 8d 80 d1 bb
       -0.0013837322 -0.00097542844 -0.00097413023 -0.0063934983
0003b0 c6 41 41 bb f4 77 d0 3b 31 64 9e b8 55 d6 ea b9
       -0.0029488667 0.006361956 -7.552689e-05 -0.00044791648
0003c0 52 e7 78 ba 20 e0 3b 3b dd 02 87 bb f7 f5 38 bb
       -0.00094949186 0.0028667524 -0.0041202144 -0.0028222778
0003d0 ad 99 6a 39 c9 f3 1e 3b aa 37 86 3b f6 c7 a2 3a
       0.00022373228 0.0024254194 0.004095991 0.0012419212
0003e0 6d 9d b3 3b 4b d2 93 3a 0a 31 22 3b 2d 11 4d bb
       0.005481413 0.0011277882 0.0024748468 -0.0031290755
0003f0 71 55 2c ba 8e e8 00 bc 00 dd 07 3a 58 e4 61 3a
       -0.0006574011 -0.007867945 0.0005182773 0.0008617095
