data/DNN/Inlusive_noMetCut_genMETweight500enlarge_amcatnlo_xyComponent_JetLepXY_50EP__diff_xy_2016_preVFP_20230403-1035genMETweighted.onnx (onnx, 580407 bytes, 24 tensors)

dense_3/kernel:0 f4 [256, 2]
0.19381745 0.01701593 -0.021241218 0.1412093 0.09209961 0.08076981 0.06756764 -0.096750125
0.119922854 -0.11230229 0.09803099 -0.0065085366 0.08604656 -0.19855979 0.26702002 0.05890048
-0.15823151 -0.106845886 0.0757042 0.123730764 0.21666391 0.043262254 0.14004038 -0.06175804
0.039411306 0.039073754 -0.15731074 0.13351415 -0.028534533 -0.051031306 0.0690904 0.10807425
-0.005849228 0.19128446 0.20095423 -0.057707027 -0.29141155 -0.06144554 0.08017581 -0.25201476
-0.20429271 0.056424905 0.12639315 0.17212026 -0.03984303 0.1779256 -0.06616081 0.19015014
-0.13016106 0.08041535 0.035316512 0.011911353 0.068741836 -0.1954979 -0.19191203 0.16759248
0.15255912 -0.11446402 0.07583231 -0.092848964 0.15506639 -0.02328654 0.27600458 0.12298235
0.12736893 -0.0041011553 -0.19052756 0.035123702 -0.07267474 0.044057023 0.14861257 0.12804194
-0.001563847 -0.14828475 0.21134616 0.1291334 0.17769867 0.016468482 0.17026044 0.040951572
-0.14528489 0.056133892 0.15596029 -0.03397955 0.010784233 0.16754623 0.23187096 -0.15385738
-0.15534586 0.10965034 -0.20995647 0.057403665 -0.04515587 -0.12873855 0.11210255 -0.090619914
-0.19464105 -0.23465526 -0.05333632 -0.13075726 0.12267011 -0.11220611 -0.13003904 -0.066581175
-0.16024214 0.059716217 -0.13638735 -0.053879656 -0.11003387 -0.18386146 0.14530551 -0.040094756
-0.13261242 -0.049586378 -0.14899509 -0.14366291 0.082339026 0.10214995 0.16362786 -0.20987688
0.14939117 0.07216946 0.17336807 -0.0862851 0.15889774 0.117183074 0.120786496 -0.12329863
0.018544028 0.18186253 0.12590756 0.15034088 -0.15234007 0.0855149 0.090238184 0.0023345978
0.14480905 -0.062732145 0.14732765 0.11162374 0.13411498 0.13687532 -0.1620057 0.062000252
0.07519055 -0.18901455 -0.065219566 -0.1499119 -0.2758561 0.07303108 0.06751904 -0.047086682
-0.1045631 -0.00068156223 0.24743682 0.08675037 0.008788748 0.19155087 0.12068074 0.052713748
0.08136997 -0.07337872 -0.19049303 -0.023175592 0.20345132 0.084919676 0.13557614 0.13748626
0.16462968 0.05675428 0.15176544 -0.06950332 0.064387955 -0.043275103 0.11029116 0.13173136
-0.22152847 -0.0913965 -0.110630825 0.21412347 -0.045339752 0.17188242 0.216045 0.03578983
-0.18478025 0.07824051 0.10573345 0.06440121 -0.121691465 0.0045610555 0.1573153 -0.044790305
0.11397322 -0.04207696 0.1807086 0.0892558 0.17682172 -0.14366752 -0.02425437 -0.22918406
-0.29258016 -0.056505747 -0.21741734 -0.11041877 -0.17445555 -0.063004255 -0.116202 -0.15164128
-0.09897613 -0.10644337 -0.11290989 0.19309191 0.15302488 -0.09650077 -0.08373507 0.05518119
-0.117946856 0.08443465 0.112680145 -0.1907587 -0.18054953 -0.20293269 0.14743322 -0.1299521
0.037151136 -0.15547068 -0.037407145 0.22063527 0.07348532 0.13376169 0.25955364 -0.15772222
0.08669927 -0.11992976 0.20729901 -0.02758699 -0.10835924 -0.19466358 -0.056685083 0.18278258
-0.2631093 0.04176308 -0.09010912 0.16585648 -0.03446103 -0.1639187 0.078400046 0.12534308
-0.21214052 -0.020263955 -0.08848403 0.20030545 0.17759433 -0.14380755 -0.11132023 -0.20173016
00000000: 1578 463e fe64 8b3c 1002 aebc 2c99 103e
00000010: b89e bc3d a46a a53d e760 8a3d ee24 c6bd
00000020: 1d9a f53d befe e5bd 79c4 c83d 9045 d5bb
00000030: 2e39 b03d 4253 4bbe d9b6 883e a141 713d
00000040: 7107 22be 04d2 dabd ce0a 9b3d 8e66 fd3d
00000050: 25dd 5d3e c333 313d bf66 0f3e 00f6 7cbd
00000060: c06d 213d cd0b 203d 1116 21be efb7 083e
00000070: 41c1 e9bc 3406 51bd 457f 8d3d 0856 dd3d
00000080: e1aa bfbb 13e0 433e f2c6 4d3e 345e 6cbd
00000090: e533 95be 52ae 7bbd 3733 a43d 1408 81be
000000a0: 1c32 51be cd1d 673d 356d 013e 4b40 303e
000000b0: 7232 23bd 2132 363e 527f 87bd b8b6 423e
000000c0: f148 05be ceb0 a43d 0ca8 103d d627 433c
000000d0: 85c8 8c3d 9a30 48be 9684 44be 5d9d 2b3e
000000e0: 7538 1c3e 1d6c eabd f84d 9b3d 9927 bebd
000000f0: b9c9 1e3e 6ac3 bebc 7950 8d3e 2cde fb3d
00000100: 006d 023e fc62 86bb a819 43be dfdd 0f3d
00000110: 7ed6 94bd 2375 343d e52d 183e 6d1d 033e
00000120: fff9 ccba f5d7 17be 216b 583e 8c3b 043e
00000130: a4f6 353e e9e8 863c c158 2e3e d6bc 273d
00000140: 90c5 14be a7ec 653d 0eb4 1f3e 242e 0bbd
00000150: 5ab0 303c 3d91 2b3e 956f 6d3e ca8c 1dbe
00000160: fc12 1fbe 5c90 e03d d4fe 56be 1b20 6b3d
00000170: 5df5 38bd 0ad4 03be 0696 e53d ef96 b9bd
00000180: fc4f 47be 7849 70be 2f77 5abd 3be5 05be
00000190: 773a fb3d 51cc e5bd f428 05be b65b 88bd
000001a0: 8416 24be fe98 743d 20a9 0bbe eab0 5cbd
000001b0: 7059 e1bd 2e46 3cbe f8ca 143e 663a 24bd
000001c0: 8dcb 07be 161b 4bbd 2b92 18be 5f1c 13be
000001d0: 5da1 a83d fe33 d13d 108e 273e f7e9 56be
000001e0: 00fa 183e 95cd 933d 6687 313e 3eb6 b0bd
000001f0: 17b6 223e aefd ef3d e95e f73d fe83 fcbd
00000200: a5e9 973c 2c3a 3a3e e9ed 003e f6f2 193e
00000210: 09ff 1bbe 7022 af3d ccce b83d 0d00 193b
00000220: d348 143e b679 80bd 0fdd 163e fd9a e43d
00000230: 7055 093e 0b29 0c3e d2e4 25be faf3 7d3d
00000240: 81fd 993d 088d 41be d691 85bd 8182 19be
00000250: 033d 8dbe 5291 953d 6c47 8a3d f7dd 40bd
00000260: 2e25 d6bd deaa 32ba 1460 7d3e 2eaa b13d
00000270: aefe 0f3c e925 443e 7727 f73d 5fea 573d
00000280: 4da5 a63d 9547 96bd 9b10 43be bdda bdbc
00000290: 8b55 503e 5eea ad3d 79d4 0a3e 33c9 0c3e
000002a0: af94 283e 2d77 683d 6668 1b3e c257 8ebd
000002b0: d5dd 833d 3c41 31bd 55e0 e13d 96e4 063e
000002c0: 5cd8 62be 172e bbbd 6a92 e2bd 2f43 5b3e
000002d0: 2db6 39bd f201 303e e73a 5d3e 5b98 123d
000002e0: 0937 3dbe 8f3c a03d c78a d83d c8e4 833d
000002f0: 6039 f9bd e874 953b 4317 213e 0a76 37bd
00000300: cb6a e93d e458 2cbd ad0b 393e bfcb b63d
00000310: c110 353e 941d 13be 1ab1 c6bc 3aaf 6abe
00000320: 11cd 95be 9272 67bd a7a2 5ebe 3c23 e2bd
00000330: 7aa4 32be 6008 81bd 50fb edbd da47 1bbe
00000340: ffb3 cabd fbfe d9bd 4d3d e7bd e3b9 453e
00000350: 8eb2 1c3e 32a2 c5bd 4b7d abbd ac05 623d
00000360: 1f8e f1bd 13ec ac3d d9c4 e63d 4056 43be
00000370: fae1 38be 96cd 4fbe bcf8 163e 2a12 05be
00000380: ca2b 183d b533 1fbe 3c38 19bd 36ee 613e
00000390: 797f 963d d3f8 083e 37e4 843e ef81 21be
000003a0: 638f b13d bc9d f5bd 3146 543e 1cfe e1bc
000003b0: 73eb ddbd e455 47be 9e2e 68bd 5b2b 3b3e
000003c0: 43b6 86be c30f 2b3d 218b b8bd 48d6 293e
000003d0: 0227 0dbd 4eda 27be 3490 a03d f059 003e
000003e0: 5d3b 59be 9800 a6bc 1d37 b5bd df1c 4d3e
000003f0: 4adb 353e 4942 13be dcfb e3bd 5a92 4ebe

dense_3/bias:0 f4 [2]
-0.018697869 0.0061006946
00000000: 462c 99bc 56e8 c73b

scale f4 [256]
0.37512404 0.42800933 0.40341678 0.52770066 0.47368234 0.41352853 0.41059002 0.36220938
0.4249174 0.4242367 0.28809953 0.45296353 0.41946334 0.33397603 0.45425537 0.4106037
0.36105213 0.36805564 0.39715552 0.38686365 0.6660746 0.4164558 0.39558712 0.41440415
0.4488252 0.4747836 0.41005996 0.318649 0.4300685 0.48327008 0.334734 0.38642144
0.4035854 0.4190794 0.41862205 0.3697414 0.44236022 0.37735268 0.39351717 0.38429868
0.36299607 0.35723928 0.36195296 0.3766452 0.46846992 0.3929908 0.44675535 0.38785213
0.3915969 0.47485247 0.4180759 0.4059741 0.39606005 0.47481027 0.4023245 0.38043368
0.35616264 0.48336208 0.4227827 0.4541754 0.42557496 0.43336785 0.46055612 0.47589448
0.34597945 0.40343928 0.44265082 0.41300946 0.3424849 0.41550955 0.44534886 0.49132675
0.43269923 0.42301983 0.44313708 0.42026266 0.40087274 0.3748901 0.44552186 0.57589287
0.37788612 0.38951972 0.39349878 0.35532695 0.4308865 0.3874543 0.4873352 0.44593635
0.28001428 0.4666804 0.32190844 0.3259295 0.39249745 0.3957079 0.37627608 0.32984653
0.43906927 0.34726286 0.3731114 0.39579305 0.46249694 0.4712749 0.42814344 0.4160649
0.37586617 0.39961508 0.40822825 0.42611477 0.37375638 0.3644786 0.40167558 0.43094805
0.4589874 0.34619546 0.32062316 0.364068 0.42978844 0.3942249 0.36769593 0.43065524
0.38119963 0.38449097 0.3594178 0.37428048 0.2846964 0.33597967 0.4347631 0.5137903
0.34646156 0.3630778 0.340307 0.37446097 0.5326388 0.436325 0.3697379 0.43431798
0.46316674 0.35655567 0.45534977 0.3556466 0.34156942 0.44253162 0.41252965 0.3981089
0.4450359 0.4441672 0.41564488 0.38961717 0.42042214 0.39463112 0.34332234 0.43030512
0.40372866 0.39667615 0.33429858 0.36586404 0.34431285 0.36436245 0.3252904 0.3134372
0.36036327 0.46730313 0.401568 0.48347312 0.42277926 0.3391915 0.38309872 0.44821838
0.4156725 0.39609122 0.36823374 0.34950668 0.46166164 0.46818954 0.33911267 0.36506084
0.3719392 0.32992482 0.397078 0.39212832 0.3819571 0.38956663 0.3270098 0.31733626
0.35806984 0.35039723 0.4489969 0.33229896 0.42284268 0.3649883 0.46222165 0.37850007
0.34427235 0.35507253 0.545322 0.52345186 0.37808836 0.38911015 0.39252967 0.41066617
0.41051945 0.40429023 0.37335855 0.4129834 0.4164197 0.38503617 0.3880192 0.4467922
0.2973161 0.3775902 0.4155855 0.3904131 0.29829648 0.39694485 0.4449917 0.43243873
0.4152442 0.44082054 0.47683385 0.4418854 0.34803644 0.39833578 0.47480494 0.3693249
0.39675993 0.4195445 0.47237125 0.3429918 0.47328272 0.4877735 0.31280088 0.35598367
0.37441292 0.3542935 0.41282108 0.3366683 0.35831082 0.5425433 0.3466993 0.35184616
0.39743462 0.40788746 0.3531626 0.36683032 0.38710904 0.3542679 0.37621957 0.42040825
0.44909295 0.32449788 0.35342783 0.64612013 0.5496741 0.3723788 0.36065578 0.57040966
00000000: 4210 c03e 0a24 db3e a58c ce3e 6417 073f
00000010: 7e86 f23e 03ba d33e db38 d23e 8273 b93e
00000020: c68e d93e 8e35 d93e c881 933e d6ea e73e
00000030: e6c3 d63e e8fe aa3e 2994 e83e a63a d23e
00000040: d3db b83e ca71 bc3e f857 cb3e fe12 c63e
00000050: dd83 2a3f b239 d53e 658a ca3e c82c d43e
00000060: 6bcc e53e d616 f33e 61f3 d13e f625 a33e
00000070: f031 dc3e 2d6f f73e 4162 ab3e 08d9 c53e
00000080: bfa2 ce3e 9391 d63e a155 d63e bf4e bd3e
00000090: 0a7d e23e 5f34 c13e 157b c93e ccc2 c43e
000000a0: 9fda b93e 11e8 b63e e651 b93e a4d7 c03e
000000b0: 4adb ef3e 1736 c93e 1ebd e43e 8e94 c63e
000000c0: 647f c83e dd1f f33e 0b0e d63e d6db cf3e
000000d0: 62c8 ca3e 551a f33e 7afd cd3e 34c8 c23e
000000e0: f35a b63e 3c7b f73e f976 d83e ae89 e83e
000000f0: f6e4 d93e 64e2 dd3e 03ce eb3e 71a8 f33e
00000100: 3824 b13e 988f ce3e 21a3 e23e fa75 d33e
00000110: 2e5a af3e abbd d43e c404 e43e 2e8f fb3e
00000120: c18a dd3e 0e96 d83e dde2 e23e ab2c d73e
00000130: 313f cd3e 98f1 bf3e 711b e43e b76d 133f
00000140: 4a7a c13e 216f c73e ac78 c93e 6aed b53e
00000150: 289d dc3e 6960 c63e 0084 f93e c551 e43e
00000160: 085e 8f3e bcf0 ee3e 2fd1 a43e 3be0 a63e
00000170: 6df5 c83e 3a9a ca3e 42a7 c03e a5e1 a83e
00000180: b0cd e03e 70cc b13e 7508 bf3e 63a5 ca3e
00000190: 66cc ec3e f24a f13e 9e35 db3e 7506 d53e
000001a0: 8871 c03e 599a cc3e 4b03 d13e b72b da3e
000001b0: ff5c bf3e f09c ba3e 6ca8 cd3e 39a5 dc3e
000001c0: 6600 eb3e 8840 b13e b828 a43e 1f67 ba3e
000001d0: 3b0d dc3e d9d7 c93e a442 bc3e d87e dc3e
000001e0: 992c c33e 00dc c43e 9c05 b83e b1a1 bf3e
000001f0: bac3 913e 8705 ac3e 4599 de3e c387 033f
00000200: 6963 b13e 55e5 b93e b83c ae3e 59b9 bf3e
00000210: 045b 083f fe65 df3e 494e bd3e ed5e de3e
00000220: 3124 ed3e 778e b63e 9b23 e93e 5017 b63e
00000230: 30e2 ae3e 8193 e23e 1637 d33e eed4 cb3e
00000240: bfdb e33e e269 e33e 68cf d43e e77b c73e
00000250: 9241 d73e 170d ca3e f2c7 af3e f450 dc3e
00000260: 86b5 ce3e 2319 cb3e 2f29 ab3e 8852 bb3e
00000270: c649 b03e b78d ba3e 778c a63e d77a a03e
00000280: 8981 b83e 5b42 ef3e 529a cd3e ca89 f73e
00000290: 8676 d83e 82aa ad3e 8425 c43e e17c e53e
000002a0: 07d3 d43e 78cc ca3e 2289 bc3e 8af2 b23e
000002b0: ea5e ec3e 8ab6 ef3e 2da0 ad3e 41e9 ba3e
000002c0: d16e be3e e8eb a83e cf4d cb3e 0bc5 c83e
000002d0: e28f c33e 4775 c73e d46d a73e e679 a23e
000002e0: ee54 b73e 4467 b33e ece2 e53e 1723 aa3e
000002f0: d67e d83e bfdf ba3e 51a8 ec3e c3ca c13e
00000300: 7744 b03e 11cc b53e 399a 0b3f f100 063f
00000310: cc94 c13e 7239 c73e a6f9 c83e d642 d23e
00000320: 9b2f d23e 21ff ce3e da28 bf3e 8f72 d33e
00000330: f734 d53e 7623 c53e 74aa c63e f2c1 e43e
00000340: d139 983e 8153 c13e 9fc7 d43e 3ae4 c73e
00000350: 51ba 983e 5b3c cb3e f4d5 e33e 9c68 dd3e
00000360: e39a d43e 3bb3 e13e 9123 f43e ce3e e23e
00000370: d531 b23e abf2 cb3e a219 f33e 2718 bd3e
00000380: 1e24 cb3e 89ce d63e a5da f13e 9f9c af3e
00000390: 1d52 f23e 73bd f93e 7027 a03e 7e43 b63e
000003a0: 0db3 bf3e f565 b53e 495d d33e ca5f ac3e
000003b0: 8474 b73e 1ee4 0a3f 9282 b13e 2e25 b43e
000003c0: 8d7c cb3e a0d6 d03e bad1 b43e 2fd1 bb3e
000003d0: 2833 c63e 9a62 b53e da9f c03e c03f d73e
000003e0: 83ef e53e 9624 a63e 7ef4 b43e 2168 253f
000003f0: 71b7 0c3f 6fa8 be3e e0a7 b83e 5e06 123f

bias f4 [256]
-0.22252986 -0.08821015 -0.61862093 0.6436976 0.014187909 0.45341343 0.34288105 0.13491282
0.23949265 -1.0836687 0.036322314 0.26939556 -0.185892 0.15101217 0.007192578 -0.42197138
-0.34250635 -0.19958775 0.7614178 0.25975847 0.597048 -0.69092774 -0.35425842 -0.18364054
0.19923285 0.012072608 -0.1411645 0.12394396 -0.16487792 -0.18381715 0.16797231 -0.25553197
0.18049318 0.27267152 -0.14107966 -1.0024171 0.3696867 -0.12543437 0.17225671 -0.36246824
0.18838969 0.2738416 -0.87877023 -0.0028337538 0.36824968 0.47714996 0.36976758 0.14209579
0.28063226 0.49986082 0.050161578 0.41769898 0.05276888 0.14153485 0.28683642 -0.4635775
0.16417393 0.6890467 -0.4094231 0.17013171 -0.11424352 -0.044125266 -0.42077222 0.44401768
-0.9281886 -0.31362495 0.33536297 -0.6606106 -0.028289955 -0.6528278 -0.13733047 0.05830821
0.3972775 0.83676785 0.3979745 0.18561377 -0.1424582 -0.31113142 -0.57655627 0.34471
0.11331538 0.038110178 -0.38195235 -0.110758275 0.04178789 0.1701251 0.3163509 -0.16192022
0.15686364 0.38419393 -0.77588975 -0.15377015 -0.052558094 -0.38928473 0.22743827 -0.047888573
-0.3661456 -0.11740991 0.48602068 0.61568826 0.7017181 0.60534996 0.42258844 0.81682855
0.59612316 -1.217132 0.18611868 -0.3087057 -0.19295335 0.4295198 0.7380572 0.21802983
0.3483837 -0.37676397 -0.550196 0.2295671 0.03294295 0.1879164 0.23446456 -0.4628781
0.34495458 -0.43526256 0.26004717 -0.63564754 0.16344236 -0.63832355 0.31193283 0.9256247
0.084591806 -0.28732783 -0.41861817 0.3706358 0.22444804 0.4474774 0.16823412 -0.7130803
0.13276751 -0.18064415 0.36989304 0.37439397 -0.73285 0.67528945 -0.19191341 -0.1585878
0.3556508 0.92302966 0.11212812 0.5207007 0.37533602 -0.7715454 -0.35576934 0.35018885
0.69730073 -0.0241199 0.30541664 -0.326356 0.0388446 -0.70951515 -0.23451775 0.011084389
0.41257194 0.5943922 0.461267 -0.46719486 0.6025939 0.06310522 -0.4069806 0.1717468
0.43755782 7.449277e-05 0.24340054 0.24615291 -0.2901912 0.63091576 0.020198844 -0.7265883
-0.02814804 -0.89128023 0.35117024 -0.47731742 0.48838565 -0.3250682 0.13839531 -0.57788795
0.04189836 -0.23369458 -0.08984213 -0.16878775 0.6520198 -0.5670642 0.30764288 -0.769754
0.17061856 -0.17372942 0.32010674 0.10996805 -0.5784394 0.02730542 0.58793443 0.07919891
-0.29748523 0.0849547 -0.15532064 -0.12379022 -0.34811231 -0.62302834 -0.44323534 -0.8412618
0.2825905 0.8221639 0.41509122 0.34965214 -0.8226131 0.85964817 -0.011572238 0.72015256
-0.1595529 -0.1840737 0.13427916 -0.60077035 -0.023889728 0.647017 0.53515154 -0.24824226
-0.7480606 0.35532445 0.36337036 -0.79764247 0.26271358 0.21702807 -0.57884765 0.035531126
0.22803614 -0.14330171 0.65384716 -0.42862728 -0.22211826 0.64210075 -0.14700127 -0.071482316
0.2534362 -0.68129444 -0.18027124 -0.11316721 -0.4718874 -0.026701495 -0.58240414 0.25456074
0.4347728 -0.22301716 0.17617062 0.391665 0.64559174 0.19349182 0.19920206 0.4235325
00000000: dede 63be 86a7 b4bd f15d 1ebf 5ec9 243f
00000010: 6774 683c ce25 e83e 1b8e af3e 9626 0a3e
00000020: 903d 753e a8b5 8abf b5c6 143d 37ee 893e
00000030: 795a 3ebe efa2 1a3e b8af eb3b a20c d8be
00000040: fe5c afbe bb60 4cbe 47ec 423f 10ff 843e
00000050: 23d8 183f a4e0 30bf 5c61 b5be 440c 3cbe
00000060: b203 4c3e 30cc 453c 6d8d 10be 55d6 fd3d
00000070: c2d5 28be 903a 3cbe ef00 2c3e 16d5 82be
00000080: 34d3 383e 9a9b 8b3e 3077 10be 344f 80bf
00000090: 9347 bd3e de71 00be 1064 303e 7095 b9be
000000a0: 3ae9 403e f734 8c3e 16f7 60bf 80b6 39bb
000000b0: 398b bc3e 004d f43e 2d52 bd3e 8f81 113e
000000c0: 08af 8f3e c2ed ff3e 3a76 4d3d a4dc d53e
000000d0: 2e24 583d 83ee 103e 39dc 923e 085a edbe
000000e0: 361d 283e 5d65 303f e89f d1be 0237 2e3e
000000f0: 82f8 e9bd b2bc 34bd 756f d7be 4956 e33e
00000100: c59d 6dbf 7393 a0be b2b4 ab3e c71d 29bf
00000110: 56c0 e7bc b91f 27bf 5ca0 0cbe 97d4 6e3d
00000120: f567 cb3e 6b36 563f 50c3 cb3e 8911 3e3e
00000130: 90e0 11be 9e4c 9fbe 3199 13bf d47d b03e
00000140: e511 e83d 6b19 1c3d 428f c3be 3cd5 e2bd
00000150: c729 2b3d 4635 2e3e bff8 a13e 6ace 25be
00000160: dda0 203e 11b5 c43e b6a0 46bf ec75 1dbe
00000170: 2847 57bd 5450 c7be 94e5 683e cf26 44bd
00000180: 7077 bbbe 9b74 f0bd b4d7 f83e bf9d 1d3f
00000190: cca3 333f 37f8 1a3f 835d d83e ad1b 513f
000001a0: 879b 183f fbca 9bbf e595 3e3e ac0e 9ebe
000001b0: 9095 45be 05ea db3e 51f1 3c3f 3643 5f3e
000001c0: 595f b23e 35e7 c0be a5d9 0cbf a313 6b3e
000001d0: 30ef 063d 286d 403e 7a17 703e 5cfe ecbe
000001e0: e39d b03e bcda debe e724 853e ccb9 22bf
000001f0: 6f5d 273e 2c69 23bf a9b5 9f3e bef5 6c3f
00000200: 783e ad3d a21c 93be 1f55 d6be fac3 bd3e
00000210: b5d5 653e c21b e53e 9145 2c3e 6e8c 36bf
00000220: 35f4 073e c8fa 38be 9f62 bd3e 91b0 bf3e
00000230: 0f9c 3bbf c5df 2c3f f384 44be d764 22be
00000240: dd17 b63e ac4b 6c3f 6ea3 e53d a44c 053f
00000250: 0b2c c03e 0084 45bf 6627 b6be f44b b33e
00000260: 4d82 323f 1997 c5bc 925f 9c3e 2218 a7be
00000270: 841b 1f3d c9a2 35bf 6c25 70be 4c9b 353c
00000280: a13c d33e 162a 183f 302b ec3e 2a34 efbe
00000290: 9843 1a3f 4f3d 813d c35f d0be 65de 2f3e
000002a0: 9407 e03e 0039 9c38 fe3d 793e 820f 7c3e
000002b0: f193 94be b283 213f 0c78 a53c b101 3abf
000002c0: b896 e6bc f12a 64bf 96cc b33e f362 f4be
000002d0: af0d fa3e 576f a6be 80b7 0d3e 77f0 13bf
000002e0: 9d9d 2b3d a24d 6fbe 27ff b7bd b2d6 2cbe
000002f0: c5ea 263f 1f2b 11bf 5e83 9d3e 990e 45bf
00000300: a2b6 2e3e 20e6 31be 08e5 a33e ee36 e13d
00000310: 9b14 14bf 9eaf df3c df82 163f 0a33 a23d
00000320: fc4f 98be bbfc ad3d 600c 1fbe ba85 fdbd
00000330: c73b b2be c97e 1fbf beef e2be ef5c 57bf
00000340: b4af 903e 5579 523f d686 d43e 9b05 b33e
00000350: c696 52bf e711 5c3f 7c99 3dbc eb5b 383f
00000360: d661 23be d17d 3cbe 7a80 093e 16cc 19bf
00000370: 64b4 c3bc e8a2 253f b1ff 083f 3833 7ebe
00000380: e680 3fbf 16ed b53e ae0b ba3e 4c32 4cbf
00000390: 6582 863e 9b3c 5e3e 5c2f 14bf 1689 113d
000003a0: 4e82 693e afbd 12be 8762 273f 0975 dbbe
000003b0: f872 63be b760 243f 8087 16be 5265 92bd
000003c0: 64c2 813e 5069 2ebf 0699 38be 36c4 e7bd
000003d0: 3a9b f1be 18bd dabc 7018 15bf c955 823e
000003e0: 8a9a de3e 9c5e 64be 1266 343e 5188 c83e
000003f0: 8045 253f b822 463e a0fb 4b3e 40d9 d83e

mean f4 [256]
0.0 0.0 0.0 -0.0 0.0 -0.0 -0.0 -0.0
-0.0 0.0 0.0 -0.0 0.0 -0.0 -0.0 0.0
0.0 0.0 -0.0 -0.0 -0.0 0.0 0.0 0.0
-0.0 -0.0 0.0 0.0 0.0 0.0 -0.0 0.0
-0.0 -0.0 0.0 0.0 -0.0 0.0 -0.0 0.0
-0.0 -0.0 0.0 0.0 -0.0 -0.0 -0.0 -0.0
-0.0 -0.0 0.0 -0.0 0.0 -0.0 -0.0 0.0
-0.0 -0.0 0.0 -0.0 0.0 0.0 0.0 -0.0
0.0 0.0 -0.0 0.0 0.0 0.0 0.0 -0.0
-0.0 -0.0 -0.0 -0.0 0.0 0.0 0.0 -0.0
-0.0 0.0 0.0 0.0 0.0 -0.0 -0.0 0.0
-0.0 -0.0 0.0 0.0 0.0 0.0 -0.0 0.0
0.0 0.0 -0.0 -0.0 -0.0 -0.0 -0.0 -0.0
-0.0 0.0 -0.0 0.0 0.0 -0.0 -0.0 -0.0
-0.0 0.0 0.0 -0.0 0.0 -0.0 -0.0 0.0
-0.0 0.0 -0.0 0.0 -0.0 0.0 -0.0 -0.0
0.0 0.0 0.0 -0.0 -0.0 -0.0 -0.0 0.0
-0.0 0.0 -0.0 -0.0 0.0 -0.0 0.0 0.0
-0.0 -0.0 -0.0 -0.0 -0.0 0.0 0.0 -0.0
-0.0 0.0 -0.0 0.0 0.0 0.0 0.0 0.0
-0.0 -0.0 -0.0 0.0 -0.0 0.0 0.0 -0.0
-0.0 0.0 -0.0 -0.0 0.0 -0.0 0.0 0.0
0.0 0.0 -0.0 0.0 -0.0 0.0 -0.0 0.0
-0.0 0.0 0.0 0.0 -0.0 0.0 -0.0 0.0
-0.0 0.0 -0.0 -0.0 0.0 0.0 -0.0 -0.0
0.0 -0.0 0.0 0.0 0.0 0.0 0.0 0.0
-0.0 -0.0 -0.0 -0.0 0.0 -0.0 -0.0 -0.0
0.0 0.0 -0.0 0.0 0.0 -0.0 -0.0 0.0
0.0 -0.0 -0.0 0.0 -0.0 -0.0 0.0 -0.0
-0.0 0.0 -0.0 0.0 0.0 -0.0 0.0 0.0
-0.0 0.0 0.0 0.0 0.0 0.0 0.0 -0.0
-0.0 0.0 -0.0 -0.0 -0.0 -0.0 -0.0 -0.0
00000000: 0000 0000 0000 0000 0000 0000 0000 0080
00000010: 0000 0000 0000 0080 0000 0080 0000 0080
00000020: 0000 0080 0000 0000 0000 0000 0000 0080
00000030: 0000 0000 0000 0080 0000 0080 0000 0000
00000040: 0000 0000 0000 0000 0000 0080 0000 0080
00000050: 0000 0080 0000 0000 0000 0000 0000 0000
00000060: 0000 0080 0000 0080 0000 0000 0000 0000
00000070: 0000 0000 0000 0000 0000 0080 0000 0000
00000080: 0000 0080 0000 0080 0000 0000 0000 0000
00000090: 0000 0080 0000 0000 0000 0080 0000 0000
000000a0: 0000 0080 0000 0080 0000 0000 0000 0000
000000b0: 0000 0080 0000 0080 0000 0080 0000 0080
000000c0: 0000 0080 0000 0080 0000 0000 0000 0080
000000d0: 0000 0000 0000 0080 0000 0080 0000 0000
000000e0: 0000 0080 0000 0080 0000 0000 0000 0080
000000f0: 0000 0000 0000 0000 0000 0000 0000 0080
00000100: 0000 0000 0000 0000 0000 0080 0000 0000
00000110: 0000 0000 0000 0000 0000 0000 0000 0080
00000120: 0000 0080 0000 0080 0000 0080 0000 0080
00000130: 0000 0000 0000 0000 0000 0000 0000 0080
00000140: 0000 0080 0000 0000 0000 0000 0000 0000
00000150: 0000 0000 0000 0080 0000 0080 0000 0000
00000160: 0000 0080 0000 0080 0000 0000 0000 0000
00000170: 0000 0000 0000 0000 0000 0080 0000 0000
00000180: 0000 0000 0000 0000 0000 0080 0000 0080
00000190: 0000 0080 0000 0080 0000 0080 0000 0080
000001a0: 0000 0080 0000 0000 0000 0080 0000 0000
000001b0: 0000 0000 0000 0080 0000 0080 0000 0080
000001c0: 0000 0080 0000 0000 0000 0000 0000 0080
000001d0: 0000 0000 0000 0080 0000 0080 0000 0000
000001e0: 0000 0080 0000 0000 0000 0080 0000 0000
000001f0: 0000 0080 0000 0000 0000 0080 0000 0080
00000200: 0000 0000 0000 0000 0000 0000 0000 0080
00000210: 0000 0080 0000 0080 0000 0080 0000 0000
00000220: 0000 0080 0000 0000 0000 0080 0000 0080
00000230: 0000 0000 0000 0080 0000 0000 0000 0000
00000240: 0000 0080 0000 0080 0000 0080 0000 0080
00000250: 0000 0080 0000 0000 0000 0000 0000 0080
00000260: 0000 0080 0000 0000 0000 0080 0000 0000
00000270: 0000 0000 0000 0000 0000 0000 0000 0000
00000280: 0000 0080 0000 0080 0000 0080 0000 0000
00000290: 0000 0080 0000 0000 0000 0000 0000 0080
000002a0: 0000 0080 0000 0000 0000 0080 0000 0080
000002b0: 0000 0000 0000 0080 0000 0000 0000 0000
000002c0: 0000 0000 0000 0000 0000 0080 0000 0000
000002d0: 0000 0080 0000 0000 0000 0080 0000 0000
000002e0: 0000 0080 0000 0000 0000 0000 0000 0000
000002f0: 0000 0080 0000 0000 0000 0080 0000 0000
00000300: 0000 0080 0000 0000 0000 0080 0000 0080
00000310: 0000 0000 0000 0000 0000 0080 0000 0080
00000320: 0000 0000 0000 0080 0000 0000 0000 0000
00000330: 0000 0000 0000 0000 0000 0000 0000 0000
00000340: 0000 0080 0000 0080 0000 0080 0000 0080
00000350: 0000 0000 0000 0080 0000 0080 0000 0080
00000360: 0000 0000 0000 0000 0000 0080 0000 0000
00000370: 0000 0000 0000 0080 0000 0080 0000 0000
00000380: 0000 0000 0000 0080 0000 0080 0000 0000
00000390: 0000 0080 0000 0080 0000 0000 0000 0080
000003a0: 0000 0080 0000 0000 0000 0080 0000 0000
000003b0: 0000 0000 0000 0080 0000 0000 0000 0000
000003c0: 0000 0080 0000 0000 0000 0000 0000 0000
000003d0: 0000 0000 0000 0000 0000 0000 0000 0080
000003e0: 0000 0080 0000 0000 0000 0080 0000 0080
000003f0: 0000 0080 0000 0080 0000 0080 0000 0080

var f4 [256]
1.0 1.0 1.0 1.0 1.0 1.0 1.0 1.0
1.0 1.0 1.0 1.0 1.0 1.0 1.0 1.0
1.0 1.0 1.0 1.0 1.0 1.0 1.0 1.0
1.0 1.0 1.0 1.0 1.0 1.0 1.0 1.0
1.0 1.0 1.0 1.0 1.0 1.0 1.0 1.0
1.0 1.0 1.0 1.0 1.0 1.0 1.0 1.0
1.0 1.0 1.0 1.0 1.0 1.0 1.0 1.0
1.0 1.0 1.0 1.0 1.0 1.0 1.0 1.0
1.0 1.0 1.0 1.0 1.0 1.0 1.0 1.0
1.0 1.0 1.0 1.0 1.0 1.0 1.0 1.0
1.0 1.0 1.0 1.0 1.0 1.0 1.0 1.0
1.0 1.0 1.0 1.0 1.0 1.0 1.0 1.0
1.0 1.0 1.0 1.0 1.0 1.0 1.0 1.0
1.0 1.0 1.0 1.0 1.0 1.0 1.0 1.0
1.0 1.0 1.0 1.0 1.0 1.0 1.0 1.0
1.0 1.0 1.0 1.0 1.0 1.0 1.0 1.0
1.0 1.0 1.0 1.0 1.0 1.0 1.0 1.0
1.0 1.0 1.0 1.0 1.0 1.0 1.0 1.0
1.0 1.0 1.0 1.0 1.0 1.0 1.0 1.0
1.0 1.0 1.0 1.0 1.0 1.0 1.0 1.0
1.0 1.0 1.0 1.0 1.0 1.0 1.0 1.0
1.0 1.0 1.0 1.0 1.0 1.0 1.0 1.0
1.0 1.0 1.0 1.0 1.0 1.0 1.0 1.0
1.0 1.0 1.0 1.0 1.0 1.0 1.0 1.0
1.0 1.0 1.0 1.0 1.0 1.0 1.0 1.0
1.0 1.0 1.0 1.0 1.0 1.0 1.0 1.0
1.0 1.0 1.0 1.0 1.0 1.0 1.0 1.0
1.0 1.0 1.0 1.0 1.0 1.0 1.0 1.0
1.0 1.0 1.0 1.0 1.0 1.0 1.0 1.0
1.0 1.0 1.0 1.0 1.0 1.0 1.0 1.0
1.0 1.0 1.0 1.0 1.0 1.0 1.0 1.0
1.0 1.0 1.0 1.0 1.0 1.0 1.0 1.0
00000000: 0000 803f 0000 803f 0000 803f 0000 803f
00000010: 0000 803f 0000 803f 0000 803f 0000 803f
00000020: 0000 803f 0000 803f 0000 803f 0000 803f
00000030: 0000 803f 0000 803f 0000 803f 0000 803f
00000040: 0000 803f 0000 803f 0000 803f 0000 803f
00000050: 0000 803f 0000 803f 0000 803f 0000 803f
00000060: 0000 803f 0000 803f 0000 803f 0000 803f
00000070: 0000 803f 0000 803f 0000 803f 0000 803f
00000080: 0000 803f 0000 803f 0000 803f 0000 803f
00000090: 0000 803f 0000 803f 0000 803f 0000 803f
000000a0: 0000 803f 0000 803f 0000 803f 0000 803f
000000b0: 0000 803f 0000 803f 0000 803f 0000 803f
000000c0: 0000 803f 0000 803f 0000 803f 0000 803f
000000d0: 0000 803f 0000 803f 0000 803f 0000 803f
000000e0: 0000 803f 0000 803f 0000 803f 0000 803f
000000f0: 0000 803f 0000 803f 0000 803f 0000 803f
00000100: 0000 803f 0000 803f 0000 803f 0000 803f
00000110: 0000 803f 0000 803f 0000 803f 0000 803f
00000120: 0000 803f 0000 803f 0000 803f 0000 803f
00000130: 0000 803f 0000 803f 0000 803f 0000 803f
00000140: 0000 803f 0000 803f 0000 803f 0000 803f
00000150: 0000 803f 0000 803f 0000 803f 0000 803f
00000160: 0000 803f 0000 803f 0000 803f 0000 803f
00000170: 0000 803f 0000 803f 0000 803f 0000 803f
00000180: 0000 803f 0000 803f 0000 803f 0000 803f
00000190: 0000 803f 0000 803f 0000 803f 0000 803f
000001a0: 0000 803f 0000 803f 0000 803f 0000 803f
000001b0: 0000 803f 0000 803f 0000 803f 0000 803f
000001c0: 0000 803f 0000 803f 0000 803f 0000 803f
000001d0: 0000 803f 0000 803f 0000 803f 0000 803f
000001e0: 0000 803f 0000 803f 0000 803f 0000 803f
000001f0: 0000 803f 0000 803f 0000 803f 0000 803f
00000200: 0000 803f 0000 803f 0000 803f 0000 803f
00000210: 0000 803f 0000 803f 0000 803f 0000 803f
00000220: 0000 803f 0000 803f 0000 803f 0000 803f
00000230: 0000 803f 0000 803f 0000 803f 0000 803f
00000240: 0000 803f 0000 803f 0000 803f 0000 803f
00000250: 0000 803f 0000 803f 0000 803f 0000 803f
00000260: 0000 803f 0000 803f 0000 803f 0000 803f
00000270: 0000 803f 0000 803f 0000 803f 0000 803f
00000280: 0000 803f 0000 803f 0000 803f 0000 803f
00000290: 0000 803f 0000 803f 0000 803f 0000 803f
000002a0: 0000 803f 0000 803f 0000 803f 0000 803f
000002b0: 0000 803f 0000 803f 0000 803f 0000 803f
000002c0: 0000 803f 0000 803f 0000 803f 0000 803f
000002d0: 0000 803f 0000 803f 0000 803f 0000 803f
000002e0: 0000 803f 0000 803f 0000 803f 0000 803f
000002f0: 0000 803f 0000 803f 0000 803f 0000 803f
00000300: 0000 803f 0000 803f 0000 803f 0000 803f
00000310: 0000 803f 0000 803f 0000 803f 0000 803f
00000320: 0000 803f 0000 803f 0000 803f 0000 803f
00000330: 0000 803f 0000 803f 0000 803f 0000 803f
00000340: 0000 803f 0000 803f 0000 803f 0000 803f
00000350: 0000 803f 0000 803f 0000 803f 0000 803f
00000360: 0000 803f 0000 803f 0000 803f 0000 803f
00000370: 0000 803f 0000 803f 0000 803f 0000 803f
00000380: 0000 803f 0000 803f 0000 803f 0000 803f
00000390: 0000 803f 0000 803f 0000 803f 0000 803f
000003a0: 0000 803f 0000 803f 0000 803f 0000 803f
000003b0: 0000 803f 0000 803f 0000 803f 0000 803f
000003c0: 0000 803f 0000 803f 0000 803f 0000 803f
000003d0: 0000 803f 0000 803f 0000 803f 0000 803f
000003e0: 0000 803f 0000 803f 0000 803f 0000 803f
000003f0: 0000 803f 0000 803f 0000 803f 0000 803f

dense_2/kernel:0 f4 [512, 256]
-0.009068679 0.014322916 0.03391287 -0.013558623 0.011282356 -0.024107067 -0.0391213 -0.020366102
-0.0638017 0.070549555 -0.058899563 0.015412119 -0.01035115 -0.02188779 -0.02092614 -0.032514237
0.052987788 -0.028750105 0.007804352 0.040978253 0.041290347 0.009328054 -0.03734046 -0.055689927
0.02544553 -0.031917438 -0.027634379 0.019925505 -0.004944447 0.004628883 -0.023933351 0.016369874
0.0018622853 -0.001730705 0.017366804 0.039879516 -0.040895037 0.017338343 -0.008209514 0.0074191215
0.03700579 -0.057408106 0.04532612 -0.05363797 0.023824891 0.031720746 0.0052356115 -0.03470485
-0.047122918 -0.018860098 -0.06094206 0.0149018485 0.015763916 0.013460204 0.016763635 0.022068435
0.005962142 0.006257727 0.011244947 -0.072564855 0.028784359 -0.026470108 0.06984715 -0.04010454
0.07032017 -0.022071503 0.0927037 0.05121596 -0.033628203 -0.0019717142 -0.0013901234 0.022600375
-0.0508104 -0.016663328 -0.024321936 0.015610961 0.0683032 -0.061611503 -0.008088187 -0.034425627
-0.008557737 0.048525993 0.01699473 0.036825694 0.03182761 0.00038965716 -0.0060251565 -0.0158068
0.049713355 0.01856071 0.04970977 0.03578648 0.016271235 -0.0060172705 0.0145083945 0.011576844
-0.0043532574 -0.008781347 -0.028702488 -0.053469922 0.01967217 0.040466513 0.003187903 -0.017062558
0.030411057 0.029505296 -0.006020328 0.046163835 0.028807193 -0.009569967 -0.0010588247 -0.013289799
-0.016891615 0.046578668 0.0087672835 0.05216968 -0.0067045125 0.015925564 -0.021069964 0.05483765
0.02620029 -0.03280146 0.052361023 0.029676124 0.077775784 0.05131363 -0.050553527 -0.022981785
0.048427388 0.03343367 0.051715996 -0.025376327 -0.012895514 0.025474323 0.052083965 0.014271634
-0.008722768 0.016718594 0.048342604 -0.081343636 0.03472945 -0.017096804 0.015127203 0.0023568901
-0.039869726 -0.002458337 -0.0313559 -0.01796386 -0.04784748 0.07969329 0.0069550816 0.05055492
0.047818217 -0.00083677296 -0.045170337 0.00069291313 -0.038526017 0.00374818 -0.046731185 0.03760486
-0.053480502 -0.030793255 0.08787552 0.056297313 -0.04688879 0.036113027 -0.014910448 -0.017324558
0.047041386 0.0036995488 0.07969364 0.058311284 0.10386809 -0.015093051 0.02745477 -0.006220336
-0.03865245 0.03789217 -0.0012159838 0.028957423 0.020773932 0.03975961 0.11435435 0.07422845
0.037266172 0.02792945 -0.0047119246 -0.02489335 -0.0038500612 0.0023305253 -0.048093714 0.04466178
0.043354273 0.07560439 -0.038911354 -0.011956961 -0.02962756 0.09604448 0.1407543 -0.013520345
-0.020003285 -0.08626773 0.03318298 -0.011362836 -0.04113556 0.04404331 0.043497052 0.02379982
0.0143848825 0.010981026 0.039235115 -0.011583272 0.07073399 0.007419345 -0.0035492382 0.037463967
0.042251155 -0.0038287535 0.0007127877 0.0121714985 -0.020700432 0.023511628 -0.0038308573 0.0019628112
-0.015901852 -0.051008835 -0.036638 -0.010863077 0.067090996 -0.00061201345 0.07019299 0.0009521278
-0.014506423 0.0289948 -0.048654925 0.009230118 0.003389177 -0.002027581 0.0370933 -0.033937495
0.03502663 0.012047321 -0.0035491078 -0.0032964956 0.02198959 0.022342576 0.050615996 -0.0001972162
-0.037240677 -0.04304285 0.058580104 -0.013556562 -0.013434848 -0.0038920802 0.047436923 -0.0044802856
00000000: cc94 14bc aaaa 6a3c 39e8 0a3d fd24 5ebc
00000010: a2d9 383c 2f7c c5bc a83d 20bd d0d6 a6bc
00000020: 77aa 82bd 497c 903d ab40 71bd 1d83 7c3c
00000030: df97 29bc 064e b3bc 4c6d abbc a62d 05bd
00000040: b909 593d 5785 ebbc a6bb ff3b d0d8 273d
00000050: 1120 293d b2d4 183c 4ff2 18bd 1f1b 64bd
00000060: 2573 d03c dcbb 02bd 7e61 e2bc d03a a33c
00000070: 0705 a2bb e3ad 973b e00f c4bc 1d1a 863c
00000080: ed17 f43a d3d8 e2ba d444 8e3c b458 233d
00000090: 8e81 27bd 2409 8e3c 3381 06bc 1a1c f33b
000000a0: 6293 173d c324 6bbd e2a7 393d 7db3 5bbd
000000b0: 6b2c c33c 9ded 013d 7e8f ab3b ac26 0ebd
000000c0: f603 41bd 7e80 9abc 629e 79bd e226 743c
000000d0: 5423 813c 3088 5c3c e453 893c ddc8 b43c
000000e0: 125e c33b 9e0d cd3b ba3c 383c e29c 94bd
000000f0: 2dcd eb3c d7d7 d8bc 060c 8f3d a844 24bd
00000100: 0504 903d 4ccf b4bc 70db bd3d d4c7 513d
00000110: babd 09bd e037 01bb cd34 b6ba 6c24 b93c
00000120: 911e 50bd 8881 88bc cc3e c7bc 1ec5 7f3c
00000130: 8ce2 8b3d 585c 7cbd 5184 04bc e301 0dbd
00000140: c035 0cbc 31c3 463d 8838 8b3c 8ad6 163d
00000150: ab5d 023d e64a cc39 ad6e c5bb 437d 81bc
00000160: 3ba0 4b3d a10c 983c 799c 4b3d d894 123d
00000170: 414b 853c 862c c5bb 9eb4 6d3c ceac 3d3c
00000180: c5a5 8ebb a4df 0fbc 7b21 ebbc 4703 5bbd
00000190: 8827 a13c 37c0 253d 23ec 503b c7c6 8bbc
000001a0: 9c20 f93c 17b5 f13c 2c46 c5bb 4a16 3d3d
000001b0: 10fd eb3c 5acb 1cbc 43c8 8aba 75bd 59bc
000001c0: 4960 8abc 46c9 3e3d a7a4 0f3c e0af 553d
000001d0: 87b1 dbbb 5476 823c eb9a acbc 729d 603d
000001e0: fea1 d63c d35a 06bd 8378 563d 581b f33c
000001f0: e948 9f3d 3e2e 523d 3711 4fbd 4c44 bcbc
00000200: cc5b 463d bef1 083d 27d4 533d 04e2 cfbc
00000210: b547 53bc 87af d03c ff55 553d 92d3 693c
00000220: f1e9 0ebc 6ff5 883c e502 463d 7e97 a6bd
00000230: 7840 0e3d 990e 8cbc 17d8 773c 0e76 1a3b
00000240: 704e 23bd 0d1c 21bb 0b6f 00bd f228 93bc
00000250: b8fb 43bd 3c36 a33d 74e7 e33b ad12 4f3d
00000260: 09dd 433d e25a 5bba 8804 39bd 9da4 353a
00000270: 75cd 1dbd 07a4 753b 3369 3fbd 8e07 1a3d
00000280: 5f0e 5bbd 2342 fcbc 15f8 b33d 0398 663d
00000290: 760e 40bd 41eb 133d f44a 74bc 3bec 8dbc
000002a0: 78ae 403d 2174 723b 6b36 a33d d0d7 6e3d
000002b0: cbb8 d43d d848 77bc d3e8 e03c f6d3 cbbb
000002c0: 0852 1ebd d234 1b3d a561 9fba 1e38 ed3c
000002d0: 182e aa3c f9da 223d 9d32 ea3d 1605 983d
000002e0: 6aa4 183d 4dcc e43c 7d66 9abb 24ed cbbc
000002f0: 4f51 7cbb babb 183b eafd 44bd 45ef 363d
00000300: 4094 313d 79d6 9a3d 8361 1fbd 21e7 43bc
00000310: 7fb5 f2bc f8b2 c43d e521 103e 7084 5dbc
00000320: eedd a3bc 23ad b0bd e0ea 073d 302b 3abc
00000330: c37d 28bd c266 343d f729 323d d7f7 c23c
00000340: 92ae 6b3c c3e9 333c 00b5 203d c4c7 3dbc
00000350: fbdc 903d fa1d f33b 569a 68bb d173 193d
00000360: 8c0f 2d3d d3eb 7abb 5fda 3a3a f76a 473c
00000370: f493 a9bc 759b c03c 1f0f 7bbb 82a2 003b
00000380: 9a44 82bc a4ee 50bd ba11 16bd 0cfb 31bc
00000390: 0167 893d 876f 20ba 58c1 8f3d 3798 793a
000003a0: 59ac 6dbc 8186 ed3c 634a 47bd ec39 173c
000003b0: f41c 5e3b 2ae1 04bb 25ef 173d 0b02 0bbd
000003c0: 1578 0f3d 2062 453c 2698 68bb 050a 58bb
000003d0: 8323 b43c c707 b73c b852 4f3d d2cb 4eb9
000003e0: ae89 18bd b34d 30bd b1f1 6f3d 581c 5ebc
000003f0: d61d 5cbc 4512 7fbb 384d 423d 5ccf 92bb

dense_2/bias:0 f4 [256]
0.004203216 -0.00056850835 -0.00077753275 -0.001230873 -0.001696041 0.002946881 -0.00045186037 -0.0029818
-0.0015996012 0.0009807661 0.0033047544 -0.00084253534 0.00060744944 -0.0023903188 0.0002036158 0.0021982128
0.0021163546 0.0058097304 -0.0015947404 -0.0039626886 -0.0018269956 -0.0016255075 -0.0005592599 -0.0011473425
0.0013545761 0.001286736 0.00046894455 -0.00028590768 0.0026330885 0.0003243473 -0.0013683072 0.0017674394
0.0002065438 0.002657497 -0.004441038 0.0054206457 -0.0002796946 -0.0006979495 -0.003871406 0.0017025587
-0.0011011487 0.0022088562 -0.00075807574 -0.0030252517 0.0017268991 -0.00078997907 0.0009046366 0.00063917687
-0.016205601 -0.0017580191 -0.00010906908 -0.0023942627 0.00025888302 -0.0009813011 -0.0014138799 0.0008891479
-0.0011714287 0.0019801608 -0.00028782754 0.0026003928 0.0010321226 0.0007364033 0.00019433426 -0.0011804639
-0.004180027 0.0021795488 0.0040699765 -0.0031899156 0.0005350957 -0.0068343272 -0.0022468057 0.0028551593
0.0028644258 0.0013353799 0.003005352 -0.0020792084 0.002043257 0.00095115206 -0.0028335424 0.00054307387
0.0021370025 0.00022055423 -0.008576429 -1.8149038e-05 -0.001784602 0.00079253316 -0.00062718726 -0.0012725204
0.0004976993 -0.0021083886 0.00096690655 0.003547136 0.0003799146 -0.0004169184 0.0007971326 -0.0007399861
2.132023e-05 -0.0039925366 0.0007759345 -0.006508882 -0.0031221677 -0.00063335605 -0.0009902439 0.0035837241
0.0018204143 -0.0006499347 0.00040404627 0.0013760038 0.0012827838 -0.005196997 0.0035999918 -0.0009604309
0.0007732455 0.0028036786 0.0026880046 0.0034123396 0.0046302117 0.0003984778 -0.0018818395 0.005103667
-0.0050528324 0.0028006616 -0.0034160158 -0.00073813094 0.003087172 -8.383471e-06 -0.0020441709 -0.0013702492
0.0020513118 -0.0043825204 0.000660091 0.00029330424 0.0013100214 0.0039002683 3.04056e-05 0.0028026183
-0.0014685619 -0.0016091301 -0.00012781503 0.003804637 0.001028162 -0.0010391294 -0.0014110145 -0.0021920537
0.0021418277 0.0008211302 -0.0016533572 0.0028827686 -0.0029635138 -0.002715931 -0.0013811184 -0.003906666
0.004852092 0.0015452678 -0.0011020366 0.0023506412 0.0019003053 -0.005018107 -0.0062752855 -0.0009822532
0.0032062633 0.007087764 0.0008831829 -0.0052678403 0.0022994203 -0.0073702405 -0.0034276852 -0.00024513085
-0.0059423717 -0.0015881811 0.0029779496 -0.00023925734 0.0011073778 -0.0011868696 -0.0019793503 -0.0004691049
-0.0031712737 -0.004734705 4.9474864e-05 -0.00067737553 -0.0008502595 0.0021629678 -0.0013126557 0.0010061398
0.00045707604 0.002268838 -0.0006708866 0.0052835573 -0.005008826 -0.0035747837 0.0008054099 0.003150188
-0.0023357444 0.00045914768 0.0022436825 -0.00086550176 0.0023285607 0.0030219243 0.0070286794 -1.267602e-05
-0.0059869704 0.0044578207 0.0022389153 0.003290313 0.0054652044 -0.0029425526 -0.0011984581 -0.0042997375
0.003971069 0.0023083715 -0.0035832583 -0.0014637794 0.0005766491 0.01181508 -0.002311679 0.00040065878
0.0007719948 -0.0010227229 0.0019810093 -0.0015682995 -3.9509792e-05 0.0015436525 -0.006340116 0.0048334072
0.002966219 -0.00077726215 0.0026615201 0.0065922197 -0.0005241625 0.003049748 -0.012301815 0.0022292666
-0.0030326599 -0.0005910594 0.0023929353 -0.002333381 -0.0016910394 0.00017376308 0.006171397 0.00036936125
-0.0023825476 0.00030571793 -0.0015941474 0.007551829 -0.0023786013 0.0030945535 0.0046614334 0.0014092232
-0.0011567243 -8.732224e-05 0.002711896 0.0001275303 -0.00037859622 0.0010843999 -0.0001299311 -0.00018567205
00000000: 22bb 893b f307 15ba 57d3 4bba 3f55 a1ba
00000010: b14d deba 7620 413b ace7 ecb9 4d6a 43bb
00000020: b6a9 d1ba 0d8d 803a 9494 583b 97dd 5cba
00000030: 3e3d 1f3a e5a6 1cbb b381 5539 e40f 103b
00000040: 8ab2 0a3b 8d5f be3b 9c06 d1ba 71d9 81bb
00000050: cd77 efba fb0e d5ba 4c9b 12ba 6d62 96ba
00000060: 088c b13a b2a7 a83a acdc f539 e1e5 95b9
00000070: e58f 2c3b 280d aa39 c558 b3ba 6da9 e73a
00000080: ae93 5839 6729 2e3b 2086 91bb ac9f b13b
00000090: f9a3 92b9 99f6 36ba 6ab7 7dbb 6428 df3a
000000a0: 6b54 90ba 75c2 103b 9ab9 46ba 4d43 46bb
000000b0: 1e59 e23a 9916 4fba 2225 6d3a 6f8e 273a
000000c0: 9cc1 84bc 556d e6ba 04bc e4b8 10e9 1cbb
000000d0: b1ba 8739 009f 80ba f051 b9ba b515 693a
000000e0: a08a 99ba 96c5 013b 8fe7 96b9 5a6b 2a3b
000000f0: 4a48 873a 300b 413a 35c6 4b39 ccb9 9aba
00000100: 9cf8 88bb c3d6 0e3b 705d 853b e70d 51bb
00000110: aa45 0c3a 7ef2 dfbb 253f 13bb a01d 3b3b
00000120: 17b9 3b3b ea07 af3a 71f5 443b 5443 08bb
00000130: 2ae8 053b bc56 793a f4b2 39bb 125d 0e3a
00000140: f40c 0c3b 9344 6739 2784 0cbc c33e 98b7
00000150: 4ee9 e9ba 00c2 4f3a d369 24ba b3ca a6ba
00000160: 0978 023a e42c 0abb 0078 7d3a 1177 683b
00000170: 462f c739 d795 dab9 aaf6 503a a0fb 41ba
00000180: d8d8 b237 d3d3 82bb 1568 4b3a 7648 d5bb
00000190: 489d 4cbb ce07 26ba 12cb 81ba eadc 6a3b
000001a0: f89a ee3a 6160 2aba 2cd6 d339 075b b43a
000001b0: 1523 a83a 924b aabb d7ed 6b3b 6dc5 7bba
000001c0: a1b3 4a3a ecbd 373b 3c29 303b 8fa1 5f3b
000001d0: 08b9 973b c9ea d039 0ea8 f6ba a93c a73b
000001e0: 3b92 a5bb 4e8b 373b 3cdf 5fbb 217f 41ba
000001f0: 2752 4a3b bca6 0cb7 7ff7 05bb ef99 b3ba
00000200: 4d6f 063b 3f9b 8fbb f509 2d3a a1c6 9939
00000210: 06b5 ab3a a59b 7f3b 870f ff37 22ac 373b
00000220: c37c c0ba 72e9 d2ba 1606 06b9 3757 793b
00000230: 64c3 863a 6633 88ba caf1 b8ba 8fa8 0fbb
00000240: e85d 0c3b 1d41 573a 76b5 d8ba d5ec 3c3b
00000250: 8337 42bb c3fd 31bb a506 b5ba 7d03 80bb
00000260: 4cfe 9e3b 958a ca3a 3672 90ba 370d 1a3b
00000270: aa13 f93a ef6e a4bb e9a0 cdbb f3be 80ba
00000280: 2c20 523b 7940 e83b 6785 673a d99d acbb
00000290: dfb1 163b 0f82 f1bb 04a3 60bb e884 80b9
000002a0: 3ab8 c2bb 842a d0ba b429 433b 27e1 7ab9
000002b0: 6f25 913a bc90 9bba fdb7 01bb 32f2 f5b9
000002c0: 25d5 4fbb 9625 9bbb 3b83 4f38 e791 31ba
000002d0: f3e3 5eba 94c0 0d3b 6b0d acba 73e0 833a
000002e0: b5a3 ef39 c9b0 143b 70de 2fba b121 ad3b
000002f0: 1421 a4bb eb46 6abb 2522 533a 6273 4e3b
00000300: 4a13 19bb c2b9 f039 bf0a 133b d7e2 62ba
00000310: c49a 183b 7a0b 463b d650 e63b 17ab 54b7
00000320: 592e c4bb e912 923b c4ba 123b 4ba2 573b
00000330: 7515 b33b d7d7 40bb 9515 9dba d0e4 8cbb
00000340: be1f 823b 0c48 173b 19d5 6abb 49dc bfba
00000350: 442a 173a 0a94 413c 8a7f 17bb 830f d239
00000360: b25f 4a3a e30c 86ba d2d3 013b 668f cdba
00000370: 51b7 25b8 6254 ca3a bfc0 cfbb 8f61 9e3b
00000380: e664 423b 2ec1 4bba e66c 2e3b 8c03 d83b
00000390: f367 09ba 48de 473b 8d8d 49bc e318 123b
000003a0: 97bf 46bb 53f1 1aba cbd2 1c3b a3eb 18bb
000003b0: dea5 ddba 2c34 3639 6e39 ca3b d4a6 c139
000003c0: 8424 1cbb c448 a039 b6f2 d0ba 5575 f73b
000003d0: 4fe2 1bbb fecd 4a3b f0be 983b afb5 b83a
000003e0: 3a9d 97ba c520 b7b8 11ba 313b a7b9 0539
000003f0: 537e c6b9 6c22 8e3a 1d3e 08b9 f6b0 42b9

scale1 f4 [512]
2.4272814 2.3246853 2.9604259 2.1385753 2.9006567 2.27368 2.0957344 2.1271503
2.3709636 2.6008592 2.1282868 2.8190668 3.090234 2.6825488 2.4720275 3.5695846
3.502321 3.022789 2.7277422 2.5660129 4.0203857 2.6062984 2.1432238 2.7020698
3.847901 3.005815 2.5266988 2.5484912 2.4261286 2.334786 2.392072 3.1392384
2.2958305 3.930831 2.368164 3.2249079 4.226477 2.768144 2.2416887 2.7500076
2.070176 2.777509 2.0664818 3.3901005 3.707348 1.5543556 2.7504673 1.8450162
2.5208557 2.0681372 2.1000214 1.9984572 4.224567 1.9549083 2.0950263 3.0671587
2.9665666 2.8927248 1.6694494 1.7390453 2.2718809 2.8297906 2.3395803 2.3399067
2.8829148 2.261825 3.5301824 3.101771 2.8232937 4.0964503 2.6409643 3.2844052
2.7665713 2.8702757 2.9736984 3.007982 3.4171817 2.9956272 2.3230374 3.037029
2.3165445 2.204892 3.2960825 2.1380587 2.9590147 2.9002755 2.629911 2.2262337
2.0617557 2.101534 2.7376301 2.884073 3.1965878 3.3445306 3.1751304 2.426209
1.7275349 2.0610483 2.307751 2.0085156 3.6737309 2.5493817 2.2048664 2.8908904
2.922592 3.0536206 2.386457 2.277819 2.64415 1.7757126 2.6068745 3.937299
3.1639495 3.235973 3.185869 3.158936 3.097029 2.4136407 2.6173995 2.3952541
3.0949562 3.4448767 2.0805326 2.4080267 2.218649 2.3073952 2.0952446 2.0117574
1.7858083 2.2148266 3.967306 3.50605 3.3137217 3.0555823 2.6227138 2.54917
2.900834 2.1564348 2.8281364 2.1312072 2.2048433 3.062961 3.8059182 3.939816
2.1232436 3.2147079 1.8493301 2.049678 2.0331306 2.364357 2.468175 2.3865297
2.575556 3.3455114 2.407535 3.252036 3.848967 2.4954307 3.0273087 2.0497494
2.825789 2.1224327 2.18081 2.6692617 2.9867756 1.8802884 2.8139431 4.125232
3.920716 4.0049267 2.5995665 2.5277202 1.7479259 2.8211966 3.571429 2.2121515
2.3886247 3.1566043 2.3924508 2.1977146 2.4230673 1.8916792 2.5369167 2.109398
2.4922674 1.9942652 1.8471547 3.5552332 1.7849668 2.9035842 3.026296 3.0413198
3.0756505 2.7785082 2.3996286 2.0170422 2.4837844 2.5722518 3.603771 3.299225
2.060587 2.8484 2.889513 2.9895303 2.42439 2.6324477 3.2850947 2.2357554
2.662402 3.5958748 2.9319658 3.386642 2.0298607 2.5395286 1.9986062 1.937179
1.8655843 2.5643246 1.8936131 3.315168 2.4640386 3.6090064 2.8100038 3.8309884
3.0188565 2.120803 2.6194487 2.3637354 4.272159 2.2675333 2.569247 2.1377323
2.3680737 2.9270875 3.5697088 3.3330436 3.4783752 2.4023457 2.5836496 2.2798405
2.214423 2.4191976 2.5580413 2.4315703 2.2166057 3.7807844 2.018843 2.6750162
3.3986342 3.4607291 1.7243034 2.0104415 2.2539592 1.7735233 3.1637135 2.8701925
00000000: 9458 1b40 a5c7 1440 9e77 3d40 6bde 0840
00000010: 5ca4 3940 f983 1140 8320 0640 3b23 0840
00000020: debd 1740 7a74 2640 da35 0840 976b 3440
00000030: 65c6 4540 e1ae 2b40 b335 1e40 1374 6440
00000040: 0726 6040 6075 4140 5493 2e40 8e39 2440
00000050: 00a7 8040 98cd 2640 942a 0940 b6ee 2c40
00000060: 0344 7640 465f 4040 6fb5 2140 7b1a 2340
00000070: b145 1b40 226d 1540 b517 1940 48e9 4840
00000080: e3ee 1240 bc92 7b40 0090 1740 e464 4e40
00000090: 4d3f 8740 4529 3140 d477 0f40 2000 3040
000000a0: c37d 0440 b5c2 3140 3d41 0440 68f7 5840
000000b0: 3145 6d40 20f5 c63f a807 3040 7e29 ec3f
000000c0: b355 2140 5c5c 0440 c066 0640 72cd ff3f
000000d0: a72f 8740 6f3a fa3f e914 0640 544c 4440
000000e0: 3adc 3d40 6722 3940 85b0 d53f 0999 de3f
000000f0: 7f66 1140 4a1b 3540 afbb 1540 08c1 1540
00000100: ad81 3840 bec1 1040 82ee 6140 6b83 4640
00000110: d8b0 3440 1f16 8340 8f05 2940 b233 5240
00000120: 810f 3140 99b2 3740 1351 3e40 c782 4040
00000130: 1bb3 5a40 5bb8 3f40 a5ac 1440 af5e 4240
00000140: 4442 1440 f31c 0d40 04f3 5240 f4d5 0840
00000150: 7f60 3d40 1d9e 3940 7650 2840 9d7a 0e40
00000160: cef3 0340 887f 0640 5535 2f40 a794 3840
00000170: e594 4c40 ca0c 5640 5635 4b40 0247 1b40
00000180: dd1f dd3f 37e8 0340 31b2 1340 858b 0040
00000190: 681e 6b40 1229 2340 881c 0d40 5904 3940
000001a0: bf0b 3b40 856e 4340 b6bb 1840 c9c7 1140
000001b0: c139 2940 8d4a e33f 08d7 2640 b5fc 7b40
000001c0: 267e 4a40 2e1a 4f40 47e5 4b40 022c 4a40
000001d0: b935 4640 1779 1a40 7983 2740 d84b 1940
000001e0: c313 4640 dc78 5c40 7227 0540 1c1d 1a40
000001f0: 58fe 0d40 5dac 1340 7d18 0640 a2c0 0040
00000200: 5e95 e43f b8bf 0d40 57e8 7d40 2063 6040
00000210: 0414 5440 a98e 4340 8bda 2740 9a25 2340
00000220: 44a7 3940 0703 0a40 3000 3540 b365 0840
00000230: 271c 0d40 8e07 4440 2a94 7340 f225 7c40
00000240: 39e3 0740 c6bd 4d40 d9b6 ec3f ed2d 0340
00000250: d01e 0240 a051 1740 94f6 1d40 e7bc 1840
00000260: e9d5 2440 dc1c 5640 0e15 1a40 5c21 5040
00000270: 7a55 7640 23b5 1f40 6dbf 4140 182f 0340
00000280: bad9 3440 f0d5 0740 6492 0b40 2fd5 2a40
00000290: 5527 3f40 4aad f03f a517 3440 e701 8440
000002a0: 03ed 7a40 5c28 8040 4c5f 2640 2bc6 2140
000002b0: 09bc df3f 7c8e 3440 4b92 6440 e493 0d40
000002c0: 3adf 1840 ce05 4a40 ea1d 1940 5ba7 0c40
000002d0: 8913 1b40 8b22 f23f d85c 2240 6000 0740
000002e0: 4f81 1f40 1544 ff3f 916f ec3f f188 6340
000002f0: cb79 e43f 53d4 3940 d5ae 4140 fca4 4240
00000300: 75d7 4440 14d3 3140 8493 1940 3817 0140
00000310: 53f6 1e40 c69f 2440 2fa4 6640 8126 5340
00000320: a8e0 0340 304c 3640 c8ed 3840 7754 3f40
00000330: 3529 1b40 067a 2840 fe3e 5240 9e16 0f40
00000340: cb64 2a40 d022 6640 54a5 3b40 bebe 5840
00000350: 3de9 0140 a387 2240 54d2 ff3f 7bf5 f73f
00000360: 77cb ee3f e51d 2440 ea61 f23f b62b 5440
00000370: cfb2 1d40 f6f9 6640 1ad7 3340 ea2e 7540
00000380: f234 4140 3dbb 0740 0ca5 2740 7147 1740
00000390: 87b5 8840 441f 1140 8b6e 2440 9bd0 0840
000003a0: 858e 1740 6755 3b40 1c76 6440 9650 5540
000003b0: b39d 5e40 08c0 1940 845a 2540 e8e8 1140
000003c0: 1bb9 0d40 22d4 1a40 f3b6 2340 d99e 1b40
000003d0: dedc 0d40 5ff8 7140 b934 0140 7733 2b40
000003e0: 3983 5940 967c 5d40 f9b5 dc3f 13ab 0040
000003f0: de40 1040 d002 e33f 487a 4a40 3cb1 3740
