data/DNN/Inlusive_amcatnlo_xyComponent_JetLepXY_50EP__diff_xy_2016_postVFP_20220621-1524genMETweighted.onnx (onnx, 578084 bytes, 16 tensors)

StatefulPartitionedCall/sequential/dense_3/MatMul/ReadVariableOp:0 f4 [256, 2]
000000 da ed 85 bc f9 2b 4b be df 2a 52 be 48 7d d5 bd
       -0.016348768 -0.19840993 -0.20524167 -0.10424286
000010 17 39 98 3e 65 df 1c 3d a2 c8 7c 3e 56 4e aa bd
       0.29731056 0.038298983 0.2468591 -0.08315723
000020 80 a1 0c 3e 00 dd 85 be 50 e4 17 bd 45 7f a1 3d
       0.13733482 -0.26145172 -0.03708297 0.07885603
000030 93 fe 6c be 88 af 6f 3c a2 0d 0d 3e 0f 70 2e 3e
       -0.23143987 0.014629252 0.13774732 0.17034934
000040 9e 98 f6 3d d8 03 0b 3e cb a1 4c 3e a3 d5 45 bd
       0.12040828 0.13575685 0.19983594 -0.048299443
000050 67 f8 46 3c 7b 1a 6c 3e 85 6f 9f 3c 00 40 8f 3e
       0.012144185 0.23056976 0.019462356 0.27978516
000060 f2 bd 6e 3e 1f 78 8e bc a8 45 68 be d0 79 ba 3d
       0.23314646 -0.017391263 -0.22682822 0.09105265
000070 d2 0e 35 be 4f b3 06 3e e3 25 5d 3e 6c ab f0 3c
       -0.17681435 0.13154338 0.21596484 0.029378615
000080 8b 44 ac 3d c6 5c 24 3e 39 bb 30 3e 3f df 55 bd
       0.08411511 0.16051015 0.1725892 -0.052214857
000090 89 bb 70 3e c4 de f1 bd f7 d8 00 bc 82 0b 81 3e
       0.23509039 -0.11810067 -0.007864228 0.25204092
0000a0 a0 3d 99 be 67 33 24 be 58 e1 59 3d 0b 12 5c 3e
       -0.2992983 -0.16035233 0.05319342 0.21491258
0000b0 42 95 23 3e eb 4f 9b 3d 29 16 79 3e 49 40 13 3e
       0.15974906 0.075836025 0.2432486 0.14379992
0000c0 29 4a 31 3e ac e9 fd bd fb 18 95 bd 28 a6 f7 3c
       0.17313446 -0.12398085 -0.07280155 0.030230597
0000d0 a1 d1 2a 3d 7a 09 85 be 2b a5 cb bc 3d 8c 88 be
       0.041703824 -0.25983793 -0.024859032 -0.26669493
0000e0 00 e7 3c 3e dc 82 b8 bd 39 9e 36 be ac 3a 9c 3e
       0.18447495 -0.090093344 -0.17833795 0.30513513
0000f0 eb ea 08 be d6 22 09 3e 4b 21 c0 3d 14 19 0e be
       -0.13370864 0.13392195 0.0938135 -0.13876754
000100 50 91 0a be da 3b 32 3d aa f2 f2 bd 40 80 07 3e
       -0.13531995 0.04351411 -0.11862691 0.13232517
000110 5a 2a 2a 3e 9f a8 10 3e 20 18 3c be 0c 94 0d 3e
       0.16617718 0.14126824 -0.18368578 0.13826007
000120 3e dd c4 3d ac e5 51 be b1 5d 4f be ea 35 e6 3d
       0.09612511 -0.20497769 -0.20250584 0.11240752
000130 93 4a 4c 3e 88 ad 6f bc 94 ef 06 3e 59 e0 4f be
       0.19950323 -0.014628775 0.1317733 -0.20300426
000140 43 06 04 bd a9 d8 37 3e ea ec 6a 3d cd bc 4b 3e
       -0.032232534 0.17953743 0.057354845 0.1989624
000150 4a 39 24 bc 08 80 a8 3d 6d 5f 68 be 1a a0 a3 bd
       -0.010023424 0.08227545 -0.22692652 -0.07989521
000160 8a 50 6f be f5 13 f7 bd 92 96 d4 bd 03 4b 5d be
       -0.23370567 -0.120643534 -0.103802815 -0.21610646
000170 3a 76 76 3d f5 f5 0f 3d 35 4b 97 3d 8d 54 15 3e
       0.060171343 0.035146672 0.073873915 0.14583035
000180 a8 4b f6 bd 27 b4 de 3d 39 55 96 3d 12 7a 05 bd
       -0.12026149 0.10874205 0.07340474 -0.03258712
000190 c7 84 3d 3d b3 cd 37 be b1 ee 0c be 42 5b e9 bd
       0.046269204 -0.17949562 -0.13762929 -0.11394359
0001a0 8e a3 05 be f9 41 d9 bd b4 fa b6 3d ec d7 4f be
       -0.13050672 -0.106082864 0.089345366 -0.20297211
0001b0 d6 63 7e 3e cc 99 04 be 1e 17 86 be b6 5a 88 bd
       0.24842772 -0.12949294 -0.26189512 -0.06657927
0001c0 d2 20 40 bd 71 94 48 be 90 df 02 3e 47 3f 2c bc
       -0.0469063 -0.19587876 0.12780595 -0.010513133
0001d0 d6 40 81 3d 35 b6 76 3e b5 a4 da bb 0a 42 2a 3e
       0.063111946 0.24092944 -0.0066724666 0.16626754
0001e0 c4 f2 e4 3d c8 5a c0 3d fd 35 69 be 6e 3c b5 3d
       0.11179116 0.09392315 -0.22774501 0.08849417
0001f0 de db 24 3e 6f f5 41 3e 6c ce 91 bd 6c e5 90 3e
       0.16099498 0.18941282 -0.0711945 0.28300035
000200 c6 5a 81 be 05 53 d1 3c bd 07 64 be fb 3f 0d 3e
       -0.25264567 0.025552282 -0.22268577 0.13793938
000210 58 01 08 be ee fb 78 be 07 ba 08 3d 90 0d 92 be
       -0.13281763 -0.24314854 0.033380534 -0.28525972
000220 ea 8e 02 3e 8c 15 5c be a2 e1 51 be de 31 01 be
       0.1274983 -0.21492594 -0.20496228 -0.12616679
000230 a5 73 0a 3e 47 c8 73 3c 1f 83 bb bd 0a 2f bf bd
       0.13520677 0.014879293 -0.09155869 -0.09335144
000240 c2 43 14 3e ed 63 40 be 9e de 8b be b6 9d 62 bd
       0.14478973 -0.18788119 -0.2731828 -0.055326186
000250 19 d3 ea bd 27 42 bb bc c7 14 e4 bd 06 67 e5 bd
       -0.11466045 -0.022858692 -0.111367755 -0.11201291
000260 f6 66 c4 bd eb 86 2b 3e 74 b0 74 3e 7d a1 be 3d
       -0.09589951 0.16750686 0.23895437 0.09308145
000270 fa bf 02 3e 89 20 47 3e ea 41 40 3e a5 32 12 3d
       0.12768546 0.19446005 0.18775144 0.03569283
000280 78 c8 33 3e ff 61 aa 3d e2 b5 cd bd ff 2e f4 3d
       0.17556942 0.083194725 -0.10044457 0.11923026
000290 b6 f1 35 3e e0 a0 d3 3d b2 b8 8f 3c 63 38 9e 3e
       0.17767987 0.10333419 0.017544124 0.30902395
0002a0 6f 0f 64 3e 26 11 7e bd db 61 09 3e 7e b3 90 bd
       0.22271512 -0.062028073 0.13416235 -0.070654854
0002b0 ad f1 f6 bd b4 be 4c be 94 ad 17 3e fc 9c 5f 3d
       -0.12057815 -0.19994622 0.14812309 0.05459307
0002c0 2a 78 8f bd bc 83 1c 3e ef c7 91 3c 84 ad 34 be
       -0.07005341 0.15284628 0.017795531 -0.17644316
0002d0 3b 0b ca bd ee 59 0d 3e 7a 30 cd 3d ba 57 b0 bd
       -0.09865423 0.13803837 0.10019012 -0.086104825
0002e0 7e 8e 4b 3e ca ac 10 3e e1 d3 c2 bd ec 28 31 be
       0.19878575 0.14128414 -0.09513069 -0.17300767
0002f0 e2 6e 83 bd 36 7a 5e be 65 47 ae 3d 40 7c 00 3c
       -0.064176336 -0.21726307 0.08509711 0.0078421235
000300 c4 20 67 3d 91 e4 51 3e 6f c2 12 be 97 ee e3 bd
       0.056427732 0.20497347 -0.14331983 -0.11129492
000310 4c 9d 95 be 12 3f f5 bc a5 aa ec bd b6 2f 1a 3e
       -0.2922157 -0.0299373 -0.11555985 0.15057263
000320 fb bf f7 3d 98 9c 4c be 92 65 1a 3d aa 1a 5b be
       0.12097164 -0.19981611 0.03769452 -0.2139689
000330 aa 6a e0 bb 2f dc 8b be 1e 67 f1 bd a4 91 5e bd
       -0.006848653 -0.27316424 -0.11787246 -0.054338112
000340 25 6c 72 bd b1 2e 20 3e 0a a9 56 3d 2d 87 28 3e
       -0.059185166 0.15642811 0.052407302 0.16457815
000350 cf e2 af bd 14 93 7e 3e 29 b7 52 3e 15 1c 82 bd
       -0.08588182 0.24860793 0.20577683 -0.063530125
000360 74 ad 19 bd 02 dc de 3d 14 52 4a be 9d cb d5 3d
       -0.037518933 0.10881807 -0.19757873 0.10439227
000370 e8 31 85 be f7 51 19 bc ca 7a 00 bd a2 e8 3c 3e
       -0.26014638 -0.009357921 -0.0313671 0.18448117
000380 ea ca 27 3e 64 5c c1 bd bb 23 30 bd e7 d8 4e be
       0.16386 -0.0944145 -0.043002825 -0.20199929
000390 1e 3c 45 3e b6 f9 33 bd 32 ce 48 3e 70 4c ca 3d
       0.19261214 -0.043939315 0.19609907 0.098778605
0003a0 f5 37 e0 3d 8b 09 02 be f7 bf 83 3e 5a 7e 27 3d
       0.10948173 -0.12698953 0.25732395 0.040891983
0003b0 68 31 22 3e 28 bb 3b 3e 4d 38 c7 bc e2 63 71 3e
       0.1583916 0.18333113 -0.024318838 0.23573259
0003c0 fd 35 c9 3d 16 88 fb 3d c1 b6 ea bd 80 60 1c bd
       0.098247506 0.12281816 -0.11460639 -0.038177967
0003d0 86 98 f8 3d b2 d5 64 bd c2 58 02 3e e6 8b 17 3e
       0.121384665 -0.05586786 0.12729171 0.14799461
0003e0 85 a6 59 3d af f5 40 3d 12 56 9f bd cc cb 38 be
       0.05313732 0.047109302 -0.077800885 -0.18046492
0003f0 b7 1e cc 3c a2 dc 07 be 1e 44 a9 3c ee 9b 47 be
       0.02491699 -0.13267758 0.020662364 -0.19493076

StatefulPartitionedCall/sequential/dense_3/BiasAdd/ReadVariableOp:0 f4 [2]
000000 78 ff 1d bd a2 ce 8a 3c
       -0.038573712 0.016944233

StatefulPartitionedCall/sequential/dense_2/MatMul/ReadVariableOp:0 f4 [512, 256]
000000 d5 41 5e bb 9a d3 d3 3c 6a 41 40 bd 8b 4c 47 bd
       -0.003391375 0.025857735 -0.046937384 -0.04865698
000010 d6 70 ac 3a ed 93 4e 3a d1 eb 4a bd dd c5 3e 3d
       0.0013156186 0.0007880319 -0.0495413 0.046575416
000020 fe a4 ca 3c 13 a2 b8 bc e8 a4 41 3d c9 7e 91 ba
       0.024736878 -0.02253822 0.047276407 -0.0011100407
000030 01 ad 20 bd 9b f2 71 bc 47 c5 d2 bb 2a 6f 06 bd
       -0.03922749 -0.014767314 -0.0064322087 -0.032820858
000040 2d 8e 08 bc 9b 8b 4c bd 43 8a 41 bd 64 a1 bc 3c
       -0.008334679 -0.049937826 -0.047250997 0.023026176
000050 23 f8 ca bc 56 cc 60 3c 74 ac 4d bc 2b b8 27 bc
       -0.024776524 0.0137205925 -0.012553323 -0.01023678
000060 d7 72 16 bd 70 f3 a2 bb 1d f8 89 3b ea cd a5 3a
       -0.036730614 -0.0049728677 0.0042104856 0.0012649868
000070 2d 6c 12 bd dc e1 83 bc 8e 33 ce bb 3a 86 18 3c
       -0.035747696 -0.01609891 -0.006292767 0.009309346
000080 7a d5 99 ba f4 b7 b8 bc 3e d3 5f 3b fe 91 94 bc
       -0.0011736595 -0.022548653 0.003415301 -0.01813602
000090 25 b6 08 ba d3 25 bb bc 5c 67 03 bd 06 a4 c1 bc
       -0.000521513 -0.022845184 -0.032080993 -0.023637783
0000a0 41 62 75 bb ee 85 f1 ba 1b 36 26 bc 9d 89 43 bb
       -0.0037442597 -0.0018426755 -0.010144736 -0.0029836663
0000b0 f1 ca 1b 3c f0 8f d3 3c 16 f5 70 bc d3 0d 61 3b
       0.009508834 0.02582547 -0.014706871 0.0034340515
0000c0 1a 63 69 bc 1f 5f 94 bc da c4 a5 bc 61 88 0b 3d
       -0.014244819 -0.018111764 -0.020235468 0.034065608
0000d0 69 79 88 3c 55 67 dd bc 91 4b 4d bc 1e 1d 4c 3c
       0.016659455 -0.027026812 -0.0125302235 0.012458114
0000e0 6f f3 03 3d d3 b8 40 bd c8 e4 34 bc d2 45 8c bc
       0.03221458 -0.047051262 -0.011040874 -0.017123137
0000f0 9e 47 a6 bc ff f9 21 bd f2 8e f2 3b d2 f4 d6 3c
       -0.020297822 -0.039545055 0.0074022943 0.026239786
000100 bc 02 6e bc a1 eb f1 bc 9b a3 f1 3c 79 32 66 3c
       -0.014527019 -0.029531302 0.029496958 0.01405012
000110 e7 ca d0 bc 84 03 3a 3b 7b 00 2c bd 2e 18 b6 3b
       -0.025487376 0.0028383443 -0.041992646 0.0055570817
000120 17 d8 2b bc 6b 98 0e bd fb ad 8d bc 6e 99 54 bc
       -0.010488532 -0.034813326 -0.017294874 -0.012976034
000130 8f a9 d6 3c 05 84 59 bc 0a a2 ae 3b 90 6a c1 bc
       0.026203899 -0.013276105 0.005329375 -0.023610383
000140 92 ce 3d 3c 33 f7 ea bc 61 de 18 3b a1 53 e5 bc
       0.011584895 -0.028682327 0.0023325908 -0.027993979
000150 9b 8f 87 bd 91 bb 13 bd 8f 41 3f bb 81 74 c5 bb
       -0.066191874 -0.03606755 -0.0029183363 -0.0060258512
000160 b4 f4 8f 3b be f0 94 bc f8 79 06 bd 85 46 ad bc
       0.0043931846 -0.018181201 -0.032831162 -0.02115179
000170 c8 be 89 3b ee 11 71 3c 23 e9 11 bc d0 93 c5 bc
       0.004203651 0.014713747 -0.008905682 -0.024118334
000180 d6 85 c4 3c f3 12 b9 3c 36 10 e1 3c e9 c9 88 3c
       0.0239896 0.022592044 0.02747355 0.01669784
000190 09 51 17 bb 9d 8b 82 3c 9c 33 ba 3c c2 9f e0 3c
       -0.0023089072 0.015935713 0.022729687 0.027419928
0001a0 7c 52 20 bb ff 1f 1d 3c a8 2e b1 bc 9e c6 fd bc
       -0.0024463227 0.009590148 -0.021628693 -0.030978497
0001b0 8f d8 04 3c dc c8 c6 bc 5a 95 d4 bc fc e0 74 3b
       0.008108272 -0.0242657 -0.025950123 0.0037365546
0001c0 5b 85 ad bc 3d de 9b 3c 02 9c ae bc 94 38 b8 bc
       -0.021181753 0.01902687 -0.021314625 -0.022487916
0001d0 c0 0d 7a bb 92 d4 b2 bc ee 98 60 bd 51 72 12 3d
       -0.0038155168 -0.021829877 -0.054833345 0.035753552
0001e0 3b 35 ae bc e3 bc cd 3b f4 ea ed bc f9 a1 c5 bc
       -0.021265617 0.0062786206 -0.029042698 -0.024125086
0001f0 73 e5 8e bb 97 92 9e 3c 0c f4 14 3c 39 0a 5c 3c
       -0.0043608486 0.019357009 0.009091388 0.013430172
000200 44 98 eb 3c b9 5c 9e bc 32 01 4b ba c6 33 98 bc
       0.02875913 -0.019331323 -0.00077440136 -0.018579375
000210 af b0 95 bc 96 b6 4b bb 52 62 1a 3c b4 0d bc 3c
       -0.018272726 -0.0031084171 0.009422855 0.022955753
000220 de 61 82 3c b5 d0 bd bc 9e 4d 81 bb 33 2b d9 3c
       0.015915807 -0.023170808 -0.0039460203 0.026509857
000230 23 f8 78 bc 3f c3 53 bd d4 f0 b6 bc b4 49 bc 3c
       -0.015195879 -0.051699873 -0.022331633 0.022984363
000240 c2 13 e9 3c 27 59 e0 ba f3 16 f1 bc a1 83 f2 b9
       0.028451804 -0.0017116413 -0.029429888 -0.00046255908
000250 03 e2 b2 b8 b6 14 f1 3c a4 e8 50 3c f4 e3 f2 3a
       -8.5297994e-05 0.029428821 0.012750778 0.001853107
000260 44 a1 56 3c bc a0 ba bc da 58 29 3d d9 f4 58 bd
       0.013099972 -0.022781722 0.0413445 -0.05296788
000270 fe b2 04 bd 27 18 ce 3c be fe 58 bd fb 72 be 3c
       -0.032397263 0.025158001 -0.052977316 0.023248186
000280 67 ec 29 bc a8 9f c9 bc 9a 0a a8 bc 93 f4 e0 bc
       -0.010371304 -0.024612263 -0.020512868 -0.027460372
000290 11 28 ca bc 64 7e 02 bd 84 28 dd bc 15 74 6f 3c
       -0.024677308 -0.031858817 -0.026996858 0.014615078
0002a0 31 14 5c bd 06 8c 3a 3c f7 02 ad 3c 40 0b c7 bc
       -0.053730194 0.011385923 0.021119578 -0.024297357
0002b0 eb 0e 8c bb 45 97 59 3c b9 fd a4 bc b8 25 3c 3c
       -0.0042742393 0.013280694 -0.020140516 0.011483602
0002c0 05 36 1a bd e8 9c b7 3c be 1d 80 bc 79 4c ca 3b
       -0.037649173 0.022413686 -0.015639182 0.006173667
0002d0 09 20 65 bc b3 bc 5e 3c 31 bb 1b bb de 04 0b bc
       -0.013984689 0.013594794 -0.0023762698 -0.008485047
0002e0 e5 9a ed ba 3b 2b 66 bb 51 19 13 bd ab 48 39 bc
       -0.0018127827 -0.0035120982 -0.035912815 -0.011308829
0002f0 a7 3f 1c bc d3 63 67 ba e5 15 07 3d 64 0d 86 3c
       -0.00953666 -0.00088268257 0.032979865 0.016363807
000300 3a 54 ba bc 33 e4 e7 bb c3 5a 56 3b 32 e7 5e 3c
       -0.02274524 -0.007076764 0.0032707907 0.013604926
000310 fd 69 7e 39 ef 81 da b9 f4 0c 6a bd 59 94 94 3c
       0.00024262811 -0.00041677008 -0.05714126 0.018137144
000320 6c 51 d3 39 bd 7f bd 3b 2f ce 1b bd 0b 01 f4 bc
       0.0004030572 0.00578305 -0.03803843 -0.029785654
000330 3a 79 9b bc 42 48 08 bc 40 ca bd 3c 8e 24 ca 3c
       -0.018978704 -0.008318009 0.02316773 0.024675634
000340 0f 68 54 3c b1 60 58 3d 31 3a 4a 3c 77 8d 87 3c
       0.012964263 0.052826587 0.0123429755 0.016546948
000350 68 b8 2e bc f8 fb 77 3c f2 94 f6 3c a6 e0 f6 3c
       -0.010664083 0.015135758 0.03010032 0.030136418
000360 c7 f7 5e 3c 37 88 67 3b 64 b7 73 3c da 73 b1 3c
       0.013608879 0.0035328993 0.014875267 0.021661688
000370 8c 08 14 bd 59 bf 5b bc 86 0a 12 bd 7b e4 1f bd
       -0.036140963 -0.01341232 -0.035654567 -0.039036255
000380 95 40 ca bc 4a d2 82 bc c1 79 29 bd cb c9 f0 3c
       -0.024688998 -0.015969414 -0.04137588 0.029393097
000390 e8 fc 32 3d 5e af 24 bd 35 ad e6 bc 2c b5 cc 3c
       0.04369822 -0.040206306 -0.028158763 0.024988733
0003a0 be ed 83 bc cc f1 86 3c df 8e 17 bd dc ef f5 ba
       -0.016104575 0.01647272 -0.037001487 -0.00187635
0003b0 6b ec de bc 4e a1 07 bd 4a 19 1f 3d 43 8e 8a 3c
       -0.027212342 -0.033112817 0.038842477 0.016913539
0003c0 d5 6b d0 bc 54 6d c6 bc 86 e5 6a 3c ba 26 26 bd
       -0.025442043 -0.024222054 0.014336949 -0.040564276
0003d0 0d c5 98 bc ab c2 ce 39 8c b7 6c bb d0 f1 89 3c
       -0.018648649 0.0003943642 -0.0036120145 0.016838938
0003e0 d7 b7 b9 bc 0d 2d 07 3d fc 45 b2 3c fd 74 d2 bc
       -0.02267067 0.03300195 0.021761887 -0.02569055
0003f0 76 1a 19 bc e0 46 8e bc 91 25 6b ba 03 ab 6f bb
       -0.009344688 -0.01736778 -0.00089701364 -0.0036570437

StatefulPartitionedCall/sequential/dense_2/BiasAdd/ReadVariableOp:0 f4 [256]
000000 96 41 39 3a ea f7 91 ba f6 52 5a 39 fa f6 f9 ba
       0.0007066963 -0.0011136506 0.00020821005 -0.0019070797
000010 61 66 bb 3a 6c f5 bf b9 8c 13 1b 3b 25 aa 32 bb
       0.0014297479 -0.00036613212 0.0023662774 -0.0027262059
000020 58 a5 d8 39 4c fd a3 3a f0 a7 3b b8 2c c8 10 bb
       0.0004132192 0.0012511401 -4.474068e-05 -0.0022091968
000030 ee dd a2 ba fb 09 a4 3a 44 a1 a0 39 21 9f 40 3a
       -0.0012425759 0.0012515181 0.0003063773 0.0007347931
000040 7d 4d b8 39 e7 55 96 ba 43 2a 5b bb d0 85 f7 3a
       0.00035152948 -0.0011469693 -0.0033441938 0.0018884484
000050 e1 0a 5b ba e8 d9 ae 36 2b 68 bc 3a 50 69 88 3a
       -0.0008355808 5.2109717e-06 0.0014374306 0.0010407362
000060 f8 1b ee 3a 9a c9 b3 b9 f0 3d f5 3a 99 90 96 ba
       0.0018166294 -0.00034291745 0.0018710475 -0.0011487185
000070 8e ba 8f 3a f0 d0 5f bb fd 66 a9 3a ad 50 de 39
       0.0010965632 -0.0034151636 0.001292437 0.00042403248
000080 b5 01 f8 3a e9 2f 92 ba d2 97 90 3a 54 3f ec 39
       0.0018921407 -0.0011153194 0.0011031574 0.0004506061
000090 19 7a 2a bb 26 e6 e7 3a 34 57 e2 b9 da 22 0a 3b
       -0.0026012717 0.0017692491 -0.0004317105 0.0021077902
0000a0 52 12 ea b8 2b a7 2b ba b4 20 f0 ba fd 28 92 b9
       -0.00011161402 -0.00065480423 -0.0018320293 -0.0002787783
0000b0 7c 9b 08 3b 3a df 55 bb f7 e4 8c 3a 09 02 cd 3a
       0.002084463 -0.0032634274 0.0010749389 0.0015640865
0000c0 c6 44 ac ba 0a b8 07 3b e0 80 fd ba 71 54 1c bb
       -0.0013143055 0.002070906 -0.0019340776 -0.0023854042
0000d0 fb a4 f6 ba 06 0a 70 ba 7d 0c a3 3a b9 fd 36 ba
       -0.0018817479 -0.0009156767 0.0012439635 -0.00069805566
0000e0 f5 ff 00 39 36 ec d6 b9 b8 b6 8c 3a 01 26 c6 3a
       0.00012302383 -0.00040993252 0.0010735607 0.0015117527
0000f0 8a b5 4c 3b 28 fb 97 b9 9e 4b 98 39 4a 1b 8a ba
       0.0031236135 -0.0002898809 0.00029048038 -0.0010536697
000100 1d 6a 9f ba 68 b3 a4 3b 58 93 26 ba a0 ed 2e 3a
       -0.0012162362 0.0050262697 -0.00063543534 0.0006672982
000110 cd f5 8b ba 32 62 f8 3a 19 40 0b ba 0c 43 2b ba
       -0.0010678113 0.0018950163 -0.00053119805 -0.0006533123
000120 f8 93 29 3b 1b 56 9f ba 42 90 4d ba 6e fd ef 3a
       0.002587555 -0.0012156399 -0.00078416255 0.0018309781
000130 e8 2d b3 b9 0f 49 e3 b9 c7 bb 8d ba d4 c9 11 bb
       -0.00034175743 -0.00043351247 -0.0010813408 -0.0022245543
000140 55 a5 05 3b 4b 67 03 3b 6a da 96 38 5d ba c4 ba
       0.0020392735 0.002005058 7.19324e-05 -0.0015009154
000150 dc ba d9 3a 78 3c 39 ba d4 08 d9 b9 bb 65 e5 ba
       0.0016611475 -0.00070662005 -0.00041396043 -0.0017501632
000160 66 80 e1 39 d9 e1 dc 3a 11 35 96 b9 00 9a 39 3a
       0.00043011009 0.0016851976 -0.00028649767 0.0007080138
000170 cb fd ab b9 a3 a6 cb b8 0e 26 87 3a dd 24 20 3a
       -0.00032804752 -9.710833e-05 0.0010311024 0.00061090087
000180 27 41 bc 37 dc 84 91 3a 8e fb dc ba 4b 2e 51 bb
       2.2441685e-05 0.0011102217 -0.0016859637 -0.0031918462
000190 05 e9 06 3b f1 08 23 ba d8 f6 ac 3a 30 4b 00 39
       0.0020585668 -0.0006219289 0.0013196124 0.00012235041
0001a0 fc ec 4b b9 9d ab b8 ba c6 b7 34 3a 5a 42 57 3b
       -0.00019447872 -0.0014089231 0.00068938395 0.0032845945
0001b0 39 cd e1 b8 24 af 56 b9 ac 21 a8 39 66 b9 2d ba
       -0.00010767062 -0.00020473875 0.00032068545 -0.0006627053
0001c0 16 f3 9d 3a 8f ff 7c 3a 66 fe a6 ba e3 39 7c 3a
       0.0012050595 0.00096511183 -0.0012740612 0.0009621663
0001d0 d1 86 89 ba f0 f4 0e bb f3 61 be 3a 95 38 a9 3a
       -0.0010492449 -0.0021813475 0.0014525041 0.001291054
0001e0 dc 52 8b 3a b0 ab 77 b9 4b 15 f8 ba b3 a7 e2 39
       0.0010629552 -0.00023619714 -0.0018927244 0.00043231025
0001f0 20 59 10 3a 62 1c c5 39 5c e3 bd ba f5 11 86 ba
       0.0005506445 0.00037595915 -0.0014487314 -0.001022874
000200 01 02 a5 39 1c bb 31 3a 41 98 ce b9 c7 0d 8a 3a
       0.00031472745 0.00067798956 -0.0003940482 0.001053267
000210 80 d8 7b ba aa f3 f7 ba 87 7c 36 ba 5e 85 85 ba
       -0.0009607151 -0.0018917222 -0.0006961305 -0.0010186841
000220 fa e0 3c ba 00 dd 0a 3a 1c df ce 3a af dd 28 bb
       -0.0007205155 0.0005297214 0.0015783045 -0.00257669
000230 c1 f7 18 3b a2 25 18 3b 77 a6 8e b8 14 78 3b ba
       0.0023341032 0.002321579 -6.802094e-05 -0.0007151377
000240 3c 22 ab 3a ca 42 b6 3a 88 0c 1d ba b5 52 25 ba
       0.0013056467 0.0013905403 -0.0005990942 -0.0006306575
000250 ba 7e 44 ba 4a 48 13 bb 05 82 ca 39 37 78 50 39
       -0.00074956904 -0.0022473508 0.00038625314 0.0001988121
000260 8a 55 de 3a 79 75 6c b9 a4 b4 dd 3a 9e 61 4b 3a
       0.0016962748 -0.00022550476 0.0016914797 0.00077583815
000270 13 95 3f 3b 2c 5f e0 3a 03 8b 76 3b 5e 10 5f 39
       0.0029233142 0.0017118207 0.0037619479 0.00021273035
000280 58 ee 77 ba a9 0e 09 bb 57 f5 cf 3a 4a df 00 bb
       -0.0009457818 -0.002091328 0.0015865964 -0.001966434
000290 ec 14 d8 39 b7 20 08 bb 82 31 02 3b df fb b9 ba
       0.00041214318 -0.0020771453 0.0019865935 -0.0014189443
0002a0 d7 4d 22 3b af 60 70 ba f9 61 a9 37 14 7c cf ba
       0.0024765634 -0.00091696804 2.0191992e-05 -0.0015829825
0002b0 1c 32 1e 3a 6a d3 e1 ba 1f cb 0a bb fb 11 d1 39
       0.00060346886 -0.0017229144 -0.0021178199 0.00039876983
0002c0 92 65 84 3a b9 3e 03 3a 14 c4 97 38 0b 31 06 ba
       0.0010101071 0.00050066 7.2367635e-05 -0.00051190023
0002d0 78 19 c7 37 94 e5 7e ba 47 5d 04 bb a6 2b 85 3a
       2.3734508e-05 -0.0009723541 -0.00201972 0.0010160103
0002e0 b8 bf 65 3a 16 2e 28 ba 46 5c bc 3a 8d a0 c8 ba
       0.0008764225 -0.0006415559 0.0014370761 -0.0015306637
0002f0 35 7e 88 39 db dc 81 ba e8 74 57 3a 1f 54 f8 b9
       0.00026033973 -0.0009907739 0.00082190195 -0.0004736492
000300 73 e0 06 b9 3a 82 57 ba eb 1d b2 39 dc f6 ee 3a
       -0.0001286285 -0.00082210044 0.00033973096 0.0018231529
000310 ac 3d 22 3a 52 e0 53 b9 e8 5d 55 3a 5d 56 8c 39
       0.00061889994 -0.00020206094 0.00081392983 0.00026767227
000320 07 c5 28 3a f3 17 88 ba 9c f3 34 bb 5f ba 8b ba
       0.0006438051 -0.0010383114 -0.0027611023 -0.0010660401
000330 42 77 b8 ba ce 94 0d 3b 52 b4 e7 3a dc b4 14 3b
       -0.0014073628 0.0021603587 0.0017677641 0.0022690808
000340 25 9e 17 ba b0 3f 6a bb 6a f3 af 3a cb ec dd 3a
       -0.0005783758 -0.0035743527 0.0013423983 0.0016931532
000350 a6 01 4d b9 7a 0e 6c 3a 56 0a 83 39 4c 23 98 3a
       -0.00019550938 0.0009004843 0.00024993968 0.0011607199
000360 3e 51 58 b9 a2 c0 fe 3a 5d 59 9f 39 2b ca b2 ba
       -0.0002062963 0.0019436071 0.00030393424 -0.0013640573
000370 5c ef 0f bb 22 6b 0a ba fc 7f 42 bb e0 6e f4 39
       -0.0021962738 -0.0005280246 -0.0029678335 0.00046621915
000380 b9 0b 44 bb b5 f1 d5 b9 af ce 4b 3a 7b 21 91 3a
       -0.0029914214 -0.00040806612 0.00077746337 0.00110726
000390 53 67 95 39 04 0f 14 3a 21 09 b4 3a 34 6d b0 3a
       0.00028496477 0.00056479895 0.0013735631 0.001346028
0003a0 a9 f7 f3 ba e2 de 69 3a 55 5d 82 3a 45 45 a3 3a
       -0.0018613237 0.0008921457 0.0009946028 0.0012456557
0003b0 5b e1 7f 3a ab da da 39 2c 83 1a 3b 7a ec 26 3a
       0.00097610586 0.0004174312 0.002357672 0.0006367635
0003c0 81 ed b8 ba 0b 18 86 3b 6f e6 4e ba dc 7c 9a ba
       -0.0014108868 0.0040922216 -0.00078926136 -0.0011786479
0003d0 41 ec 99 3a 48 21 11 ba 22 de c9 ba 6a cd 24 39
       0.0011743383 -0.00055362703 -0.0015401284 0.00015716781
0003e0 d7 90 3b 3b a0 99 b1 39 d6 16 68 37 36 e3 2d ba
       0.0028620267 0.0003387453 1.38335945e-05 -0.00066332833
0003f0 d7 18 c4 3a c3 5c 8c 3a 71 83 11 3a ec eb 41 bb
       0.0014961016 0.0010708797 0.00055508973 -0.0029590083

StatefulPartitionedCall/sequential/dense_1/MatMul/ReadVariableOp:0 f4 [17, 512]
000000 32 bd fd 3c 8f c5 47 3d 0e 5c 3c 3c 2a e4 c9 3c
       0.030974004 0.04877239 0.011496557 0.02464493
000010 43 3e 69 3c 74 d0 e6 3d a3 1a 62 3c 80 05 e4 3c
       0.014236036 0.11270228 0.013800296 0.027834654
000020 b7 40 29 3d 3d 49 63 bd 22 23 5b 3b 36 c0 86 bd
       0.041321483 -0.055489767 0.0033437689 -0.0657963
000030 63 ba 4f 3c 2b 21 c9 bc 95 d5 a7 bc 09 e0 bb 3d
       0.012678715 -0.024551949 -0.020487586 0.09173591
000040 60 cc 82 bc 23 f2 a0 bd 59 13 7f 3d 5d 30 8b bd
       -0.015966594 -0.07858684 0.06227431 -0.06796334
000050 0c 4e 3e 3d 50 c0 b2 3d b5 8e f0 3c a0 2e 67 3c
       0.04646115 0.08728087 0.029364923 0.014110237
000060 4e f5 2c be ab 81 54 3d 5c d6 43 bb 70 0f 48 3c
       -0.16890451 0.051881474 -0.0029882407 0.012210712
000070 5d 24 12 3d 08 1e 54 bc 0f 9f d2 3a 62 f0 5e 3d
       0.03567921 -0.012946613 0.0016069132 0.054428466
000080 f1 fe 45 be 13 d2 8f 3b f2 55 ad 3d e4 b7 ad bb
       -0.19335534 0.0043890565 0.084636584 -0.0053014625
000090 be b3 79 bc 92 34 c2 3d fd ad 85 bd 93 ca 59 bd
       -0.015240608 0.09482683 -0.06527326 -0.053171705
0000a0 49 02 a3 3d ab a7 0a bb 49 7d 50 3d d0 9f 9b 3d
       0.0795942 -0.0021157067 0.05090073 0.07598841
0000b0 ae e3 80 38 5c e7 22 bd 0a 86 ef 3d cd 23 2f 3b
       6.145924e-05 -0.039771423 0.11695488 0.002672422
0000c0 a6 cd 0f 3d 16 ae 47 bb 62 cc 48 3d e6 d8 0a 3e
       0.03510823 -0.0030468754 0.04902304 0.13559303
0000d0 b0 9a 8e 3c 43 ad 15 bc 27 4a f7 bc 93 33 1c 3c
       0.017407745 -0.009135547 -0.030186726 0.009533781
0000e0 a1 7f 00 3d 29 01 64 bd b8 8d f9 3d cf ef 27 3d
       0.031371716 -0.05566517 0.12185234 0.041000184
0000f0 d0 c8 bc bd fe ec f9 bc c8 1b ba 3c 52 89 9b bd
       -0.092179894 -0.030508514 0.022718325 -0.07594551
000100 2a 64 17 be 86 a2 b8 bc 23 f0 8d 3c 84 11 7f 3c
       -0.14784303 -0.022538435 0.01732642 0.015568141
000110 5f b9 bd 3c 87 62 d4 bc 4e c2 7c 3d 41 27 b6 3c
       0.02315968 -0.025925888 0.06170874 0.022235515
000120 87 9f 97 bd a2 0d 9f 3d 0b 9e d5 3a 56 fd 13 3d
       -0.07403474 0.07766272 0.0016297711 0.03613027
000130 77 f2 84 3d 8f e0 31 bd 8a f4 e3 bc cb 66 92 bd
       0.06491559 -0.043427046 -0.027826566 -0.071485125
000140 54 bf 2d 3d bc 00 32 3b 10 b6 74 bc 47 d0 b8 3c
       0.042418793 0.0027161082 -0.014935985 0.022560252
000150 3a 37 96 3c ac 67 a9 bc 52 ff 1c 3e 8f e7 b0 bc
       0.018336881 -0.020679317 0.15331772 -0.02159479
000160 49 3d ba 3c 22 37 16 3e c0 77 43 be 6b 77 62 3d
       0.022734301 0.14669469 -0.1908865 0.055289667
000170 b1 7b 46 3d 2a 5f ae bb f2 a3 fb 3c 72 dc 14 3d
       0.048457805 -0.005321403 0.030717824 0.036343046
000180 48 73 22 bc ab 96 84 3d 8e 72 33 be 94 f9 29 3d
       -0.0099151805 0.0647405 -0.17524168 0.041497782
000190 57 7a e8 3d c5 6b 9a bc 99 d7 de 3b a3 98 fa 3c
       0.113514595 -0.018850217 0.0068006036 0.030590361
0001a0 2e 52 32 3d 62 c2 f0 bc 69 2e d1 3d 09 de 0c 3e
       0.043535404 -0.029389564 0.1021393 0.13756575
0001b0 ef fc 00 3e c1 64 cb bb d4 1d 88 3d 14 22 a8 3d
       0.12596487 -0.006207079 0.06646314 0.08209625
0001c0 4c 69 63 3c 0a 7b e8 3c 12 70 b8 3d 71 64 47 3c
       0.013880085 0.028378982 0.09005751 0.012169943
0001d0 43 a5 a7 bc 43 b1 3d bc 00 28 41 bd 4e 84 87 3d
       -0.020464545 -0.011577907 -0.047157288 0.06617032
0001e0 5d 83 e9 bb fe 5e ae bd 06 b8 9c bc e9 4c 1d be
       -0.0071262554 -0.08514212 -0.019130718 -0.1536137
0001f0 72 9c 1d bd a8 f4 a6 3d a2 d6 51 bc 09 2d 0f bd
       -0.038479276 0.08152133 -0.01280752 -0.03495506
000200 8c 68 3a 3b 48 8e ee 3c 1a 8e 85 3c 8e 49 73 bc
       0.0028443662 0.02912058 0.01630311 -0.01484908
000210 d9 06 e1 3b fb fe 2c 3e 82 e5 f1 3b 3a c7 80 3c
       0.0068672714 0.16894142 0.007382096 0.015719999
000220 2d 67 9b bd 96 3c b7 3d c5 c2 44 bd f4 8e 45 bd
       -0.075880386 0.08947103 -0.04803731 -0.048232034
000230 2d e7 21 bd 10 85 c9 bb 75 fe 68 3d 29 85 b2 3d
       -0.039527107 -0.0061498955 0.056883294 0.087168045
000240 ae 56 8a 3d 14 13 b9 3d 04 63 10 3d 67 72 0e 3d
       0.06754814 0.09036842 0.03525068 0.03477707
000250 b6 f4 c3 bc ce 4a bc bc c8 fc 59 3d 0a 18 21 bd
       -0.023920398 -0.022984888 0.053219587 -0.039329566
000260 44 f6 0e 3d 12 af de bd 0b 91 d4 3b 33 a0 8a 3d
       0.034902826 -0.10873236 0.006487017 0.06768837
000270 95 df 63 bd ea 77 1a 3d 54 49 b1 3d da 3d 31 bd
       -0.055633146 0.037712015 0.08656564 -0.043271877
000280 da 42 89 3d 15 14 15 bd 94 e8 4c 3d 0b c5 cc 3c
       0.06702204 -0.036396105 0.05002649 0.024996301
000290 36 60 c0 3c 9f 85 c3 bc f2 27 00 3e 04 6b c3 bd
       0.023483377 -0.023867426 0.12515238 -0.09541896
0002a0 87 f0 18 3b 87 a4 85 3d fc c1 34 bc 68 16 41 3c
       0.0023336725 0.06525522 -0.011032578 0.011785127
0002b0 aa 7d c8 3d 2e 40 a8 3c 45 a6 49 3d 17 77 18 3d
       0.097895935 0.020538416 0.049230833 0.037222948
0002c0 1c 80 3a 3d 35 00 fe bc 01 94 27 3d 4b 26 2a bc
       0.04553233 -0.031005958 0.040912632 -0.010385106
0002d0 59 7b c1 3b 00 01 b1 bd 0f 3f 9e 3d 5f 00 a4 3d
       0.0059045968 -0.08642769 0.07726871 0.08007883
0002e0 3e c6 b1 3c c3 48 a9 3d ce c6 a2 bc 75 29 58 3d
       0.021700975 0.08265831 -0.019870188 0.05277391
0002f0 b8 14 8b 3b 17 c8 cc 3c 59 68 1e 3d 7d 6d 26 bd
       0.004244413 0.024997754 0.038673732 -0.04063176
000300 50 52 15 3c 66 49 7f bd 12 5a 3f 3d 7b ff 92 3d
       0.009113863 -0.062325858 0.046716757 0.07177635
000310 7b a1 1a 3e e1 80 c5 3c b6 35 a1 bd c2 8b 5c 3d
       0.15100662 0.024109306 -0.07871573 0.05384422
000320 49 7a c1 bd 2f c4 85 bb b2 8a c9 bd ee a6 b5 bd
       -0.09447152 -0.004082225 -0.09840907 -0.0886973
000330 12 01 82 3b 4f 82 d7 3d 13 29 c9 bd 37 f6 ee 3c
       0.0039674127 0.10522901 -0.098222874 0.029170139
000340 79 f8 2d bc 73 81 2c be 2b bd ec bc 15 86 99 bd
       -0.0106183225 -0.16846256 -0.028898796 -0.07496277
000350 9c 51 31 3d 24 93 a4 b9 f4 f1 95 3d 0e d8 9a 3b
       0.04329072 -0.00031390146 0.073215395 0.0047254628
000360 1a 9b 9f 3b af 8e b4 3c 53 b9 8b 3d 39 e0 83 3b
       0.0048707845 0.022040693 0.06822457 0.004024532
000370 22 35 8d 3d 02 40 06 3e b0 86 0e bd 35 22 0c 3c
       0.068949 0.13110355 -0.034796417 0.0085530775
000380 e3 ef e3 ba aa 11 90 3d ad bd ed 3d f5 5f a6 3d
       -0.0017390217 0.07034619 0.116084434 0.08123771
000390 77 d4 dd bb 35 8c 80 3d 03 f7 cc 3c c9 55 02 be
       -0.0067697125 0.06276742 0.025020128 -0.12728037
0003a0 41 5c b8 3d 14 54 6d 3d 9b 49 52 3c 5c 86 b4 3c
       0.09001971 0.05794151 0.012834932 0.022036724
0003b0 75 5e a7 3d 1e bd 11 bd 1e a5 73 bc 54 cc c3 bc
       0.08172313 -0.035580747 -0.01487091 -0.023901142
0003c0 05 62 02 3e 18 72 45 3d 10 12 4b 3d f7 b0 81 3d
       0.12732704 0.04820451 0.049577773 0.063325815
0003d0 9a b1 3a bc 47 08 b4 3d 48 b6 79 bd aa cc b2 3d
       -0.011394883 0.08790641 -0.060964853 0.08730443
0003e0 e7 01 c3 3d 7a f0 70 3d a8 2f b1 3c 6d 80 9a 3c
       0.09521847 0.058823086 0.02162917 0.018860066
0003f0 2f 52 87 bd 0b 09 b5 bd db 89 db 3d c5 91 c6 bc
       -0.06607472 -0.088396154 0.10719653 -0.02423943

StatefulPartitionedCall/sequential/dense_1/BiasAdd/ReadVariableOp:0 f4 [512]
000000 b1 f5 41 bb 69 ee 89 ba 68 1b 14 bc 39 e8 f1 3b
       -0.0029595906 -0.0010523322 -0.009039737 0.0073824194
000010 2b 2b d7 3b b9 34 f5 3b 2d 66 3d 3c d0 71 92 bb
       0.0065664253 0.0074830917 0.011560005 -0.004469134
000020 03 09 9a 3c aa bc d0 3c 91 b6 cb bb 9a bc ae 3b
       0.018803125 0.025480587 -0.006216832 0.0053325417
000030 9d 4f 90 bb dc 24 a6 3a 0c 87 53 bb d1 f6 d2 3a
       -0.004404022 0.001267578 -0.003227654 0.0016095286
000040 00 e1 43 3b cc d2 a3 ba 3c 1e 2c 3c f6 f3 d2 bc
       0.002988875 -0.0012498735 0.010505255 -0.025751095
000050 c5 6e 42 ba 0b 09 92 bb 03 b7 e5 ba b1 6d 82 3b
       -0.00074170186 -0.0044566444 -0.0017525855 0.0039803614
000060 c4 d1 3d bc 3a 86 09 bc 6a 18 4d bb 69 cf 63 3a
       -0.011585657 -0.0083938185 -0.003129507 0.00086902693
000070 00 f6 87 3b c4 80 6c ba b4 b4 39 bc f2 a5 c6 38
       0.0041491985 -0.0009021873 -0.011334587 9.4722855e-05
000080 84 19 05 bc c6 30 af bb 4e 89 59 3b b6 e3 ab 3b
       -0.008123759 -0.0053463904 0.0033193412 0.005245651
000090 2d 86 38 bb dd fb 9a 3a b3 0a 81 3b ce c5 98 ba
       -0.0028156147 0.0011824329 0.003938043 -0.001165563
0000a0 0b 07 5f bb 3a e1 a6 bb 1b cd 2e bb b4 e5 41 3c
       -0.0034031298 -0.005092767 -0.0026672545 0.011834551
0000b0 08 68 cd bb 79 72 5b ba d3 7c a0 bc de 3f 1d 3c
       -0.006268505 -0.0008371245 -0.01959077 0.009597747
0000c0 a9 c0 c9 3b 17 fa fe b7 30 83 26 b8 c7 d8 a9 3b
       0.006157 -3.0395617e-05 -3.9699662e-05 0.0051833126
0000d0 7f 68 c7 3b 7a 8a 1a 3b b1 7c bc 3b dc 69 e9 3a
       0.006085455 0.0023581074 0.005752169 0.0017808038
0000e0 24 67 98 3b 24 df a3 3b 01 c5 38 3c 84 00 5e 3c
       0.004650967 0.0050009657 0.011277438 0.013549928
0000f0 3f e4 5a 3b 6f dd 01 3c 76 b5 d1 bb e0 a8 43 3c
       0.0033400205 0.007926329 -0.0063998057 0.011942118
000100 f7 92 91 3b d7 be 19 3b 19 af 1d ba 99 89 0d 3b
       0.0044425684 0.0023459697 -0.0006015166 0.0021596907
000110 86 32 45 3b 90 72 66 ba c9 ee ee 3a 13 c5 65 3a
       0.0030089929 -0.0008790875 0.0018229123 0.0008765023
000120 94 bb 88 ba c7 5e 0f bc e2 cf 60 bb 2d af b8 3b
       -0.0010431879 -0.008750624 -0.0034303595 0.005636117
000130 12 a7 17 3a 19 50 f5 3b e4 62 14 3c 14 b8 e0 3b
       0.0005785088 0.007486355 0.0090567805 0.0068578813
000140 71 d0 c5 3a 2f d5 62 3a 2f 98 bb ba 59 39 67 3a
       0.0015092028 0.00086529827 -0.0014312322 0.0008820496
000150 f0 08 ab 3b 33 de b1 3c ca c4 4f 3b 40 3e 58 ba
       0.0052195713 0.021712398 0.0031702989 -0.0008249022
000160 0d dd b5 bb 60 4d 00 3a df df 14 bc 68 d0 eb 3a
       -0.005550033 0.0004894342 -0.009086578 0.0017991187
000170 d4 88 16 bb 5e 38 83 3a be 35 ee ba b6 b8 77 3c
       -0.002296974 0.0010011306 -0.0018173975 0.015119722
000180 ee 75 f1 bb ea d3 5e 3a 15 fa 3e 3c 52 59 ed 3b
       -0.0073687946 0.00085002056 0.011656304 0.007243314
000190 46 7f 1b bc 12 1b 4b 3b 1c 49 3c 3b 0c 10 a0 3a
       -0.009490794 0.0030991477 0.00287301 0.0012211814
0001a0 83 46 91 bb 24 0b 02 3a fd 0f 21 ba db d8 b1 3b
       -0.0044334545 0.00049607665 -0.0006144045 0.0054274625
0001b0 b7 07 37 bc d5 88 4e 3b e5 a5 02 bb bf 43 07 bc
       -0.011171273 0.0031514664 -0.0019935307 -0.008255898
0001c0 2b 7c d0 3a 71 29 f9 39 cb 27 0b bb 8c 83 8e 3b
       0.0015906146 0.00047523857 -0.0021233435 0.0043491777
0001d0 12 cf 63 bc a5 ed ad ba 7b 03 8c bc 06 db ef b9
       -0.01390435 -0.0013269676 -0.017091503 -0.00045748818
0001e0 76 34 b5 bb e7 57 85 3c a5 95 1e 3c f6 f4 2c bb
       -0.0055299355 0.016277267 0.009679233 -0.0026391125
0001f0 88 d7 a4 3b af 57 e1 bb f6 e7 e9 bb 9d 77 11 bc
       0.005030576 -0.006876908 -0.0071382476 -0.008878616
000200 04 4b b0 38 4c 9c 06 3c bb dd 37 bc 7d 14 01 3c
       8.406307e-05 0.008215975 -0.011222298 0.00787842
000210 d9 6b c5 3b 84 fb f9 3b 2b b7 84 3b 8c 9e 06 3b
       0.0060248193 0.00762886 0.0040501556 0.0020541279
000220 a1 9e 37 bc bb d0 9e bc 8a db 0a 3a 55 65 a4 3a
       -0.011207254 -0.01938664 0.0005296996 0.0012542406
000230 30 04 94 bc a4 8b 91 3b 1b 00 3d 3b ea d0 9b bb
       -0.018068403 0.0044416953 0.0028839174 -0.004755129
000240 8c e6 08 bb 14 f3 54 3c 66 12 75 bb 2f 9e 44 3c
       -0.002088937 0.0129974075 -0.0037395 0.0120006045
000250 c6 b3 1d 3b b2 35 70 3b 62 91 3a 3a 6a fa 4e 3c
       0.0024063452 0.0036653099 0.00071170006 0.012632946
000260 c4 f8 8f bb 73 71 10 3c fd 47 7f bb 4d 85 d6 3a
       -0.004393669 0.008816111 -0.003895282 0.0016366631
000270 b4 07 8b 3c 03 19 13 3b 94 ed 38 bc 2f fa 83 bb
       0.016971447 0.0022445328 -0.011287112 -0.004027627
000280 45 cc b8 3b 68 36 48 bc a0 96 f2 3a 6c 39 96 ba
       0.005639585 -0.012220003 0.0018508025 -0.0011461205
000290 b6 7c a5 3b 1f 01 9f 3a dc 71 b9 bb c7 9e 73 3a
       0.005050267 0.0012131071 -0.005659325 0.0009293374
0002a0 24 b0 74 bc 85 2e 19 b9 47 74 88 3a 4c 27 11 bc
       -0.014934573 -0.00014608547 0.001041063 -0.008859467
0002b0 e2 8e a8 3b ef 0d 8d bc 9b c6 c6 bb d9 24 56 3c
       0.005143986 -0.017218558 -0.006066156 0.013070309
0002c0 66 77 23 ba 7d 9b e3 3b e1 e2 94 bc 3d 2b 36 3c
       -0.00062357483 0.006946026 -0.01817459 0.011118707
0002d0 42 0c 7d 3a 03 7a 0c bc e1 40 10 bc a3 22 fe b8
       0.00096530106 -0.008574012 -0.008804531 -0.000121181154
0002e0 97 ca 7a 3a fa f1 98 3b 35 c0 f6 3b d0 be d2 3b
       0.00095669314 0.0046675177 0.007530237 0.006431438
0002f0 b5 5a 92 3c 12 fe 8a ba 1e fb c1 bb 00 d4 fd bb
       0.017865518 -0.0010604283 -0.005919828 -0.0077462196
000300 88 18 15 ba b8 01 65 3b ac 71 78 3b 88 2d 11 bc
       -0.00056875544 0.0034943651 0.003790955 -0.008860953
000310 e9 f5 ab ba 8e f8 ad bb ae b1 30 bc c2 90 b5 3b
       -0.0013119552 -0.005309171 -0.01078455 0.005540938
000320 d4 1e cf bb 31 b8 6f bb ef 76 8d bb a5 5e 60 3b
       -0.0063208137 -0.0036578292 -0.0043171565 0.00342361
000330 15 57 4e bb 64 bc ba 3b a8 04 76 ba fc d9 3e 3a
       -0.003148501 0.0056987274 -0.0009384849 0.0007280407
000340 62 4f 19 3c 81 75 de bb b9 ba c2 3b 90 d0 d0 bb
       0.009357305 -0.00678891 0.005942669 -0.006372519
000350 91 84 85 bb 72 fd 4c bc ee ae 7d 3b 13 3e 37 3b
       -0.004074641 -0.012511598 0.0038709003 0.0027960583
000360 16 e1 ad 3c 0f fd 61 3b bf 6c da bb d4 81 3c bb
       0.021225493 0.003448311 -0.0066657956 -0.0028763907
000370 7c 0f 77 bb 74 0a 98 3b 3c 54 5e ba e1 41 7e 3c
       -0.0037698438 0.004639918 -0.000848118 0.015518636
000380 96 70 6a bb 67 26 8d b9 15 12 37 ba 36 7f 9f ba
       -0.0035772673 -0.00026922228 -0.00069835904 -0.0012168649
000390 4e d1 44 bc b3 23 b0 ba fe 1b c6 bb 2a 5a 6c 3c
       -0.012012793 -0.0013438374 -0.0060458174 0.014425794
0003a0 d7 55 cc 3a fe 28 26 bc a8 3a 56 bc c0 2b 83 bb
       0.0015589547 -0.010141609 -0.013075508 -0.004003018
0003b0 df 71 3c 3a aa d1 1a 3c 92 ff 18 b9 db 48 d3 38
       0.0007188599 0.009449402 -0.00014591057 0.000100748344
0003c0 b4 e1 12 bc 95 84 f9 3a 0c d1 9b bb 41 a8 0c ba
       -0.008964945 0.0019036705 -0.004755145 -0.0005365648
0003d0 b7 06 36 bc 8b fc b2 3a a6 b2 be bb 36 fd b6 bb
       -0.011109999 0.0013655586 -0.0058196364 -0.0055843843
0003e0 67 b4 a4 3b 56 f2 ce 3b d5 81 2c bb 82 cd 62 3b
       0.0050263884 0.00631551 -0.0026322503 0.0034607355
0003f0 b5 ef 96 bc 3c 22 00 b9 49 3f 33 bc d7 be 08 b9
       -0.018424848 -0.00012219785 -0.010940381 -0.00013041064

StatefulPartitionedCall/sequential/dense/MatMul/ReadVariableOp:0 f4 [17, 17]
000000 51 e8 8b be ac 01 4e 3d 4b 43 ae be c3 4b b9 be
       -0.2732568 0.050294563 -0.34035715 -0.36190614
000010 66 a4 e0 be f6 76 21 3e 76 40 04 bf 09 b4 f7 3c
       -0.43875426 0.15768036 -0.5166086 0.030237215
000020 30 3e c7 be 8c 35 f6 3d 0f 5c 0c be 7e 7e cb 3e
       -0.38914633 0.12021932 -0.13706993 0.39744943
000030 42 e2 ef be df 1e cb bd 54 0d 39 3e d9 32 d6 bd
       -0.4685231 -0.099179976 0.1807149 -0.10458917
000040 70 c4 ab 3d 3c 63 94 bd 6d 06 07 bf f7 a8 8b be
       0.08387077 -0.0724549 -0.5274418 -0.27277347
000050 e2 62 bb 3e 45 ce 77 bb c3 d6 29 3d 63 80 5c be
       0.3659888 -0.0037812155 0.04146458 -0.2153335
000060 49 15 68 be cf 9c 90 3e 3f 89 88 be 7a c2 60 3e
       -0.2266437 0.28244635 -0.2666721 0.21949187
000070 dd 38 5e 3e c6 0e cd 3e 22 12 04 3e 30 83 ac 3e
       0.21701379 0.40050334 0.12897542 0.33693838
000080 5e 42 d6 3e 47 90 d6 3e b9 8a c9 3e fc 19 9b be
       0.4184751 0.4190695 0.3936365 -0.30293262
000090 02 db 59 3e 60 78 56 3e 09 ae 59 bd 57 cf ef bc
       0.21274951 0.20944357 -0.05314449 -0.029273672
0000a0 00 f3 f5 3e f8 d1 12 bc a1 97 5f 3e aa 31 32 3e
       0.48036957 -0.008961193 0.21835186 0.17401758
0000b0 81 2a 4a 3d 20 21 18 be b9 03 07 3f 35 e2 4c 3c
       0.04935694 -0.14856386 0.52740055 0.012505104
0000c0 11 6e 42 be a6 ee 40 be 26 d5 2d 3e f9 96 44 bd
       -0.189873 -0.18841037 0.16975841 -0.04799554
0000d0 79 b9 0c 3f 3f dc 72 3e 84 f1 a9 be da 9a 8a be
       0.5497051 0.2371683 -0.33192074 -0.27071267
0000e0 f5 04 1d 3e 36 ce 84 bc 96 45 23 bb d6 d4 fb 3d
       0.15333922 -0.01621161 -0.0024913303 0.122964546
0000f0 96 9b 76 3e 0c 9a 8f be a8 2f 94 3a 8b f9 a8 be
       0.24082789 -0.28047216 0.0011305707 -0.33002886
000100 85 9a b6 3d 4c 38 e9 be 75 dc c9 bc c8 d2 9b be
       0.08916191 -0.45550764 -0.024641255 -0.3043425
000110 49 bb 54 3e d4 c9 d6 be c3 45 5b be 96 cd 9b be
       0.20774569 -0.41950858 -0.2141333 -0.30430287
000120 8c 48 3a bd 75 45 c7 3e 2d d7 97 3d 51 fe 95 3d
       -0.045479342 0.3892018 0.074140884 0.07323898
000130 30 7b 87 be 6e e6 8f 3e 6b 98 56 be 34 a4 58 3e
       -0.26461172 0.2810549 -0.2095658 0.21156389
000140 ef 62 79 3c b4 27 b4 3d a8 69 f9 3d 99 4f a4 bd
       0.0152213415 0.08796635 0.121783555 -0.080229945
000150 c7 5f e3 3c e9 a1 e9 3d 2c 51 9d 3d 2a a7 f6 bc
       0.027755631 0.11407835 0.07681498 -0.030109007
000160 32 89 2e 3e f9 58 22 3b c0 e3 90 3e 23 49 ac be
       0.17044523 0.002477227 0.2829876 -0.3364955
000170 b0 f1 a6 be d3 97 fb 3d bf 55 1f 3d 50 24 82 be
       -0.32606268 0.122848175 0.038900133 -0.2541833
000180 b0 9b 35 3e 8c 70 8d 3e ac b9 1d 3e 31 83 2e bd
       0.17735171 0.2762493 0.1540286 -0.042605583
000190 e8 94 0a 3e a3 9f 52 bd ec 44 84 bd 8c b8 85 be
       0.13533366 -0.051421773 -0.06458458 -0.2611736
0001a0 ac 3d 07 be 6c e0 6d 3d 79 86 02 be c2 30 87 bd
       -0.1320712 0.058075354 -0.1274661 -0.06601097
0001b0 52 9f 4f be 30 f0 cc 39 0d 68 69 be bc db b3 3d
       -0.2027562 0.00039088866 -0.22793598 0.087821454
0001c0 e0 b0 3f be 1e 44 4a 3e ee ee 76 3e 2f 0e 41 3d
       -0.18719816 0.19752547 0.24114582 0.047132667
0001d0 dd b8 81 be f6 30 df be 03 29 6b bc e8 24 5a 3e
       -0.25336352 -0.43592042 -0.01435304 0.21303141
0001e0 60 e0 1e 3d b4 c3 85 3d f0 45 43 3d 74 30 5c 3e
       0.0387882 0.06531468 0.04767412 0.21502858
0001f0 68 18 30 3c 53 1b 6e be 6e fb 94 3b 5f cc c1 bd
       0.010748006 -0.23252611 0.0045465743 -0.09462809
000200 1f 25 f9 3d 10 a6 ed bd 10 85 99 3e 9e 7a 0a 3e
       0.121652834 -0.116039395 0.2998433 0.13523337
000210 12 53 cd bd b9 e3 0c be 4a b3 0a be d2 5f 6a 3e
       -0.1002561 -0.13758744 -0.13544956 0.22888115
000220 d7 9f ec bd a0 98 d4 bd 2d d8 16 be 93 2d 2b 3e
       -0.115539245 -0.103806734 -0.14730902 0.16716604
000230 66 35 56 3e 93 a2 96 3d dc f6 59 3e da 39 ba bd
       0.20918807 0.07355227 0.21285576 -0.090930656
000240 8d cb 11 3e 37 dd 62 3e 2b 62 1a 3e bb c4 0f 3d
       0.14237805 0.221547 0.1507651 0.035099726
000250 fb 15 e4 be 27 01 0f 3e 0e 11 93 3d 0e 26 ac 3e
       -0.4454802 0.13965283 0.07180987 0.33622783
000260 0f 74 99 be 62 19 2b ba 24 f0 ce bd d6 5d 3e 3e
       -0.29971358 -0.00065269147 -0.10104397 0.18590483
000270 3a e1 23 bc cc 43 4d 3e 89 57 fd 3d 6f c2 8b be
       -0.010002429 0.20045394 0.12370212 -0.2729678
000280 0d 9d 60 be 95 38 39 3e 4f 67 3c 3e 05 8d 94 3d
       -0.2193491 0.1808799 0.18398784 0.0725346
000290 2d 5e a0 3e ef 79 81 3e cb df aa be 53 42 32 bd
       0.3132185 0.2528834 -0.33373865 -0.043520283
0002a0 3c 25 d0 bd ee 5b 4c be 10 a3 1a 3e 9e f1 fa bc
       -0.10163352 -0.19956943 0.15101266 -0.03063279
0002b0 20 ee 2d be 9a 02 e7 bd e4 10 4c bd 6d 13 f0 3d
       -0.16985369 -0.11279793 -0.049820796 0.11722455
0002c0 4c c1 87 3c b8 6f 85 be 83 05 c8 bd c0 9b 8a 3e
       0.016571663 -0.26061797 -0.09766676 0.27071953
0002d0 9c da ad 3e e3 2c a9 3e 2a 1e cc bc 46 79 b8 3e
       0.33955848 0.33042058 -0.024916727 0.36030024
0002e0 2a b6 03 3d cf a2 07 3e 48 8a 92 bd 82 7e 91 be
       0.032156147 0.132457 -0.07155281 -0.2841683
0002f0 7d 20 ad 3b 4e e1 4a be b8 52 d1 bd bd 27 e0 bc
       0.005283414 -0.1981251 -0.102208555 -0.027362699
000300 b3 73 45 bd b4 45 f8 bd e8 aa a7 be 8e 7a c3 3e
       -0.048206042 -0.1212267 -0.3274758 0.3817944
000310 ff a4 7d be 41 8f 08 3e 32 21 8c bd e2 0a 55 3d
       -0.24769972 0.13335897 -0.06842269 0.05201233
000320 c7 6f 38 3d fa 74 07 be 37 22 b4 3e 2d 86 ac 3d
       0.045028474 -0.13228217 0.35182354 0.084240295
000330 63 8d 21 3e e0 23 5f 3e 90 7b 46 3d 92 c2 10 be
       0.15776591 0.21791029 0.048457682 -0.14136723
000340 20 ce a3 bc b3 59 9f be 8c d1 88 be f2 cb 95 3e
       -0.019995749 -0.31123123 -0.26722372 0.2925716
000350 02 0e 96 bc fa f2 da be 56 6a e8 3c bd 99 38 be
       -0.018317226 -0.427635 0.028371017 -0.18027397
000360 f1 10 9d 3e 68 74 d6 bd 51 77 f7 bd ed d6 96 3d
       0.30676988 -0.104714215 -0.12083305 0.073652126
000370 5e ff 47 3e 11 4b a0 3e 6f 51 b7 3e 96 c9 45 3e
       0.19531009 0.3130727 0.35804316 0.1931518
000380 34 19 22 3d b1 0c 02 3e 67 d3 84 be b2 12 65 bd
       0.039574817 0.12700154 -0.25942537 -0.055926032
000390 b9 ce 1b be 3e 6d b6 3e 28 d9 b1 3e 73 91 60 3e
       -0.15215577 0.3563022 0.3473599 0.21930484
0003a0 8e bf b3 be e4 e1 b1 be 5e 8c 61 3d d6 2a 1c 3e
       -0.35107082 -0.34742653 0.055065505 0.15250716
0003b0 3e c4 f8 3d d8 93 da 3d 0f 91 b8 be 96 e9 5d be
       0.12146805 0.1067273 -0.3604817 -0.21671137
0003c0 14 58 ca 3b ef 4d a2 bd a9 9d e6 bc 75 ec d4 3d
       0.0061750505 -0.07925021 -0.02815135 0.10396663
0003d0 9c 08 5b 3e b6 dd 22 3e f3 e9 3b be aa 6d 22 3e
       0.21390003 0.15904889 -0.18350963 0.15862146
0003e0 02 89 29 be 75 ff 3b be 49 55 8b 3e 5e c7 fb 3d
       -0.1655617 -0.18359168 0.27213505 0.12293886
0003f0 d8 d7 fa 3d e9 4e 4c 3d c2 a8 a6 be 83 5c 4f 3e
       0.122482 0.049879942 -0.32550627 0.20250134

StatefulPartitionedCall/sequential/dense/BiasAdd/ReadVariableOp:0 f4 [17]
000000 52 c0 87 bb 65 66 39 3d 66 55 10 bc a3 f3 6e 3c
       -0.0041427994 0.045263667 -0.008809423 0.014584455
000010 e6 95 d9 3c 91 01 0e bc 3a 71 9e 3d 5a 54 10 3d
       0.026560735 -0.008667366 0.0773644 0.035236694
000020 6b 32 ad bc 98 e5 48 ba 98 1e 8a 3c cf dc 11 bd
       -0.021142205 -0.00076636067 0.016860291 -0.03561097
000030 23 60 a7 bc 33 92 fb 3b 96 db a7 3d fb f4 ef bc
       -0.020431584 0.0076773404 0.081961796 -0.02929162
000040 d8 a7 ff 3c
       0.031207964
