data/DNN/Inlusive_noMetCut_genMETweight500enlarge_amcatnlo_xyComponent_JetLepXY_50EP__diff_xy_2016_postVFP_20230403-1018genMETweighted.onnx (onnx, 580407 bytes, 24 tensors)

dense_3/kernel:0 f4 [256, 2]
0	0xbe238178	-0.15967357
1	0xbcfc8191	-0.0308235
2	0xbd60d142	-0.054887064
3	0x3e21ff2a	0.15819994
4	0xbc48e933	-0.01226263
5	0xbe2d322f	-0.16913675
6	0x3def020b	0.116703115
7	0xbe85567e	-0.2604255
8	0xba4e6085	-0.0007872659
9	0x3e6012cd	0.21882172
10	0xbd4392c2	-0.04774738
11	0xbe3ee5d9	-0.18642367
12	0x3e2c95fd	0.16854091
13	0x3e2e1e24	0.17003685
14	0xbd130642	-0.03589464
15	0xbdee4ae0	-0.11635375
16	0xbe955d0f	-0.2917256
17	0xbe239877	-0.1597613
18	0x3dc529d8	0.09627122
19	0x3e0bfed4	0.13671428
20	0x3e206fd7	0.15667664
21	0xbde50b7b	-0.1118383
22	0xbb437478	-0.002982406
23	0x3e86c49a	0.2632187
24	0xbe6f773a	-0.23385325
25	0xbd91dabd	-0.07121799
26	0x3d1cd4aa	0.03828875
27	0xbe2080f4	-0.15674192
28	0x3e5a60b2	0.21325949
29	0xbe010913	-0.12601118
30	0x3d422b7c	0.04740475
31	0xbe0abd26	-0.13548717
32	0x3e5adfcd	0.21374436
33	0x3e4af752	0.19820908
34	0xbdc9e407	-0.09857946
35	0xbc9e218d	-0.019303108
36	0xbe72649d	-0.23671193
37	0xbcd46a81	-0.025929691
38	0x3db9e846	0.09077506
39	0xbe238b69	-0.1597115
40	0xbd3366cd	-0.04379921
41	0x3e116ed5	0.14202435
42	0xbe95bc21	-0.29245093
43	0xbe21ce5f	-0.1580138
44	0xbde91451	-0.11380828
45	0xbdf2befe	-0.11852835
46	0xbdd6a5fb	-0.10480877
47	0x3d9d7c07	0.07689672
48	0xbe2e8ab9	-0.17045106
49	0xbd824875	-0.06361476
50	0x3da6b290	0.08139527
51	0xbe4762f4	-0.19471341
52	0x3d2c400c	0.042053267
53	0xbd561701	-0.052268032
54	0x3e1a2f0b	0.15057008
55	0x3e660cb6	0.22465786
56	0x3d2f8c07	0.04285815
57	0xbddfa30f	-0.10919773
58	0xbd351e97	-0.044218626
59	0xbe940dda	-0.28916818
60	0xbd0a1057	-0.03370699
61	0x3e3bff9a	0.18359223
62	0x3d8578d5	0.065171875
63	0x3e3c15c9	0.18367685
64	0x3df9642b	0.12177309
65	0xbe545735	-0.20736392
66	0xbe34d83f	-0.17660616
67	0xbd5e2d40	-0.054242373
68	0x3dee1866	0.116257474
69	0xbe54f9f3	-0.20798473
70	0xbe5db665	-0.21651609
71	0x3d6bf238	0.057604045
72	0xbe48996c	-0.19589776
73	0x3e42ba2c	0.19016331
74	0xbbe8a032	-0.007099175
75	0xbda635de	-0.08115743
76	0x3d30487f	0.043037888
77	0xbe45cb74	-0.19315892
78	0x3dd81a73	0.1055192
79	0x3dafddbf	0.085872166
80	0xbded343c	-0.115822285
81	0xbd5c1c73	-0.05373807
82	0x3de5fc0e	0.11229716
83	0xbe28213a	-0.16418925
84	0x3da8cd6f	0.08242308
85	0x3de6f8db	0.11277934
86	0xbe47e149	-0.19519533
87	0xbd8c77c6	-0.068587825
88	0x3e307600	0.17232513
89	0x3e3ab081	0.18231393
90	0x3e2faf7e	0.17156789
91	0xbd1c680c	-0.038185164
92	0x3d4ef985	0.05053093
93	0xbe76382a	-0.24044862
94	0x3e742bbd	0.2384481
95	0xbdaed7f1	-0.08537281
96	0xbd8df369	-0.069311924
97	0x3e6bd208	0.2302934
98	0x3e492462	0.19642785
99	0xbd94919d	-0.07254336
100	0x3e5df118	0.21674001
101	0x39417358	0.00018448883
102	0xbde19139	-0.11014027
103	0x3d9778f7	0.07396119
104	0xbe222a64	-0.15836483
105	0x3ea58990	0.32331514
106	0xbe02095f	-0.12698887
107	0xbdb86384	-0.09003356
108	0x3dc7450f	0.09729969
109	0xbe6d8c71	-0.23198105
110	0x3d3ad89d	0.045616735
111	0x3e3bd99e	0.18344733
112	0x3e3efe13	0.18651609
113	0x3e00aef0	0.12566733
114	0xbe383d1c	-0.17992061
115	0xbc36dbc1	-0.011160792
116	0xbd456b79	-0.048198197
117	0xbe17d1f3	-0.14826183
118	0xbe084fea	-0.13311735
119	0xbe275161	-0.16339637
120	0xbe36b9cd	-0.17844315
121	0x3d8533a8	0.06503993
122	0xbe343238	-0.17597282
123	0xbc0691a4	-0.008213434
124	0xbe2e9dd1	-0.1705239
125	0xba867974	-0.0010259585
126	0x3dab5994	0.08366695
127	0xbdfc10cf	-0.123078935
128	0xbdba5b25	-0.09099416
129	0xbdf9e858	-0.12202519
130	0x3d6adcc3	0.05733944
131	0x3e4cec64	0.20012051
132	0xbda2080f	-0.07911693
133	0xbe771877	-0.24130426
134	0xbc0b8cab	-0.008517425
135	0x3e4963ae	0.19666931
136	0xbd5bf49f	-0.053700086
137	0xbdc9f3ce	-0.09860955
138	0xbe584e3b	-0.21123593
139	0x3cefe90f	0.029285936
140	0x3d2b15f4	0.041768983
141	0xbe1e2572	-0.15443972
142	0x3e425fa4	0.18981797
143	0x3d1ffbae	0.03905838
144	0xbd60bff1	-0.05487055
145	0xbc845138	-0.01615201
146	0x3d81713c	0.06320426
147	0x3e987618	0.29777598
148	0x3e4e2fc8	0.20135415
149	0xbe39f9ae	-0.18161651
150	0x3d6b6918	0.057473272
151	0x3e1d52ce	0.15363619
152	0x3e44313c	0.19159406
153	0xbc34ca53	-0.011034566
154	0xbe3ba69c	-0.18325275
155	0xbd87c838	-0.066299856
156	0xbe0110fa	-0.12604132
157	0x3e4280ae	0.189944
158	0xbdc6d92a	-0.097093895
159	0xbd04c227	-0.03241172
160	0x3d1d7242	0.038439043
161	0x3e378e3a	0.17925349
162	0x3ea64b26	0.3247921
163	0x3d29941a	0.041401006
164	0x3dcadf5f	0.09905886
165	0xbe5acfdb	-0.21368353
166	0x3a5e768c	0.0008486293
167	0xbe598f34	-0.21246034
168	0x3db216b2	0.08695735
169	0x3e21be6e	0.157953
170	0x3d7707db	0.060310226
171	0xbe5da367	-0.21644364
172	0x3e2d894f	0.1694691
173	0xbc6715c8	-0.014104314
174	0x3dd1ce4a	0.10244425
175	0xbe77a7f1	-0.24185158
176	0xbc556aef	-0.013025983
177	0xbe0f47d0	-0.13992238
178	0xbc560e84	-0.013064984
179	0x3d284f46	0.041091226
180	0x3e4039aa	0.18771997
181	0xbbe9543c	-0.007120637
182	0xbe1a1b96	-0.15049586
183	0xbb87f034	-0.0041485075
184	0xbdcdef4a	-0.100554064
185	0xbcab1bcf	-0.020887284
186	0x3e83a9e5	0.25715557
187	0xbe278ccf	-0.16362308
188	0x3e28f503	0.16499715
189	0xbe5a150b	-0.2129709
190	0x3e25ddf1	0.16197945
191	0x3daf583b	0.085617505
192	0xbe17bd6f	-0.14818357
193	0xbd390fd9	-0.04518113
194	0xbe20715f	-0.15668248
195	0xbdcb1457	-0.09915989
196	0x3e0762ec	0.1322133
197	0x3e7acb25	0.24491556
198	0xbe625f31	-0.22106625
199	0xbd76c444	-0.060245767
200	0xbd54bd9b	-0.051938634
201	0xbb9d14cb	-0.0047937385
202	0x3e33104f	0.1748669
203	0x3e88b8a2	0.26703364
204	0x3cfd9941	0.030956866
205	0x3dbd8f4f	0.092558496
206	0xbde4f702	-0.111799255
207	0x3e09f3f3	0.13471965
208	0xbd289613	-0.041158747
209	0xbdcb99ae	-0.099414214
210	0xbe33fa6f	-0.17576002
211	0xbdf73820	-0.12071252
212	0x3e160359	0.14649715
213	0xbe3bf65a	-0.18355694
214	0xbe175ea2	-0.14782193
215	0x3de2ce6f	0.1107453
216	0xbe8c49e9	-0.2740014
217	0x3dc3208a	0.09527691
218	0x3cc1881b	0.02362447
219	0x3e2dcf69	0.16973652
220	0x3e520618	0.20510137
221	0xbda9f587	-0.08298784
222	0x3dff22e8	0.1245783
223	0x3eb715b4	0.35758746
224	0x3cdf8b49	0.027288096
225	0x3e508a6a	0.20365301
226	0x3e830199	0.25587156
227	0xbc70e679	-0.014703386
228	0xbdb48eca	-0.08816297
229	0x3df9cfb5	0.1219782
230	0xbcb0204d	-0.021499777
231	0xbe2e57cf	-0.17025684
232	0x3e0ac453	0.13551454
233	0xbc2087c1	-0.009797991
234	0x3e444900	0.19168472
235	0x3e43d117	0.1912273
236	0xbe60c29d	-0.21949239
237	0xbd00702c	-0.031356975
238	0x3dc27631	0.094951995
239	0xbe54a3b0	-0.20765567
240	0xbe3c7083	-0.18402295
241	0x3a663e34	0.00087830727
242	0xbd87d964	-0.06633261
243	0x3e16e98d	0.1473753
244	0x3bb2522b	0.005441924
245	0xbdd94699	-0.106091686
246	0x3aa05545	0.0012232444
247	0xbdd042e1	-0.10169006
248	0xbdfb7347	-0.12277847
249	0x3c906434	0.017625906
250	0x3e27b2b0	0.16376758
251	0x3d171b05	0.036891002
252	0x3cb2ab2a	0.021810133
253	0xbe293cc2	-0.16527084
254	0xbdea5968	-0.11442834
255	0x3e2f5567	0.17122422

dense_3/bias:0 f4 [2]
0	0xbd8552bc	-0.06509921
1	0x3dc2f951	0.095202096

scale f4 [256]
0	0x3ed477ea	0.41497737
1	0x3eef541a	0.46743852
2	0x3e9b40a5	0.30322757
3	0x3eebce22	0.46055704
4	0x3e982d37	0.29721996
5	0x3ebf0c4f	0.37314078
6	0x3ecd333b	0.40078148
7	0x3ebd671b	0.36992726
8	0x3eaea5c9	0.3411086
9	0x3ed07bfe	0.407196
10	0x3efb2b3e	0.4905643
11	0x3ede515d	0.4342145
12	0x3ed0e2e8	0.40798116
13	0x3ed9e148	0.42554688
14	0x3eb814f5	0.3595349
15	0x3eae3fe6	0.34033126
16	0x3f1a5067	0.60278934
17	0x3ee4c12a	0.44678622
18	0x3ece4490	0.40286684
19	0x3ef9e96d	0.48810902
20	0x3ebb4267	0.36574098
21	0x3ebf0c44	0.37314045
22	0x3ee84c7a	0.45370847
23	0x3ec95198	0.39320064
24	0x3ec3e733	0.38262329
25	0x3ee231b6	0.4417855
26	0x3ee9d568	0.4567063
27	0x3ece8282	0.40333945
28	0x3f0dab96	0.55339944
29	0x3ebd5962	0.36982256
30	0x3ed63587	0.41837713
31	0x3e939c00	0.28829956
32	0x3ee0ef71	0.4393268
33	0x3ee0e0ba	0.43921453
34	0x3ea96cc8	0.33090806
35	0x3ead5d08	0.3386004
36	0x3ee5f2f4	0.4491192
37	0x3ed48e62	0.4151488
38	0x3ea6e088	0.3259318
39	0x3eeaa618	0.45829844
40	0x3ebc8613	0.3682104
41	0x3eef0d6d	0.4668993
42	0x3ed887eb	0.42291197
43	0x3eb86b4d	0.36019364
44	0x3f062bca	0.52410567
45	0x3ed9604d	0.42456284
46	0x3eeb13e1	0.45913604
47	0x3eb3ac46	0.35092372
48	0x3ec89f0b	0.3918384
49	0x3ece48c7	0.402899
50	0x3ecf54d4	0.40494406
51	0x3edb182b	0.42791876
52	0x3ec501cd	0.38477936
53	0x3eec5ed2	0.46166092
54	0x3ef18430	0.47171164
55	0x3ea95a63	0.33076772
56	0x3ea2c4b2	0.31790692
57	0x3eb2ab1e	0.34896177
58	0x3ebae86f	0.36505458
59	0x3ed2dc9e	0.41183943
60	0x3edd431f	0.43215272
61	0x3ea4a68e	0.3215832
62	0x3ed6b5c4	0.4193555
63	0x3ed00b2d	0.40633526
64	0x3eae42f3	0.34035453
65	0x3ea92304	0.33034527
66	0x3ecfd47e	0.40591806
67	0x3ed97ef3	0.42479667
68	0x3eb8c366	0.36086577
69	0x3edc4582	0.4302178
70	0x3ec474d2	0.38370377
71	0x3ec9f4bf	0.3944454
72	0x3ee6f740	0.45110512
73	0x3e905bb3	0.2819496
74	0x3ef87c78	0.48532462
75	0x3eacba24	0.33735764
76	0x3ef9d8e3	0.48798284
77	0x3ec0185c	0.37518585
78	0x3ed3c43f	0.4136066
79	0x3eb81579	0.35953882
80	0x3edffec3	0.43749055
81	0x3ef97e28	0.48729062
82	0x3eb82276	0.35963792
83	0x3eb44d7f	0.35215375
84	0x3ea920da	0.33032876
85	0x3eb7dfd9	0.3591297
86	0x3ebba32c	0.36647928
87	0x3ead28bd	0.33820143
88	0x3ea95808	0.33074975
89	0x3f05558e	0.5208367
90	0x3f143349	0.57890755
91	0x3eb85d0f	0.36008498
92	0x3ec53b54	0.38521826
93	0x3ed98dda	0.42491037
94	0x3ee3f1be	0.44520372
95	0x3ec89602	0.39176947
96	0x3e9c54b1	0.30533364
97	0x3ecbf9a6	0.39838904
98	0x3ed06d0d	0.407082
99	0x3ece703a	0.40319997
100	0x3f11029a	0.56644595
101	0x3ef4b181	0.47791675
102	0x3eede2f0	0.46462202
103	0x3ee48202	0.44630438
104	0x3ed64b2d	0.4185423
105	0x3ead4321	0.33840278
106	0x3ef123bb	0.47097573
107	0x3ec42209	0.38307217
108	0x3ea716c6	0.32634562
109	0x3ec3af55	0.38219705
110	0x3ee31cae	0.44357818
111	0x3ec306c8	0.3809111
112	0x3ed2fea6	0.41209906
113	0x3ecc8117	0.39942238
114	0x3f05b9de	0.52236736
115	0x3ee36d2f	0.44419238
116	0x3ebb20cc	0.3654846
117	0x3ec8d319	0.39223555
118	0x3ecc0d30	0.3985381
119	0x3edc8221	0.4306803
120	0x3ea59138	0.32337356
121	0x3ec8af71	0.3919635
122	0x3ee46d54	0.4461466
123	0x3ecec2eb	0.40383086
124	0x3eef264f	0.46708915
125	0x3ed13a04	0.40864575
126	0x3ebdba58	0.37056231
127	0x3ec45430	0.3834548
128	0x3ee62281	0.449482
129	0x3eb76c8f	0.3582501
130	0x3edc1f29	0.42992523
131	0x3ea35382	0.3189965
132	0x3ed5b9eb	0.41743407
133	0x3eb51652	0.35368592
134	0x3ea28b27	0.3174679
135	0x3ecd335b	0.40078244
136	0x3ecb2e78	0.3968389
137	0x3ecdfbd5	0.40231195
138	0x3eb66e2b	0.35630926
139	0x3eea5a1e	0.4577188
140	0x3ec99c6f	0.39377162
141	0x3ebb8017	0.36621162
142	0x3edad700	0.42742157
143	0x3ea7bc40	0.3276081
144	0x3ef758ef	0.48310038
145	0x3edab8c0	0.42719078
146	0x3eb5c83a	0.35504323
147	0x3efb7bdd	0.49117938
148	0x3eeee997	0.4666259
149	0x3ed76328	0.42067838
150	0x3ebc6807	0.36798117
151	0x3eb60b23	0.35555372
152	0x3ead6c92	0.33871895
153	0x3eb4d044	0.35315144
154	0x3ee5fe55	0.44920602
155	0x3ea7e94a	0.32795173
156	0x3efc3de9	0.49265984
157	0x3efdcf90	0.4957242
158	0x3ebd7bf5	0.37008634
159	0x3efa0fb8	0.48840117
160	0x3ea05a0f	0.3131871
161	0x3ebad2b2	0.36488873
162	0x3ea89ec5	0.32933632
163	0x3eda2615	0.4260718
164	0x3eabfd83	0.33591852
165	0x3eeb1cc9	0.459204
166	0x3edec731	0.43511346
167	0x3e9d0a55	0.30671945
168	0x3eca7778	0.39544272
169	0x3ec26102	0.37964636
170	0x3eba124d	0.36342087
171	0x3ee45307	0.44594595
172	0x3eb99b9e	0.3625154
173	0x3eaed503	0.3414689
174	0x3ea63014	0.32458556
175	0x3ee2427a	0.44191343
176	0x3f0eb884	0.557503
177	0x3ed673ed	0.4188532
178	0x3ec18032	0.37793118
179	0x3ec4d569	0.3844407
180	0x3e96ec0e	0.2947697
181	0x3ef9cc5a	0.4878872
182	0x3ef1c18e	0.47217983
183	0x3ea9a60b	0.33134493
184	0x3f060978	0.523582
185	0x3eb54b89	0.3540919
186	0x3ec0c644	0.37651265
187	0x3ecf6d04	0.4051286
188	0x3eb31839	0.34979418
189	0x3ece4742	0.4028874
190	0x3f0cc9fb	0.549957
191	0x3eeaeebf	0.45885274
192	0x3ecd6b86	0.40121096
193	0x3eaabb4c	0.3334602
194	0x3ec4bcb9	0.38425234
195	0x3eb6130e	0.35561413
196	0x3f0bc7f3	0.54601973
197	0x3eb5f020	0.35534763
198	0x3ee7cc3a	0.45273
199	0x3ef5c204	0.47999585
200	0x3ec391df	0.38197228
201	0x3ed432c0	0.4144497
202	0x3ec38d3f	0.381937
203	0x3ead00ac	0.33789575
204	0x3eb18ea6	0.34679145
205	0x3eedbbb9	0.46432284
206	0x3eef1f74	0.46703684
207	0x3eb49758	0.35271716
208	0x3eb75870	0.3580966
209	0x3eea5f13	0.4577566
210	0x3eff78ec	0.49896944
211	0x3ec6e9ec	0.38850343
212	0x3edb343b	0.42813286
213	0x3ecb4780	0.39702988
214	0x3edeebb2	0.43539196
215	0x3f1b8737	0.60753196
216	0x3ed5f031	0.41784814
217	0x3f16025c	0.5859735
218	0x3ec04383	0.37551507
219	0x3ebc5c17	0.3678901
220	0x3ecb7b83	0.3974267
221	0x3f09faaa	0.5389811
222	0x3ecdbf07	0.40184805
223	0x3f093e03	0.5361025
224	0x3eaf943a	0.34292775
225	0x3eb66b9a	0.35628968
226	0x3edfb9bb	0.4369639
227	0x3ebf9bdf	0.37423608
228	0x3eb4fcdc	0.35349166
229	0x3ecb2b94	0.39681685
230	0x3ef7f716	0.484307
231	0x3f106aff	0.56413263
232	0x3ea661dc	0.32496536
233	0x3ed9adc6	0.4251539
234	0x3f037f24	0.51365876
235	0x3ec354c2	0.38150603
236	0x3edb0169	0.42774513
237	0x3ecdf301	0.4022446
238	0x3edaac8a	0.42709762
239	0x3ebf3050	0.37341547
240	0x3eabe4bb	0.33572945
241	0x3eb97c40	0.36227608
242	0x3ec98b7e	0.39364237
243	0x3e8f4dae	0.27988952
244	0x3ef3816d	0.47559682
245	0x3f0d94e8	0.5530534
246	0x3ee8c0aa	0.4545949
247	0x3eaf5bf5	0.34249845
248	0x3edbc90b	0.4292682
249	0x3ed22f83	0.41051874
250	0x3f0f1bd4	0.5590184
251	0x3eeb30d0	0.45935678
252	0x3ece8282	0.40333945
253	0x3ec33909	0.38129452
254	0x3eb56af4	0.3543316
255	0x3ed48649	0.415087

bias f4 [256]
0	0xbeb1a5ce	-0.3469681
1	0xbf156e4a	-0.5837141
2	0xbea73591	-0.32658055
3	0x3d7515de	0.059835307
4	0xbbdc5ae0	-0.0067247003
5	0xbdb961d7	-0.090518646
6	0x3ec74606	0.3892061
7	0xbf10af18	-0.5651717
8	0x3e09adec	0.13445252
9	0x3e47cb82	0.19511226
10	0x3e12b323	0.14326148
11	0x3e89578c	0.26824605
12	0x3f172914	0.59047055
13	0xbd88a113	-0.066713475
14	0xbf066e35	-0.5251191
15	0xbf0834f3	-0.53205794
16	0x3edad696	0.4274184
17	0xbeee019c	-0.46485603
18	0x3ebf42a1	0.3735552
19	0xbf17d4a8	-0.5930886
20	0x3e2a870d	0.1665308
21	0xbe32a3ee	-0.17445347
22	0xbf21f491	-0.63263804
23	0xbe9af42e	-0.3026442
24	0xbe6dede4	-0.2323528
25	0xbe936dc6	-0.28794688
26	0xbeab100f	-0.3341069
27	0x3e7e4cc1	0.24833967
28	0xbe568b47	-0.20951568
29	0xbe7a0e76	-0.24419579
30	0x3ddc2bf5	0.10750572
31	0xbe2c8564	-0.1684776
32	0xbe9434d2	-0.2894655
33	0xbebc9fec	-0.3684076
34	0xbe5e6698	-0.21718824
35	0xbee3ef48	-0.44518495
36	0xbe18518d	-0.14874859
37	0xbe204ff8	-0.15655506
38	0xbf030719	-0.51182705
39	0x3e92a558	0.28641772
40	0xbef1b4af	-0.47208163
41	0x3d1638b4	0.03667517
42	0xbd1f294d	-0.038857747
43	0x3d2c4acc	0.04206352
44	0x3ef6f392	0.48232704
45	0xbea8e830	-0.32989645
46	0xbeccaa94	-0.3997389
47	0xbd6dd36f	-0.058062967
48	0xbe87406a	-0.26416332
49	0xbe60fbb0	-0.21971011
50	0xbb7bdfe0	-0.0038433
51	0xbe97e7bf	-0.29668996
52	0x3e2a9dd8	0.16661775
53	0x3dcfe0dc	0.101503104
54	0xbe2227cd	-0.15835495
55	0x3e4b1d22	0.19835332
56	0x3d29d6d3	0.041464638
57	0xbed25c93	-0.41086254
58	0xbed41ab6	-0.4142663
59	0xbec6deee	-0.38841957
60	0xbec738e5	-0.38910595
61	0xbf16a0cd	-0.5883911
62	0xbd21d284	-0.039507404
63	0xbe8b41fe	-0.27198786
64	0xbe0172ad	-0.12641402
65	0xbc9e1658	-0.019297764
66	0xbce76dfe	-0.02825069
67	0xbeee0b40	-0.46492958
68	0xbf19b1d1	-0.6003695
69	0xbf1e0d4c	-0.6173904
70	0xbe6122ca	-0.21985927
71	0xbeb78161	-0.35840896
72	0xbf04658c	-0.5171745
73	0xbca64a98	-0.020299241
74	0xbeec9df7	-0.46214268
75	0x3e085901	0.13315202
76	0xbf590d3a	-0.8478581
77	0xbf0ec007	-0.5576176
78	0xbe07a1f0	-0.13245368
79	0xbe81c889	-0.2534831
80	0x3d4332f0	0.047656
81	0xbde1c3bc	-0.110236615
82	0xbe10371d	-0.14083524
83	0x3d025cdf	0.03182685
84	0x3d3b6dba	0.04575894
85	0xbe11db55	-0.14243825
86	0xbe4bee59	-0.19915141
87	0xbe4c5cae	-0.1995723
88	0xbe5cf79f	-0.21578835
89	0xbe2d47e0	-0.1692195
90	0xbd44c5e5	-0.04804029
91	0xbea5e836	-0.32403725
92	0x3c16b738	0.009198956
93	0xbf21bdee	-0.63180435
94	0xbea1ecc2	-0.31625944
95	0xbec20b16	-0.37899083
96	0xbde57c0c	-0.11205301
97	0xbeb0a00b	-0.34497103
98	0x3f15d035	0.58520824
99	0x3df52802	0.119705215
100	0x3d4cdd8c	0.05001597
101	0x3f0dbd24	0.5536673
102	0x3d9785a5	0.073985375
103	0xbe834cd6	-0.2564456
104	0xbe93a725	-0.2883846
105	0x3edac60c	0.42729223
106	0xbef3018e	-0.47462124
107	0xbe9197bd	-0.2843608
108	0xbf08bfd3	-0.534177
109	0x3dc816a5	0.09769944
110	0xbd73c7c7	-0.059516694
111	0x3ef255f0	0.4733119
112	0x3f0960a4	0.53663087
113	0xbeeef48f	-0.46670958
114	0x3d4f098c	0.050546214
115	0xbe1608d9	-0.14651813
116	0xbe1a4a95	-0.15067513
117	0x3ed4a2dc	0.41530502
118	0xbe3be836	-0.183503
119	0xbe463cfc	-0.19359201
120	0xbf1a0bdf	-0.60174364
121	0xbf0ae36c	-0.5425327
122	0xbea31a32	-0.31855923
123	0xbea3f935	-0.32026067
124	0xbef03f6b	-0.46923384
125	0x3eac0a28	0.336015
126	0xbf48cdae	-0.7843884
127	0xbe156e68	-0.14592898
128	0xbf075c9a	-0.52875674
129	0x3c992cee	0.018698182
130	0xbea13684	-0.31486905
131	0x3e0867a6	0.13320789
132	0x3dab841d	0.08374808
133	0xbd4103dc	-0.04712282
134	0xbf0487b8	-0.5176959
135	0xbeccb6a1	-0.39983085
136	0x3cd2c42c	0.025728308
137	0xbeddfb72	-0.433559
138	0xbeae7a1b	-0.34077534
139	0xbed4a066	-0.41528624
140	0xbee51243	-0.44740495
141	0xbeff0142	-0.49805647
142	0x3e0ac5bc	0.13551992
143	0xbe6e68dc	-0.23282188
144	0x3e0fc89b	0.14041369
145	0x3d543bc1	0.0518148
146	0xbec575d3	-0.38566455
147	0x3c9da518	0.019243762
148	0x3d57fa39	0.052728865
149	0x3c41bfb0	0.011825487
150	0xbebfd555	-0.37467447
151	0xbeddec63	-0.4334441
152	0xbe956854	-0.2918116
153	0xbe811f7e	-0.2521934
154	0xbf13e8ad	-0.5777691
155	0xbe0ec0af	-0.1394069
156	0xbea6ac04	-0.32553113
157	0xbe9884e3	-0.29788885
158	0xbef4c88f	-0.47809264
159	0x3efe1c83	0.49631128
160	0xbeb74a93	-0.35799083
161	0xbee15be5	-0.44015422
162	0xbeb25333	-0.348291
163	0xbf02e111	-0.51124674
164	0xbeee0b48	-0.46492982
165	0xbda62106	-0.081117675
166	0xbea0cd07	-0.31406423
167	0x3e17439d	0.14771886
168	0xbe81b722	-0.25335032
169	0xbee1854c	-0.4404701
170	0xbf112ae4	-0.5670607
171	0xbce38373	-0.02777264
172	0xbedd674f	-0.4324288
173	0xbd8cbf88	-0.06872469
174	0xbef303a4	-0.47463715
175	0x3d053ddc	0.032529697
176	0xbeab0bc2	-0.33407408
177	0xbe5a63cd	-0.21327133
178	0xbf09d27e	-0.5383681
179	0x3d2d6ad8	0.042338222
180	0xbd1031a1	-0.03520358
181	0xbea1643c	-0.31521785
182	0x3db25d8b	0.08709248
183	0x3e60367a	0.21895781
184	0xbe8ebf1b	-0.27880177
185	0xbe8363e9	-0.25662163
186	0xbdbceef1	-0.09225262
187	0xbf71fc41	-0.94525534
188	0xbdde481e	-0.10853599
189	0x3d1dbb06	0.038508438
190	0x3cce27f7	0.025165541
191	0xbef97361	-0.4872084
192	0xbec2bd08	-0.38034844
193	0xbef28e43	-0.47374162
194	0x3dd84164	0.10559347
195	0xbd77a348	-0.06045845
196	0xbd655dea	-0.055997767
197	0x3db51c4e	0.08843289
198	0xbe36bd17	-0.1784557
199	0xbe99167e	-0.29899973
200	0x3cd84ee0	0.026404798
201	0xbef83057	-0.4847438
202	0x3d4258f5	0.047448117
203	0x3d998c69	0.07497484
204	0x3d9a70d0	0.075410485
205	0x3e07eff3	0.13275127
206	0x3d30d3f4	0.043170884
207	0xbf12ce09	-0.57345635
208	0xbd3a42c8	-0.045473844
209	0xbebec760	-0.37261486
210	0xbe229c35	-0.15879901
211	0x3f1a173f	0.6019172
212	0xbe79d4ae	-0.24397537
213	0xbd74ce00	-0.05976677
214	0xbf148e18	-0.5802932
215	0xbea81d28	-0.32834744
216	0xbee97a80	-0.45601273
217	0x3e269b91	0.16270281
218	0xbe42607a	-0.18982115
219	0xbf07ba25	-0.5301841
220	0xbd5bc614	-0.0536557
221	0xbda7f920	-0.08201814
222	0xbe04ebf4	-0.12980634
223	0xbefba25e	-0.49147314
224	0xbe175c8b	-0.14781396
225	0xbd8ad1a8	-0.0677827
226	0xbe8cc1fa	-0.27491742
227	0x3dcd1e69	0.10015566
228	0xbf0e74c5	-0.55646926
229	0xbf273a88	-0.65323687
230	0x3f2ddddc	0.67916656
231	0xbf075f56	-0.52879846
232	0xbe359752	-0.17733505
233	0x3d229db0	0.039701164
234	0x3c2d693c	0.010584172
235	0xbedc267e	-0.42998117
236	0x3eb553d7	0.35415527
237	0xbe72e694	-0.23720771
238	0xbeba128f	-0.36342284
239	0xbf0761f4	-0.5288384
240	0xbf1313dc	-0.5745218
241	0xbf0b733e	-0.5447272
242	0xbef6263f	-0.48076054
243	0x3e23bd14	0.15990096
244	0xbe89536d	-0.2682146
245	0xbe61a046	-0.22033796
246	0xbec643f1	-0.3872371
247	0xbcb43f98	-0.02200298
248	0xbd855b82	-0.06511594
249	0xbe39ba1e	-0.18137404
250	0xbe8d62c5	-0.27614418
251	0xbf0ec8d5	-0.55775195
252	0xbf066d8f	-0.52510923
253	0xbec25207	-0.37953207
254	0x3d632f6c	0.055465147
255	0x3e91bb83	0.28463373

mean f4 [256]
0	0x00000000	0.0
1	0x00000000	0.0
2	0x00000000	0.0
3	0x80000000	-0.0
4	0x00000000	0.0
5	0x00000000	0.0
6	0x80000000	-0.0
7	0x00000000	0.0
8	0x00000000	0.0
9	0x80000000	-0.0
10	0x80000000	-0.0
11	0x80000000	-0.0
12	0x80000000	-0.0
13	0x80000000	-0.0
14	0x00000000	0.0
15	0x00000000	0.0
16	0x80000000	-0.0
17	0x00000000	0.0
18	0x80000000	-0.0
19	0x00000000	0.0
20	0x80000000	-0.0
21	0x00000000	0.0
22	0x00000000	0.0
23	0x00000000	0.0
24	0x00000000	0.0
25	0x00000000	0.0
26	0x00000000	0.0
27	0x00000000	0.0
28	0x00000000	0.0
29	0x00000000	0.0
30	0x80000000	-0.0
31	0x00000000	0.0
32	0x00000000	0.0
33	0x00000000	0.0
34	0x00000000	0.0
35	0x00000000	0.0
36	0x00000000	0.0
37	0x00000000	0.0
38	0x00000000	0.0
39	0x80000000	-0.0
40	0x00000000	0.0
41	0x80000000	-0.0
42	0x00000000	0.0
43	0x00000000	0.0
44	0x80000000	-0.0
45	0x00000000	0.0
46	0x00000000	0.0
47	0x00000000	0.0
48	0x00000000	0.0
49	0x00000000	0.0
50	0x00000000	0.0
51	0x00000000	0.0
52	0x80000000	-0.0
53	0x80000000	-0.0
54	0x80000000	-0.0
55	0x80000000	-0.0
56	0x00000000	0.0
57	0x00000000	0.0
58	0x00000000	0.0
59	0x00000000	0.0
60	0x00000000	0.0
61	0x00000000	0.0
62	0x00000000	0.0
63	0x00000000	0.0
64	0x00000000	0.0
65	0x00000000	0.0
66	0x00000000	0.0
67	0x00000000	0.0
68	0x00000000	0.0
69	0x00000000	0.0
70	0x00000000	0.0
71	0x00000000	0.0
72	0x00000000	0.0
73	0x00000000	0.0
74	0x00000000	0.0
75	0x80000000	-0.0
76	0x00000000	0.0
77	0x00000000	0.0
78	0x00000000	0.0
79	0x00000000	0.0
80	0x80000000	-0.0
81	0x00000000	0.0
82	0x00000000	0.0
83	0x80000000	-0.0
84	0x80000000	-0.0
85	0x80000000	-0.0
86	0x00000000	0.0
87	0x00000000	0.0
88	0x00000000	0.0
89	0x00000000	0.0
90	0x00000000	0.0
91	0x00000000	0.0
92	0x00000000	0.0
93	0x00000000	0.0
94	0x00000000	0.0
95	0x00000000	0.0
96	0x00000000	0.0
97	0x00000000	0.0
98	0x80000000	-0.0
99	0x00000000	0.0
100	0x80000000	-0.0
101	0x80000000	-0.0
102	0x80000000	-0.0
103	0x00000000	0.0
104	0x00000000	0.0
105	0x80000000	-0.0
106	0x00000000	0.0
107	0x00000000	0.0
108	0x00000000	0.0
109	0x80000000	-0.0
110	0x00000000	0.0
111	0x80000000	-0.0
112	0x80000000	-0.0
113	0x00000000	0.0
114	0x00000000	0.0
115	0x80000000	-0.0
116	0x00000000	0.0
117	0x80000000	-0.0
118	0x00000000	0.0
119	0x00000000	0.0
120	0x00000000	0.0
121	0x00000000	0.0
122	0x00000000	0.0
123	0x00000000	0.0
124	0x00000000	0.0
125	0x80000000	-0.0
126	0x00000000	0.0
127	0x00000000	0.0
128	0x00000000	0.0
129	0x80000000	-0.0
130	0x00000000	0.0
131	0x80000000	-0.0
132	0x00000000	0.0
133	0x00000000	0.0
134	0x00000000	0.0
135	0x00000000	0.0
136	0x80000000	-0.0
137	0x00000000	0.0
138	0x00000000	0.0
139	0x00000000	0.0
140	0x00000000	0.0
141	0x00000000	0.0
142	0x80000000	-0.0
143	0x00000000	0.0
144	0x80000000	-0.0
145	0x80000000	-0.0
146	0x00000000	0.0
147	0x80000000	-0.0
148	0x80000000	-0.0
149	0x80000000	-0.0
150	0x00000000	0.0
151	0x00000000	0.0
152	0x00000000	0.0
153	0x00000000	0.0
154	0x00000000	0.0
155	0x00000000	0.0
156	0x00000000	0.0
157	0x00000000	0.0
158	0x00000000	0.0
159	0x80000000	-0.0
160	0x00000000	0.0
161	0x00000000	0.0
162	0x00000000	0.0
163	0x00000000	0.0
164	0x00000000	0.0
165	0x00000000	0.0
166	0x00000000	0.0
167	0x80000000	-0.0
168	0x00000000	0.0
169	0x00000000	0.0
170	0x00000000	0.0
171	0x00000000	0.0
172	0x00000000	0.0
173	0x80000000	-0.0
174	0x00000000	0.0
175	0x80000000	-0.0
176	0x00000000	0.0
177	0x00000000	0.0
178	0x00000000	0.0
179	0x80000000	-0.0
180	0x00000000	0.0
181	0x00000000	0.0
182	0x80000000	-0.0
183	0x80000000	-0.0
184	0x00000000	0.0
185	0x00000000	0.0
186	0x80000000	-0.0
187	0x00000000	0.0
188	0x00000000	0.0
189	0x00000000	0.0
190	0x80000000	-0.0
191	0x00000000	0.0
192	0x00000000	0.0
193	0x00000000	0.0
194	0x00000000	0.0
195	0x00000000	0.0
196	0x00000000	0.0
197	0x00000000	0.0
198	0x00000000	0.0
199	0x00000000	0.0
200	0x00000000	0.0
201	0x00000000	0.0
202	0x80000000	-0.0
203	0x80000000	-0.0
204	0x00000000	0.0
205	0x80000000	-0.0
206	0x80000000	-0.0
207	0x00000000	0.0
208	0x80000000	-0.0
209	0x00000000	0.0
210	0x00000000	0.0
211	0x80000000	-0.0
212	0x00000000	0.0
213	0x00000000	0.0
214	0x00000000	0.0
215	0x00000000	0.0
216	0x00000000	0.0
217	0x80000000	-0.0
218	0x00000000	0.0
219	0x00000000	0.0
220	0x00000000	0.0
221	0x00000000	0.0
222	0x00000000	0.0
223	0x00000000	0.0
224	0x00000000	0.0
225	0x80000000	-0.0
226	0x00000000	0.0
227	0x80000000	-0.0
228	0x00000000	0.0
229	0x00000000	0.0
230	0x80000000	-0.0
231	0x00000000	0.0
232	0x00000000	0.0
233	0x80000000	-0.0
234	0x80000000	-0.0
235	0x00000000	0.0
236	0x80000000	-0.0
237	0x00000000	0.0
238	0x00000000	0.0
239	0x00000000	0.0
240	0x00000000	0.0
241	0x00000000	0.0
242	0x00000000	0.0
243	0x80000000	-0.0
244	0x00000000	0.0
245	0x00000000	0.0
246	0x00000000	0.0
247	0x00000000	0.0
248	0x80000000	-0.0
249	0x00000000	0.0
250	0x00000000	0.0
251	0x00000000	0.0
252	0x00000000	0.0
253	0x00000000	0.0
254	0x80000000	-0.0
255	0x80000000	-0.0

var f4 [256]
0	0x3f800000	1.0
1	0x3f800000	1.0
2	0x3f800000	1.0
3	0x3f800000	1.0
4	0x3f800000	1.0
5	0x3f800000	1.0
6	0x3f800000	1.0
7	0x3f800000	1.0
8	0x3f800000	1.0
9	0x3f800000	1.0
10	0x3f800000	1.0
11	0x3f800000	1.0
12	0x3f800000	1.0
13	0x3f800000	1.0
14	0x3f800000	1.0
15	0x3f800000	1.0
16	0x3f800000	1.0
17	0x3f800000	1.0
18	0x3f800000	1.0
19	0x3f800000	1.0
20	0x3f800000	1.0
21	0x3f800000	1.0
22	0x3f800000	1.0
23	0x3f800000	1.0
24	0x3f800000	1.0
25	0x3f800000	1.0
26	0x3f800000	1.0
27	0x3f800000	1.0
28	0x3f800000	1.0
29	0x3f800000	1.0
30	0x3f800000	1.0
31	0x3f800000	1.0
32	0x3f800000	1.0
33	0x3f800000	1.0
34	0x3f800000	1.0
35	0x3f800000	1.0
36	0x3f800000	1.0
37	0x3f800000	1.0
38	0x3f800000	1.0
39	0x3f800000	1.0
40	0x3f800000	1.0
41	0x3f800000	1.0
42	0x3f800000	1.0
43	0x3f800000	1.0
44	0x3f800000	1.0
45	0x3f800000	1.0
46	0x3f800000	1.0
47	0x3f800000	1.0
48	0x3f800000	1.0
49	0x3f800000	1.0
50	0x3f800000	1.0
51	0x3f800000	1.0
52	0x3f800000	1.0
53	0x3f800000	1.0
54	0x3f800000	1.0
55	0x3f800000	1.0
56	0x3f800000	1.0
57	0x3f800000	1.0
58	0x3f800000	1.0
59	0x3f800000	1.0
60	0x3f800000	1.0
61	0x3f800000	1.0
62	0x3f800000	1.0
63	0x3f800000	1.0
64	0x3f800000	1.0
65	0x3f800000	1.0
66	0x3f800000	1.0
67	0x3f800000	1.0
68	0x3f800000	1.0
69	0x3f800000	1.0
70	0x3f800000	1.0
71	0x3f800000	1.0
72	0x3f800000	1.0
73	0x3f800000	1.0
74	0x3f800000	1.0
75	0x3f800000	1.0
76	0x3f800000	1.0
77	0x3f800000	1.0
78	0x3f800000	1.0
79	0x3f800000	1.0
80	0x3f800000	1.0
81	0x3f800000	1.0
82	0x3f800000	1.0
83	0x3f800000	1.0
84	0x3f800000	1.0
85	0x3f800000	1.0
86	0x3f800000	1.0
87	0x3f800000	1.0
88	0x3f800000	1.0
89	0x3f800000	1.0
90	0x3f800000	1.0
91	0x3f800000	1.0
92	0x3f800000	1.0
93	0x3f800000	1.0
94	0x3f800000	1.0
95	0x3f800000	1.0
96	0x3f800000	1.0
97	0x3f800000	1.0
98	0x3f800000	1.0
99	0x3f800000	1.0
100	0x3f800000	1.0
101	0x3f800000	1.0
102	0x3f800000	1.0
103	0x3f800000	1.0
104	0x3f800000	1.0
105	0x3f800000	1.0
106	0x3f800000	1.0
107	0x3f800000	1.0
108	0x3f800000	1.0
109	0x3f800000	1.0
110	0x3f800000	1.0
111	0x3f800000	1.0
112	0x3f800000	1.0
113	0x3f800000	1.0
114	0x3f800000	1.0
115	0x3f800000	1.0
116	0x3f800000	1.0
117	0x3f800000	1.0
118	0x3f800000	1.0
119	0x3f800000	1.0
120	0x3f800000	1.0
121	0x3f800000	1.0
122	0x3f800000	1.0
123	0x3f800000	1.0
124	0x3f800000	1.0
125	0x3f800000	1.0
126	0x3f800000	1.0
127	0x3f800000	1.0
128	0x3f800000	1.0
129	0x3f800000	1.0
130	0x3f800000	1.0
131	0x3f800000	1.0
132	0x3f800000	1.0
133	0x3f800000	1.0
134	0x3f800000	1.0
135	0x3f800000	1.0
136	0x3f800000	1.0
137	0x3f800000	1.0
138	0x3f800000	1.0
139	0x3f800000	1.0
140	0x3f800000	1.0
141	0x3f800000	1.0
142	0x3f800000	1.0
143	0x3f800000	1.0
144	0x3f800000	1.0
145	0x3f800000	1.0
146	0x3f800000	1.0
147	0x3f800000	1.0
148	0x3f800000	1.0
149	0x3f800000	1.0
150	0x3f800000	1.0
151	0x3f800000	1.0
152	0x3f800000	1.0
153	0x3f800000	1.0
154	0x3f800000	1.0
155	0x3f800000	1.0
156	0x3f800000	1.0
157	0x3f800000	1.0
158	0x3f800000	1.0
159	0x3f800000	1.0
160	0x3f800000	1.0
161	0x3f800000	1.0
162	0x3f800000	1.0
163	0x3f800000	1.0
164	0x3f800000	1.0
165	0x3f800000	1.0
166	0x3f800000	1.0
167	0x3f800000	1.0
168	0x3f800000	1.0
169	0x3f800000	1.0
170	0x3f800000	1.0
171	0x3f800000	1.0
172	0x3f800000	1.0
173	0x3f800000	1.0
174	0x3f800000	1.0
175	0x3f800000	1.0
176	0x3f800000	1.0
177	0x3f800000	1.0
178	0x3f800000	1.0
179	0x3f800000	1.0
180	0x3f800000	1.0
181	0x3f800000	1.0
182	0x3f800000	1.0
183	0x3f800000	1.0
184	0x3f800000	1.0
185	0x3f800000	1.0
186	0x3f800000	1.0
187	0x3f800000	1.0
188	0x3f800000	1.0
189	0x3f800000	1.0
190	0x3f800000	1.0
191	0x3f800000	1.0
192	0x3f800000	1.0
193	0x3f800000	1.0
194	0x3f800000	1.0
195	0x3f800000	1.0
196	0x3f800000	1.0
197	0x3f800000	1.0
198	0x3f800000	1.0
199	0x3f800000	1.0
200	0x3f800000	1.0
201	0x3f800000	1.0
202	0x3f800000	1.0
203	0x3f800000	1.0
204	0x3f800000	1.0
205	0x3f800000	1.0
206	0x3f800000	1.0
207	0x3f800000	1.0
208	0x3f800000	1.0
209	0x3f800000	1.0
210	0x3f800000	1.0
211	0x3f800000	1.0
212	0x3f800000	1.0
213	0x3f800000	1.0
214	0x3f800000	1.0
215	0x3f800000	1.0
216	0x3f800000	1.0
217	0x3f800000	1.0
218	0x3f800000	1.0
219	0x3f800000	1.0
220	0x3f800000	1.0
221	0x3f800000	1.0
222	0x3f800000	1.0
223	0x3f800000	1.0
224	0x3f800000	1.0
225	0x3f800000	1.0
226	0x3f800000	1.0
227	0x3f800000	1.0
228	0x3f800000	1.0
229	0x3f800000	1.0
230	0x3f800000	1.0
231	0x3f800000	1.0
232	0x3f800000	1.0
233	0x3f800000	1.0
234	0x3f800000	1.0
235	0x3f800000	1.0
236	0x3f800000	1.0
237	0x3f800000	1.0
238	0x3f800000	1.0
239	0x3f800000	1.0
240	0x3f800000	1.0
241	0x3f800000	1.0
242	0x3f800000	1.0
243	0x3f800000	1.0
244	0x3f800000	1.0
245	0x3f800000	1.0
246	0x3f800000	1.0
247	0x3f800000	1.0
248	0x3f800000	1.0
249	0x3f800000	1.0
250	0x3f800000	1.0
251	0x3f800000	1.0
252	0x3f800000	1.0
253	0x3f800000	1.0
254	0x3f800000	1.0
255	0x3f800000	1.0

dense_2/kernel:0 f4 [512, 256]
0	0xbd1c694d	-0.03818636
1	0xbbdd323f	-0.0067503746
2	0xbd470d6c	-0.048596784
3	0xbbbbd3c5	-0.005732032
4	0x3ad0e49e	0.0015937274
5	0xbd159626	-0.036520146
6	0xbd6dbd3c	-0.058041796
7	0xbcf61fef	-0.030044524
8	0x3d8392f4	0.064245135
9	0x3a3ad405	0.000712693
10	0xbbbf6749	-0.00584117
11	0xbcb76a0c	-0.022389434
12	0x3d17121a	0.036882497
13	0xbbf2b343	-0.0074066236
14	0x3c9b7edf	0.018981395
15	0xbcf38fa1	-0.029731574
16	0xbd957566	-0.072977826
17	0xbcab8e77	-0.020941956
18	0x3b2d40f4	0.002643642
19	0xbd1521b9	-0.036409114
20	0x3d6b6db2	0.05747766
21	0x39aaa8be	0.0003255065
22	0xbc681d51	-0.014167146
23	0x3d41ba9b	0.0472971
24	0x3c4603d4	0.012085874
25	0xbd171739	-0.03688738
26	0x3a825d3f	0.0009946002
27	0xbd2ab2f1	-0.041674558
28	0xbb3383a4	-0.0027391696
29	0x3b787ff7	0.003791807
30	0x3a883cab	0.0010394057
31	0x3ba30fac	0.0049762335
32	0xbb43d8a3	-0.0029883764
33	0xbd832920	-0.06404328
34	0xbc81ab3b	-0.01582872
35	0x3ca1cf7a	0.019752253
36	0x3c982b0a	0.01857521
37	0x3c7a0158	0.015259109
38	0xbc95a3d6	-0.0182666
39	0xbd8c01bf	-0.068362705
40	0xbcb21e26	-0.021742892
41	0xbc9afd6c	-0.01891967
42	0xbcb47436	-0.02202807
43	0x3b75599d	0.0037437447
44	0xbdd229c6	-0.10261874
45	0xbc55342c	-0.013012927
46	0xba82a798	-0.000996816
47	0xbd27f71b	-0.041007143
48	0x3d98020d	0.07422266
49	0xbba2104a	-0.0049457895
50	0xbd916dc2	-0.07101013
51	0x3cf3d1f6	0.029763203
52	0x3c319a2d	0.010839981
53	0xbc9a8d1c	-0.018866114
54	0xbb9f6969	-0.004864861
55	0xbc09a8ac	-0.008402031
56	0xbcaaaef5	-0.02083538
57	0xbc85d862	-0.01633853
58	0xbc181f0a	-0.009284744
59	0xbd42c66b	-0.047552507
60	0x3c0a1a7f	0.008429169
61	0xbd0d61e4	-0.034517184
62	0xbc043966	-0.0080703255
63	0xbb85da26	-0.004084843
64	0xbc8fd2ed	-0.017556632
65	0x3ce71b5d	0.02821129
66	0xbd827d9c	-0.06371614
67	0x3d02731c	0.031848058
68	0xbd191d01	-0.037381176
69	0xbd56522a	-0.05232445
70	0xbc355ac2	-0.011069002
71	0xbcbeaeb1	-0.023276659
72	0xbbae9f21	-0.0053290282
73	0x3d81d302	0.06339075
74	0xbcabca50	-0.020970494
75	0xbbfa7d84	-0.007644357
76	0x3d38521e	0.045000188
77	0x3a85bf71	0.0010204149
78	0xbd64c1f8	-0.055849046
79	0xbc5d8b9c	-0.013522055
80	0xbcc1c620	-0.023654044
81	0xbd63b83e	-0.05559563
82	0xbcd77826	-0.026302408
83	0xbccf7d6e	-0.025328364
84	0xbd03f5da	-0.032216884
85	0xbcb0ab89	-0.02156617
86	0x3c23a8ca	0.009988973
87	0x3c7031ae	0.014660282
88	0xbd7dffbc	-0.062011465
89	0xbc7ee932	-0.015558528
90	0xba62a5d8	-0.00086459285
91	0xbd001816	-0.03127297
92	0x3d953872	0.07286157
93	0xbb9cea1f	-0.0047886516
94	0xbccc2407	-0.024919523
95	0x3c941c7a	0.018079985
96	0xbd5187d9	-0.051154945
97	0xb9bc9b9c	-0.00035974092
98	0xbd115283	-0.03547908
99	0x3ced6570	0.028979033
100	0xbcbe5608	-0.023234382
101	0xbc9ce815	-0.019153634
102	0x3c3272f4	0.010891665
103	0x3da5279b	0.08064195
104	0xbca6d2ed	-0.02036425
105	0xbc890c28	-0.01672943
106	0xbd27f89f	-0.041008588
107	0x3cc6a9ca	0.024250884
108	0x3ca5ae24	0.020224638
109	0xbcff9959	-0.031201052
110	0xbd273037	-0.040817466
111	0xbc062bba	-0.008189136
112	0xbbba91b9	-0.005693641
113	0xbc252c91	-0.010081426
114	0xbcb7da84	-0.022443064
115	0xbd4940ef	-0.04913419
116	0xbd1e8397	-0.038699713
117	0xbdcb9ca9	-0.0994199
118	0x3d001d5c	0.031278
119	0xbd194c79	-0.037426446
120	0xbc9e6ac4	-0.01933802
121	0x3d949c3e	0.07256363
122	0x3b99ac87	0.0046897563
123	0xbd92d615	-0.07169739
124	0xbb874bbf	-0.0041289027
125	0xbcf711cb	-0.030159852
126	0xbcc6164a	-0.02418055
127	0xbce6bbb8	-0.028165683
128	0xbcca3eb1	-0.024688097
129	0xbd3147db	-0.043281417
130	0x3c9e4645	0.019320616
131	0x3c4150e7	0.011799074
132	0x3be15757	0.006876867
133	0xbc80007e	-0.015625235
134	0xbd62c5d9	-0.055364463
135	0xbcce0b16	-0.02515177
136	0x3ae8020c	0.0017700805
137	0xbd8d7a7f	-0.0690813
138	0xbd6895d4	-0.056783512
139	0x3cd16acf	0.025563626
140	0xbd0c5286	-0.034258388
141	0x3d3454da	0.044026233
142	0xbc9f664d	-0.01945796
143	0xbc8243f7	-0.015901549
144	0xbcd3a07e	-0.025833365
145	0x3cc57815	0.024105111
146	0x3cfdbfb8	0.030975208
147	0x3c416e1b	0.011806036
148	0xbcb44bc0	-0.022008777
149	0xbd8f0119	-0.06982631
150	0xbd5fee54	-0.054670647
151	0xbb4867bd	-0.003057941
152	0xbc6573d0	-0.014004663
153	0xbcb76f90	-0.022392064
154	0xbd6930eb	-0.056931417
155	0xbc8157ca	-0.015788931
156	0xbb5a4866	-0.0033307313
157	0x3cb0d7d4	0.02158729
158	0x3ccd5ec5	0.025069604
159	0xbd88d313	-0.06680884
160	0xbc812da5	-0.015768835
161	0xbd151750	-0.036399186
162	0xbd28f3bf	-0.04124808
163	0x3c1a5f18	0.009422086
164	0x3c2206bc	0.009889301
165	0xbd72ead2	-0.059305973
166	0xbb26565a	-0.002538106
167	0x3d2f774c	0.04283838
168	0x3dbb072a	0.09132226
169	0xbc847869	-0.016170697
170	0xbc8d4555	-0.017244974
171	0xbd6f705f	-0.058456775
172	0xbd5c30ac	-0.053757355
173	0xbcb40e90	-0.0219796
174	0xbd1beaf7	-0.038065877
175	0x3b70d006	0.0036745085
176	0xbc141bb8	-0.009039812
177	0x3d03b9a6	0.03215947
178	0x3d3eb454	0.046558693
179	0x3d996f89	0.07491977
180	0xbd6b241c	-0.057407483
181	0x3cb018cf	0.021496205
182	0x3c66dd80	0.014090896
183	0x3c5920fb	0.013252492
184	0x3c84544c	0.016153477
185	0x3dbffe74	0.09374705
186	0xbd445e2b	-0.047941368
187	0x3afbecb5	0.0019220324
188	0xbd06c2ce	-0.032900624
189	0xbceccf3b	-0.028907409
190	0x3cfc41d1	0.030793102
191	0x3bd0ae9c	0.0063684713
192	0xbc859a20	-0.016308844
193	0x3d79e527	0.061009552
194	0x3d41709d	0.047226537
195	0xbd0ad637	-0.033895697
196	0x3c5dd957	0.013540587
197	0xbd26d199	-0.04072723
198	0xbc645c22	-0.013937982
199	0x3cf4a3fe	0.029863354
200	0x3d142cf5	0.036175687
201	0xbd13b6e9	-0.03606311
202	0xbd50c019	-0.05096445
203	0x3d222cf2	0.039593644
204	0xbca99446	-0.020700585
205	0x3c826ad7	0.015920086
206	0xbd227d27	-0.039670136
207	0x3bbdd763	0.0057934984
208	0xbd73880d	-0.05945592
209	0xbd8d5fa0	-0.06903005
210	0x3d02a053	0.03189118
211	0xbd10ac1e	-0.035320394
212	0xbcd5a567	-0.026079847
213	0x3c20b778	0.009809367
214	0x3d5a9882	0.0533681
215	0x3c23a235	0.009987404
216	0xbbe18cec	-0.0068832543
217	0xbb3b1076	-0.0028543747
218	0x3a9cf4b5	0.0011974784
219	0x3bf56424	0.0074887443
220	0xbd95b963	-0.0731075
221	0x3c42eb87	0.011896974
222	0xbd1c1a1f	-0.03811085
223	0xbcc99d3f	-0.024611114
224	0xb9f86c64	-0.00047383003
225	0xbcb3a38b	-0.02192857
226	0xbd1af2cf	-0.037829217
227	0xbd7400ea	-0.059571184
228	0xbd7b2cb1	-0.061321918
229	0xbbe9ae99	-0.0071314094
230	0x3cdf2955	0.027241388
231	0x3cfd6f6d	0.030936921
232	0x3ccff4d7	0.025385303
233	0xbcd89e70	-0.026442736
234	0xbc85a709	-0.016315
235	0xbd332515	-0.043736536
236	0xbd3d65ac	-0.04623954
237	0x3dae7381	0.08518124
238	0x3c1edbe1	0.009695978
239	0xbd5b4347	-0.053530958
240	0xbd4f0c57	-0.050548878
241	0x3d260fe1	0.040542487
242	0xbcd50a32	-0.026005838
243	0x3badd8d0	0.005305387
244	0xbcd1a542	-0.025591496
245	0xbda3cf8f	-0.07998573
246	0xbc2d59d6	-0.010580501
247	0x3d87daaa	0.06633504
248	0xbd4ab2f6	-0.049487077
249	0xbd601964	-0.054711714
250	0xbc86f3a1	-0.016473593
251	0x3c21dcc8	0.0098792985
252	0xbb5eefff	-0.003401756
253	0xbcc55ff4	-0.024093606
254	0x3ae2fbcf	0.0017317476
255	0xbd242780	-0.040076733

dense_2/bias:0 f4 [256]
0	0xbb8ac7ea	-0.0042352574
1	0x3afba106	0.0019197769
2	0xbae7ee7e	-0.0017694978
3	0x3b61a8d4	0.0034432905
4	0xba8ae2cc	-0.0010596155
5	0xba4a06c2	-0.00077066955
6	0xba892e20	-0.0010466017
7	0xbab85e23	-0.0014066141
8	0xbb268bea	-0.0025412985
9	0x3b936fb9	0.0044994024
10	0xbb3218ed	-0.0027175501
11	0x3b114363	0.002216541
12	0xbae81c9a	-0.0017708719
13	0x39d138d1	0.00039905918
14	0x38f97579	0.00011895126
15	0xbb5e7033	-0.0033941388
16	0xba911422	-0.0011068622
17	0x3a86063c	0.0010225247
18	0x3b80efb0	0.003934823
19	0xb83f88ef	-4.5665478e-05
20	0xbb1e77be	-0.0024180259
21	0x39385c04	0.00017581886
22	0x39fc9f4c	0.0004818387
23	0xba9934f4	-0.0011688755
24	0xbb28b94e	-0.0025745216
25	0x3b0957c2	0.0020956849
26	0x3abffde3	0.0014647808
27	0x3b2ad15e	0.0026064734
28	0x3978463e	0.0002367729
29	0xbac8d88c	-0.0015323325
30	0x3b4b9e74	0.0031069787
31	0x3a89868d	0.001049237
32	0xbace7148	-0.0015750313
33	0xbb275ddb	-0.002553812
34	0x39956371	0.00028493584
35	0xbb44e3ef	-0.0030043086
36	0xbb84ed7a	-0.0040566297
37	0x392df9d5	0.00016591635
38	0xba19f164	-0.0005872457
39	0xb83c9422	-4.4960652e-05
40	0xba3e54c2	-0.00072605547
41	0x3a1ba10d	0.0005936779
42	0xbabd9c33	-0.0014466107
43	0x3b08db58	0.0020882692
44	0x3aeeb538	0.0018211966
45	0x3afe7830	0.0019414481
46	0xb95c62bf	-0.00021017621
47	0xb99f2c04	-0.00030359637
48	0xbbc94cf6	-0.0061432077
49	0xbaf39f6f	-0.0018586944
50	0xbb132809	-0.0022454283
51	0x3af23275	0.0018478172
52	0xbb22a349	-0.0024816564
53	0xbae6012a	-0.0017547954
54	0xbb900633	-0.0043952703
55	0xbab1e1f5	-0.0013571369
56	0x3aefc000	0.0018291473
57	0xb98e1e1b	-0.0002710678
58	0x39d7de94	0.0004117383
59	0xbb01f25e	-0.00198283
60	0xbad723c0	-0.0016413853
61	0xbb5267dd	-0.0032105364
62	0x3a535f22	0.0008063187
63	0xb94b2d0c	-0.0001937637
64	0xba922818	-0.0011150865
65	0xbaf887a6	-0.0018961325
66	0x3b3a6474	0.0028441222
67	0xbb413f4c	-0.002948719
68	0x3ab4fb98	0.0013807891
69	0x3b6910ab	0.0035562913
70	0x38d35479	0.00010076998
71	0x3b88d55c	0.004175825
72	0x3af1dad1	0.0018452053
73	0x3b5b0cdc	0.0033424413
74	0xba84311d	-0.0010085438
75	0xbb5fa725	-0.0034126726
76	0x3b5b6ddc	0.003348223
77	0x39d47aa5	0.00040527168
78	0xbb6519b1	-0.003495794
79	0xbb1c0f4f	-0.0023812836
80	0x3a0b2fff	0.0005309581
81	0x3b77eb80	0.0037829578
82	0xba232c33	-0.0006224543
83	0xba58340e	-0.0008247503
84	0x3ae52fec	0.0017485595
85	0xbb90a538	-0.004414227
86	0xb9d42a23	-0.00040467185
87	0x3af2c5f8	0.0018522134
88	0x3b0c7837	0.0021433958
89	0x39c3d64c	0.00037352962
90	0xb9070541	-0.0001287656
91	0x3a48a449	0.0007653875
92	0xbb415e0a	-0.0029505515
93	0xb961d36c	-0.00021536433
94	0xb947ded6	-0.00019061132
95	0xbb1ba372	-0.0023748544
96	0xba6bdd5e	-0.0008997525
97	0xb9461095	-0.00018888929
98	0x39e19574	0.00043026695
99	0x3a919d57	0.0011109513
100	0x3a0b72eb	0.00053195533
101	0xb98b7ae9	-0.0002660372
102	0x38a198ad	7.705516e-05
103	0xbb12c2a3	-0.0022393845
104	0xbab382b8	-0.0013695573
105	0x3aac10d6	0.0013127576
106	0xba8ecf76	-0.0010895568
107	0xbb30d8b8	-0.0026984643
108	0x3b944eef	0.004526011
109	0xb98956c7	-0.0002619533
110	0xbb78595c	-0.003789506
111	0xba005c8f	-0.0004896605
112	0xbaa00a42	-0.0012210088
113	0xbb3b841e	-0.0028612684
114	0xbb6b36a4	-0.0035890723
115	0x3ac63e2d	0.0015124731
116	0x3b37c8c8	0.002804326
117	0xbb455e32	-0.003011596
118	0x3b1fa3f2	0.0024359194
119	0xbaa85bc3	-0.001284473
120	0xbb4eda5c	-0.0031563258
121	0xbbcceba3	-0.006253676
122	0x38fb428f	0.0001198101
123	0xb94c221e	-0.00019467666
124	0xba9c6ca7	-0.0011934236
125	0x399fd23b	0.00030483477
126	0x3a085ec1	0.0005202108
127	0x3b21e813	0.0024704977
128	0x3ab43edc	0.0013751644
129	0x3b2a80b3	0.0026016652
130	0xba30b38f	-0.00067406235
131	0xbb0a3e0e	-0.0021094116
132	0x3b2e6465	0.0026610133
133	0x3ae9a4cb	0.0017825601
134	0x39e67754	0.00043957925
135	0x3b04e2e1	0.0020276832
136	0x3a578420	0.0008221287
137	0xbaec1c66	-0.0018013834
138	0x3b073f4a	0.0020637088
139	0x3b2ef493	0.002669607
140	0xb9b73e3e	-0.00034950854
141	0xbab1cefb	-0.0013565713
142	0xb9e12322	-0.0004294152
143	0x3bc3c275	0.005974109
144	0xba3a67c3	-0.00071107986
145	0xba4fff7e	-0.00079344946
146	0x3ad3b18d	0.0016150937
147	0x3a94ab4d	0.0011342556
148	0x3a05d79d	0.0005105676
149	0x3b4ca49c	0.0031226045
150	0x3a4663c4	0.0007567967
151	0x38c07021	9.176159e-05
152	0xb995c94a	-0.00028569467
153	0x3b605111	0.0034228007
154	0xba03d62f	-0.0005029169
155	0x3bc72035	0.0060768374
156	0xba2c643d	-0.0006576216
157	0x3aa7615c	0.0012770104
158	0x3ba68467	0.0050817016
159	0xbb3e7d58	-0.002906641
160	0xbb48c858	-0.0030636992
161	0x3ab37fdc	0.0013694721
162	0x3b88f014	0.00417901
163	0x3bcce6cc	0.006253099
164	0x3b43434a	0.0029794746
165	0xbb1a728b	-0.0023566808
166	0xb89a4767	-7.356592e-05
167	0xbab1dd4e	-0.0013569982
168	0x3af1adb2	0.0018438606
169	0xba17fae2	-0.00057975773
170	0xbb7c0268	-0.0038453583
171	0x3a4fa284	0.000792064
172	0xbbada7b7	-0.005299534
173	0xba63d7cd	-0.00086915196
174	0x3b6cb0dd	0.003611616
175	0xb9ba0bb4	-0.00035485404
176	0x3b9cea33	0.004788661
177	0x3a6b959d	0.00089868327
178	0xbb95dbc9	-0.0045733196
179	0xbbb949a6	-0.0056545315
180	0xbb61a6da	-0.0034431727
181	0xbbe95ecd	-0.007121897
182	0x3b312ea5	0.002703586
183	0xbb3c42d2	-0.0028726351
184	0xb9dcac1a	-0.00042089896
185	0x3a93f3c0	0.0011287853
186	0x398825a2	0.0002596798
187	0xbb7622d1	-0.0037557373
188	0x3b167a86	0.0022961213
189	0xbbc92827	-0.0061388197
190	0x3bb40a7a	0.005494413
191	0xbb3e05f4	-0.0028995248
192	0xb90c5568	-0.00013383257
193	0x3a9603c8	0.0011445219
194	0x387460ca	5.8264275e-05
195	0xbbad996e	-0.0052978313
196	0xb9054695	-0.00012710162
197	0x3a586220	0.0008254368
198	0xbaed4e95	-0.0018105084
199	0x3b35246f	0.0027640124
200	0x39e1b33c	0.00043048884
201	0xb9b317ab	-0.00034159175
202	0xbabc6d2b	-0.0014375796
203	0x3b49c1c5	0.0030785662
204	0xb98600ef	-0.00025559167
205	0x3b59b95d	0.0033222057
206	0xbb347c8f	-0.0027540063
207	0xbbb97b67	-0.0056604627
208	0x3b56e451	0.0032789896
209	0xbac3c483	-0.0014935884
210	0x3b8e6f44	0.00434676
211	0xb90431a6	-0.00012606996
212	0xba73fe25	-0.0009307585
213	0xbb52b4cc	-0.003215122
214	0x3b26d48c	0.0025456278
215	0x3b82a110	0.0039864853
216	0x3afac4c3	0.0019132126
217	0xba2c51cf	-0.000657347
218	0x3a8c0edc	0.0010685581
219	0x3ae1c29f	0.0017224139
220	0xbb6b01fe	-0.0035859342
221	0x3a0f773a	0.0005472783
222	0x3a853f14	0.0010165893
223	0x3ad860ac	0.0016508303
224	0xbb1d7a98	-0.002402937
225	0xbb665a5d	-0.0035149076
226	0x3b5402b2	0.003235024
227	0xbab8b228	-0.0014091181
228	0x390dac2f	0.00013510951
229	0xb9983ca1	-0.0002903687
230	0x3a96c986	0.001150415
231	0xb96aabb9	-0.0002237995
232	0x3ac35679	0.001490309
233	0x3b08c1f9	0.002086757
234	0x3a64d6dd	0.0008729527
235	0xbb5a8893	-0.0033345565
236	0xba184554	-0.00058086705
237	0x389c0fbf	7.4415926e-05
238	0xba6a6273	-0.00089410617
239	0xbae3883b	-0.0017359325
240	0x3a824b04	0.0009940569
241	0xbb5b729f	-0.0033485068
242	0xbb850cae	-0.0040603494
243	0xbb6ecbed	-0.0036437467
244	0xbb8038b1	-0.003913008
245	0xbb3ac3c0	-0.0028498024
246	0xbb0ab67d	-0.00211659
247	0x3b05d1c5	0.0020419222
248	0xbb9d4681	-0.0047996645
249	0xbad6dabb	-0.0016392091
250	0xb9bf8586	-0.00036529842
251	0x39cff828	0.00039667008
252	0xb8b160df	-8.458061e-05
253	0x3b819724	0.003954785
254	0xbb3f7cdf	-0.0029218716
255	0x3b80b62e	0.0039279675

scale1 f4 [512]
0	0x402902f8	2.6408062
1	0x4039c49a	2.9026246
2	0x40303563	2.7532585
3	0x4031882e	2.7739367
4	0x402d53de	2.7082438
5	0x402697c1	2.6030123
6	0x40215ae3	2.5211723
7	0x404d5f92	3.2089581
8	0x4026ab50	2.604206
9	0x402f3e4b	2.738177
10	0x40236947	2.5533006
11	0x3ffd36a2	1.9782298
12	0x4036724d	2.8507264
13	0x400fed10	2.2488441
14	0x40023682	2.034577
15	0x4010ef35	2.2646
16	0x4043272d	3.049266
17	0x40564b83	3.3483589
18	0x40416851	3.021992
19	0x4028a797	2.6352289
20	0x40252ecc	2.5809813
21	0x401d6750	2.4594307
22	0x402d1ab7	2.7047555
23	0x405055c5	3.255235
24	0x3ffb12ba	1.961509
25	0x40397515	2.8977711
26	0x4057b80c	3.3706083
27	0x402b6b9b	2.6784427
28	0x406e6def	3.7254598
29	0x40280345	2.6251996
30	0x40055de6	2.083856
31	0x4031d1b9	2.7784255
32	0x400e4be3	2.2233818
33	0x4042a8ad	3.0415452
34	0x40335d58	2.8025723
35	0x40436022	3.0527425
36	0x40757052	3.8349805
37	0x400a18e4	2.1577692
38	0x4013d15e	2.3096538
39	0x404e1207	3.2198503
40	0x40454a80	3.082672
41	0x40374bd4	2.8640032
42	0x40243901	2.5659792
43	0x402fd9ea	2.7476754
44	0x4043b5e4	3.0579767
45	0x401e4386	2.4728713
46	0x4025032a	2.578318
47	0x404fbf1b	3.2460392
48	0x403ad395	2.919164
49	0x4019479d	2.394996
50	0x402bfda6	2.6873565
51	0x40297c15	2.6481984
52	0x4032e697	2.795324
53	0x4019c4ef	2.4026449
54	0x4047f47c	3.1242971
55	0x40288b6f	2.6335104
56	0x401eddd5	2.4822896
57	0x402943f1	2.6447718
58	0x4026bda9	2.605326
59	0x404dba60	3.2145004
60	0x402c5a5e	2.6930156
61	0x40244380	2.5666199
62	0x40318365	2.7736447
63	0x403dcbf4	2.9655733
64	0x403f07ff	2.984863
65	0x40158d54	2.336751
66	0x402f8717	2.7426202
67	0x402965e3	2.6468437
68	0x40385801	2.8803713
69	0x403428f6	2.815
70	0x40393cb8	2.894331
71	0x403c83b1	2.9455378
72	0x4020e438	2.5139294
73	0x4037afc1	2.8701022
74	0x4031899b	2.7740238
75	0x401920c7	2.3926256
76	0x407debb9	3.9675124
77	0x402b2d0a	2.674624
78	0x3ff84d94	1.9398675
79	0x401ec107	2.4805315
80	0x402f2eee	2.7372394
81	0x4066b2ec	3.6046705
82	0x402c4cee	2.6921954
83	0x40041df9	2.0643294
84	0x406772b0	3.616375
85	0x4076c45f	3.8557355
86	0x402b8de7	2.680536
87	0x405005b0	3.2503471
88	0x401a2920	2.40876
89	0x401851da	2.3799958
90	0x402916d7	2.642019
91	0x40502ec1	3.2528536
92	0x4010fa11	2.2652628
93	0x401ca6fb	2.4476917
94	0x402549d5	2.5826313
95	0x40133b7d	2.3005059
96	0x40383d80	2.8787537
97	0x405293ef	3.2902792
98	0x401d77d3	2.4604385
99	0x400c684f	2.1938665
100	0x40245a2f	2.5680044
101	0x4029374f	2.6440008
102	0x403d5fd3	2.9589736
103	0x40032263	2.0489738
104	0x408d3aa6	4.413409
105	0x4027a9d7	2.6197412
106	0x4056af04	3.354432
107	0x4020fd5c	2.5154638
108	0x4057487f	3.3637998
109	0x401297b1	2.2905085
110	0x401809b2	2.3755918
111	0x40312afc	2.7682486
112	0x402b8bc1	2.680405
113	0x404e0c49	3.2194998
114	0x40320b00	2.7819214
115	0x4032985a	2.7905488
116	0x40240e75	2.5633824
117	0x4039b0e8	2.9014225
118	0x4021d411	2.5285685
119	0x4054bad3	3.3239028
120	0x404d6292	3.2091413
121	0x4022fc3a	2.5466447
122	0x4055849e	3.3362193
123	0x4035c270	2.8399925
124	0x4042f457	3.0461633
125	0x4023ce7f	2.5594785
126	0x402f159c	2.735694
127	0x4018e044	2.388688
128	0x40144486	2.3166823
129	0x4028a869	2.635279
130	0x40523c32	3.284924
131	0x40332915	2.7993824
132	0x4035dcc4	2.8415995
133	0x403ca182	2.9473577
134	0x401d8537	2.4612558
135	0x403f3244	2.987443
136	0x403039a1	2.7535174
137	0x4044b69b	3.0736454
138	0x404c869c	3.195716
139	0x3ffafe4f	1.9608859
140	0x401f1e22	2.4862142
141	0x4042e151	3.0450022
142	0x3ff730dd	1.9311787
143	0x4028ffa4	2.640603
144	0x4036ec3b	2.8581684
145	0x402daa22	2.713509
146	0x40059b12	2.0875897
147	0x4045a1d7	3.088003
148	0x402a5481	2.6614077
149	0x40454c31	3.0827754
150	0x4038d79c	2.8881598
151	0x4001aa94	2.0260363
152	0x406366d5	3.5531514
153	0x4022be02	2.5428472
154	0x403822d1	2.877125
155	0x40586807	3.3813493
156	0x4047cfbe	3.1220546
157	0x40369b33	2.8532226
158	0x401527b2	2.3305478
159	0x4024c7e8	2.5747013
160	0x4048202e	3.126964
161	0x4024a8bf	2.5727994
162	0x404d0d5d	3.2039406
163	0x40365e97	2.8495233
164	0x401e62de	2.4747844
165	0x405515af	3.3294485
166	0x4028941a	2.6340394
167	0x40681406	3.6262221
168	0x402ab7d6	2.6674705
169	0x402f3e89	2.7381918
170	0x403499a5	2.8218777
171	0x4045ae9c	3.0887823
172	0x40130f92	2.2978253
173	0x40170404	2.35962
174	0x3ffef2b2	1.9917815
175	0x406080fa	3.507872
176	0x402e8945	2.7271283
177	0x4082bc36	4.085475
178	0x403afa7c	2.9215384
179	0x402eb21e	2.7296214
180	0x40304cf9	2.754698
181	0x4049207b	3.1426075
182	0x4017f82d	2.3745224
183	0x403675bb	2.8509357
184	0x405de80b	3.4672878
185	0x40344418	2.816656
186	0x40280a35	2.625623
187	0x401c27cc	2.439929
188	0x40258072	2.5859647
189	0x401dfc7f	2.4685361
190	0x401bf631	2.4369013
191	0x4009bbb4	2.1520815
192	0x404c367c	3.1908255
193	0x402f30aa	2.7373452
194	0x401c0fb3	2.4384582
195	0x40435c1f	3.0524976
196	0x4040e436	3.013929
197	0x4028ff2a	2.640574
198	0x4024f931	2.5777094
199	0x400927af	2.143047
200	0x401d5b7e	2.4587092
201	0x4017ee15	2.3739064
202	0x4089033e	4.281646
203	0x40301ed5	2.7518818
204	0x401fb62e	2.4954944
205	0x4043fd44	3.062333
206	0x4060e970	3.514248
207	0x404fb8d1	3.2456553
208	0x402d4dcd	2.7078736
209	0x40350340	2.8283234
210	0x40258a7d	2.5865777
211	0x405c96d9	3.446707
212	0x400932c5	2.1437237
213	0x400dcf3a	2.215773
214	0x4053115d	3.2979348
215	0x401aaa29	2.4166358
216	0x401489e6	2.3209167
217	0x4072cdaa	3.7938027
218	0x404c0f96	3.1884513
219	0x404ed0e3	3.2314994
220	0x40304335	2.754102
221	0x4022db49	2.544634
222	0x4018e125	2.3887417
223	0x405639d5	3.3472798
224	0x40286c80	2.6316223
225	0x401d55ad	2.4583542
226	0x40452d59	3.0808928
227	0x400d0b78	2.203825
228	0x404eaaca	3.2291741
229	0x40470711	3.1098063
230	0x403723a2	2.8615499
231	0x403a6063	2.912133
232	0x4027f7ab	2.6244915
233	0x400fa545	2.2444623
234	0x4036ce83	2.8563545
235	0x403959ea	2.896113
236	0x4012a27f	2.291168
237	0x40293238	2.64369
238	0x40478302	3.117371
239	0x40273d3f	2.6131132
240	0x40539500	3.3059692
241	0x4042db9a	3.0446534
242	0x4049d934	3.153882
243	0x4043f6f4	3.0619478
244	0x4025040e	2.5783725
245	0x40237683	2.5541084
246	0x404ef4fe	3.2337031
247	0x401105dc	2.2659826
248	0x403db7b7	2.964338
249	0x402c57b8	2.692854
250	0x401f937e	2.4933772
251	0x40773147	3.8623827
252	0x4057d41b	3.372321
253	0x40322866	2.7837157
254	0x4067c5da	3.621451
255	0x403e6743	2.9750526
