data/DNN/Inlusive_amcatnlo_xyComponent_JetLepXY_50EP__diff_xy_2016_preVFP_20220622-0926genMETweighted.onnx (onnx, 578083 bytes, 16 tensors)

StatefulPartitionedCall/sequential/dense_3/MatMul/ReadVariableOp:0 f4 [256, 2]
00000000: 59bb 2fbe 6757 a53d 3de7 b93d 4abd 1e3d
00000010: 5d0a 13bd cd16 46be f01a ae3d d8ac 8bbe
00000020: ab10 65be b62b 21be 25c4 873c c272 473e
00000030: 1766 2f3e 49a1 66bd 67ab d0bc 9526 123e
00000040: 8726 cb3a 7ef6 07be c21e 9aba b74f 0abe
00000050: 7e98 5c3e 69be ecbd b255 73bd 962d e83d
00000060: b12c 3abd 3cdb 50be 0815 143e 60dc 093e
00000070: cf9a 4f3e 891b 053e 82b2 033e e2ba cbbd
00000080: 443b 673e b521 eebd 28a9 30be 7b96 a03d
00000090: ccce a9bd 623d 7bbc 8415 2c3e 025a 1bbe
000000a0: 3691 1b3e c642 b0bd dae1 233e 5866 0b3e
000000b0: 23a1 98bd 5e0e 1e3e e6f3 fbbd bbb2 093d
000000c0: a44e 3d3e 9b74 1abc 5428 05bd 1cc7 323e
000000d0: 1075 48be 544d 763c 4c4a a9bd 2a64 22be
000000e0: c80f b9bd 3d37 e53d 0287 53be 24c9 ee3d
000000f0: 52b6 c83d b44b db3d e656 dcbd 8b0e b83d
00000100: ce2f 31be 1c11 d63b a061 ab3d e630 083e
00000110: 1696 683e 76d1 d03d 6cc7 77be f0e3 d63c
00000120: c208 413c f84a 7c3e a70d e4bd d04b fbbd
00000130: a6d6 9c3d f993 37be 6598 7c3c 35cc 583e
00000140: 5dd1 fd3d b27b 2a3e e8ca 6dbe 0d64 75bd
00000150: c895 25be 97f7 6f3c d0aa 453e 1d56 883d
00000160: 89e8 233e 0422 553e d1f4 563d 6efc c53d
00000170: b4b3 aabd 3399 313e ed27 d73d 375e 66be
00000180: 8280 89be 88fd 933c 10c7 573e 3bf6 e33d
00000190: 6271 12bd 6cb1 94be c28d 13bd b98c 0abe
000001a0: 4434 e9bd 3ea4 1bbe 48d8 cdbd 041d 8abe
000001b0: b6a9 453e 226e dbbb f24f 6dbc 9921 263e
000001c0: c21e 853d f0f5 233e 09b9 443e cbd4 bd3d
000001d0: 3332 413e 303d aabd 27a9 c8bd c680 033e
000001e0: 063b 59be 754d 44bb 92cd 9abe e2b2 fb3d
000001f0: 02d1 dd3d 5f94 513e 4374 823e e918 afbd
00000200: 3033 e13d 4cf3 903c c977 443e 4be2 3fbc
00000210: 448b 8cbd d97f fabd df2b 6c3e 5cdf 81bd
00000220: 20ca 7fbe 8e7c b0ba 59d4 1cbe b7e1 aebd
00000230: 9d91 8dbd 09e6 b2bd c87a fdbd 9c63 2e3e
00000240: 605d 3c3e be47 07be 4f4c 0a3e dfb0 873d
00000250: a4e3 6abe 03da 81bd 8a6d 223e c2aa 23be
00000260: ecc0 3c3d a7ae 6ebe 2901 b63d f22b 4fbe
00000270: 048e c73d af09 25bc 2aa4 613c 7070 59be
00000280: 4f34 33bd 70f2 12be 3373 2ebd 2efb 313e
00000290: bd02 1fbe db49 b23c a51e 0d3e 8e96 12be
000002a0: 8e5b 9b3d 4281 093e da4b 303e 0262 193a
000002b0: 809a 873d 3c68 013c 32ba c3bd 37f4 093e
000002c0: 9501 2b3e b5b8 9a3c 5162 513c 6df0 1a3e
000002d0: f777 fdbd 691e c23d cbf1 2b3e c974 a4bd
000002e0: 30f7 563e 53b7 0fbe 4da9 21be c040 e43d
000002f0: bf62 29be 4c56 32bc 808f d5bc f024 563e
00000300: 8c8f c43d 0251 2dbe 85f4 103e 61f5 43bd
00000310: 3a3a 4d3e b9ea 703c 76cd 41be a537 7f3e
00000320: be51 b4bd e868 42be 2aeb ec3d 61cd fd3c
00000330: c2fd a43d 3d78 773e de6c a13d 0cbb d63d
00000340: 9e0b 01be 9762 5e3e dec1 9dbd ca34 053e
00000350: 89c3 06bd dde2 0ebe aa1c 7fbe 1897 3abd
00000360: cdde e6bd 2df5 f23d 8fb6 123e 9cf8 c93d
00000370: c950 163d 6153 39be d871 133d 8a24 2b3e
00000380: da99 db3c bc6b 263e 07f8 ecbd 8c05 483c
00000390: 431d 3a3c 5a0c e33d 1c8c 823d 60ac 44be
000003a0: 0c21 f8bd 77d3 eabc b742 b6bd 8204 bf3d
000003b0: a385 6ebe cefe 82bd 7c75 70be 8f1e 1dbc
000003c0: 9815 05be df10 333e ac17 273e 4665 2fbb
000003d0: a2ba 02be 8d7d f1bd 2269 7dbe c364 ec3b
000003e0: 738f 41be 4ee5 523e 904d 29be d31d 31bd
000003f0: ac71 a83d a3ab 5abe 0c67 8fbe 788b c0bd
-0.17161311 0.08073311 0.09077308 0.03875474 -0.035898555 -0.19344635 0.08501232 -0.27280307
-0.2236964 -0.1573933 0.016573021 0.1947737 0.17128788 -0.056306157 -0.025472356 0.1427253
0.0015499153 -0.13277623 -0.0011758434 -0.13506971 0.21542546 -0.11559755 -0.059407897 0.1133682
-0.045452777 -0.20396131 0.14461148 0.13462973 0.20273899 0.12998785 0.12861064 -0.099477544
0.22581202 -0.11627523 -0.17252028 0.07841202 -0.082913965 -0.015334459 0.16805083 -0.15171054
0.15192112 -0.08606486 0.16004124 0.1361326 -0.074526094 0.15435168 -0.12302379 0.033617716
0.1848703 -0.009427215 -0.032509163 0.17458767 -0.19575906 0.015033085 -0.08266124 -0.15858522
-0.09036213 0.111921765 -0.2065697 0.11659458 0.098004 0.107077986 -0.10758762 0.08987149
-0.17303392 0.0065328013 0.0836823 0.13299903 0.22713503 0.101962015 -0.24197167 0.026231736
0.011781873 0.24637973 -0.111354165 -0.122703195 0.076581284 -0.17927541 0.015417193 0.21171649
0.123934485 0.16648749 -0.23221934 -0.05990987 -0.16170418 0.014646432 0.19303441 0.0665705
0.16006674 0.20813757 0.05247957 0.09667288 -0.08335057 0.17343597 0.10505662 -0.22496878
-0.26855856 0.018065229 0.2107203 0.11130949 -0.03575266 -0.29041612 -0.036023863 -0.13530244
-0.11386922 -0.15199372 -0.10051018 -0.26975262 0.19303021 -0.0066964785 -0.0144843925 0.16223754
0.06500007 0.16011786 0.1921121 0.09269103 0.18866806 -0.08312452 -0.09797888 0.12842092
-0.21213922 -0.0029953395 -0.30234963 0.122899786 0.10830881 0.20466755 0.25479326 -0.08549673
0.10996091 0.017694138 0.1918632 -0.011711667 -0.068625 -0.12231416 0.2306361 -0.063414305
-0.24979448 -0.0013464855 -0.15315379 -0.085391454 -0.06912539 -0.08735282 -0.12376934 0.17030185
0.18394995 -0.13210961 0.13505672 0.06625532 -0.229384 -0.063404106 0.15862098 -0.15983108
0.046082422 -0.23308812 0.0888694 -0.20231608 0.09743884 -0.0100731095 0.01377205 -0.21234298
-0.043751057 -0.14350295 -0.04259033 0.17380974 -0.15528388 0.021763733 0.13781221 -0.14315245
0.07585822 0.13428214 0.17216435 0.0005851091 0.066212654 0.007898387 -0.09556998 0.13472067
0.16699822 0.018886903 0.012779788 0.15130778 -0.12376397 0.094784565 0.16791455 -0.080300875
0.20992732 -0.14034776 -0.1578724 0.111451626 -0.16541575 -0.010884833 -0.026069403 0.20912528
0.09597692 -0.16925433 0.14155777 -0.047841433 0.20041743 0.0147044 -0.18926033 0.2492357
-0.088046536 -0.18985331 0.115682915 0.030981721 0.08056213 0.24166961 0.07882093 0.10484895
-0.12602088 0.21717297 -0.07702993 0.13008419 -0.03290132 -0.13953729 -0.24913278 -0.04555425
-0.112729646 0.1186317 0.14327453 0.098618716 0.036698136 -0.18098213 0.03599724 0.16713157
0.02680676 0.16252035 -0.11570745 0.012208354 0.011359516 0.1108634 0.0637438 -0.19206381
-0.12115678 -0.028665287 -0.088994436 0.09327032 -0.23293166 -0.063962564 -0.23482317 -0.009589805
-0.12996519 0.17486905 0.16317624 -0.0026763245 -0.12766507 -0.11791525 -0.24747136 0.00721416
-0.18902378 0.20595285 -0.16533494 -0.043241333 0.08224806 -0.21354537 -0.28008306 -0.094016016

StatefulPartitionedCall/sequential/dense_3/BiasAdd/ReadVariableOp:0 f4 [2]
00000000: 14cc 81bc e7f7 dd3a
-0.015844382 0.0016934843

StatefulPartitionedCall/sequential/dense_2/MatMul/ReadVariableOp:0 f4 [512, 256]
00000000: 67f9 56bc 77ad 1e3d 62dd 763b 1347 a6bb
00000010: 9af8 39bc 6d6e 2b3d b80e f63c 4ff3 c93c
00000020: 2599 3d3b 8f13 9bbb 87fb a13c 58de c03b
00000030: 10de 11bc e5bc 553d 2b1b 413d d441 623d
00000040: b7ca 913d 0218 a1bc 6240 5bbc 676a da3c
00000050: c524 123d 7e50 993c 304a bab9 66e5 adbc
00000060: faca 723d e8cd 233b 0963 c1bb 02e9 ebbb
00000070: 0ea0 43bc 5d3a 3cbc 6cdf 3d3d 4863 a5bb
00000080: 8976 983b 5f6d 013d b227 1d3d bbfd c3bb
00000090: 347a 323c 33f0 85bb 42eb 713c 6d02 a53c
000000a0: 0367 073d 3a59 873c 2f4b 9b39 bb9b 023d
000000b0: 29d4 173d bc9a aa3c 5099 d4bc 5626 273c
000000c0: dbc1 4dbc f496 8f3d 2354 a3bc e812 3fbc
000000d0: 475c 99bc 85bb 49bc cb33 083d 070d 6c3a
000000e0: d471 803c ab72 5d3d e10a 313d 21ee cfbb
000000f0: deff abbc 1ce1 0dbc 1c98 293d cf9d 213d
00000100: addb 653d 2581 613d 2d45 83bc 30c2 4e3d
00000110: 91f1 41bb 5e64 95bc ce5d 473b b367 fbba
00000120: 7a85 b33b 7b89 443d 5cdd 92bc 84d9 173d
00000130: 3b4d 823b 0730 c13c ad9d 383d 2231 5d3b
00000140: 868e ce3c 32fb 703c 8672 08bb fdc9 183d
00000150: 801d 823c f2ab 173d ae5d 013d c8d7 aa3b
00000160: 09f3 103d 5eda 2b39 7e8f 1ebc 5375 053d
00000170: 2c03 ef3c b403 3639 d091 bdbb 72db cd3c
00000180: e30d 213c 0b3c 2e3d c536 3d3d 203a 75bc
00000190: bc87 efb9 0107 5f3d 8436 da3c add7 123d
000001a0: 435d f9bc 3749 c03b da0b e93a 45bf 25bc
000001b0: b787 8bbc 049b 523d 31e4 fb3b 77ad c93c
000001c0: ee7a e73c 1ba0 d7ba 5a6f 953c 9f2c dfbb
000001d0: 9b68 dd3a 2c28 1ebc b91b 1ebc 0790 37bc
000001e0: 84c8 1ebc 7fbe 143d e3e5 dfbb 2df1 863b
000001f0: 4563 8f3c 7136 a0bc bf81 713c cd3a 94bc
00000200: 6572 f63b 2580 fdbb 369e a93c 0e2f fbba
00000210: ac8d beba d6ea 613c 2c19 31bb 040a 98bb
00000220: b297 4f3d 852b 763d f99f 85bc 8db7 47bc
00000230: d8d6 0aba e850 2c3d 34ae 1f3d f680 d53c
00000240: 22b3 0e3c dcf4 bebc b8cf 623c 6dc9 afbc
00000250: ac7b 0f3d 31cd 903b 7869 81bb 0b8a 8fbc
00000260: 702f 37bc ce1b bebc bcb4 14bc b222 163d
00000270: 9d7b 7eba 9ce1 69bc 82ab 443d 2057 ad3b
00000280: 8e35 403c f2ea 173d 4c0a e5bc 38f8 d7bc
00000290: adc9 393d 0ef7 423d bf81 a3bb 6c79 7ebc
000002a0: 87cf c53c a156 063d c824 b43a 5779 cd3b
000002b0: 06ad 703d 4e17 1b3d d2ed 07bc a0ac 90bc
000002c0: 9b50 103d 6de8 78bc 1099 553b 35f6 143d
000002d0: 3c9f 25bc db76 2b3c 016c c3bc b35d 7b3c
000002e0: 6198 e4ba 60e3 013d 6401 45bc bdb7 c53c
000002f0: b6cd 1d3d c2fa 833c 42ff 4f3d 2921 0d3c
00000300: b108 3abc a1cd 943c 43de 9dbb e4df e73c
00000310: 8408 7b3c 4fbc 8d3a def1 7cbc d779 593c
00000320: 9ba9 fd3c 17b4 4e3c 77fa 333d f90b 68bc
00000330: 4b0f fb3b e5b7 0a3d cbb0 5d3d 3ca0 04bc
00000340: 8267 44bc 7c7b d33a 911f 253d 63d6 563c
00000350: 7727 6abb f81d eebc 8a05 db3c 061d c13c
00000360: ae79 633b dafa cfbb 6a5b b6bc 6928 2a3d
00000370: a32e 87ba 223c 953c 101f 16bc 4f82 eb3b
00000380: 69cd 643d ac45 fe3a aed7 3ebb 5b41 113d
00000390: ab14 e53b 746d 82bb ed09 2cbc 7ea5 babc
000003a0: 7895 443d 80da 813d cd4a abbc b575 783c
000003b0: 81a1 8abc c703 36bd 45c1 f13c 9abe b13c
000003c0: 559a feb9 70da d13c 29ee 9f3c fe04 703d
000003d0: 0fcb 11bb a66a 1ebb a675 2fbc ef47 90bc
000003e0: 6751 70bb d170 803d a51b dfbc ff6e b83c
000003f0: 2d7a 57bc 48d2 af3c be6c 90ba e83c 0a3d
-0.013120986 0.038739648 0.0037668576 -0.0050743907 -0.011350775 0.041853357 0.030036315 0.024652151
0.0028930393 -0.004732556 0.019773258 0.0058858804 -0.0089030415 0.052182097 0.04714505 0.05523856
0.07118743 -0.019664768 -0.013382049 0.026662065 0.035679597 0.01871514 -0.0003553196 -0.02122755
0.059275605 0.0024994556 -0.0059016985 -0.0071994076 -0.0119400155 -0.011488524 0.04635565 -0.0050472356
0.0046528024 0.031598445 0.038367935 -0.0059811748 0.010893393 -0.004087472 0.0147655625 0.020142758
0.033057224 0.016522039 0.0002961992 0.031886797 0.037067566 0.020825736 -0.025952011 0.010202011
-0.012558426 0.07011214 -0.01993758 -0.011662222 -0.01872076 -0.012312775 0.03325252 0.0009004627
0.015679277 0.054064434 0.043223266 -0.006345526 -0.02099603 -0.008659627 0.04140483 0.03945714
0.056117702 0.055054802 -0.016024197 0.05047816 -0.0029593448 -0.018236335 0.0030420902 -0.0019180685
0.005478558 0.047982674 -0.017927818 0.037072673 0.0039764917 0.023582472 0.045072246 0.003375121
0.025214445 0.014708327 -0.0020820214 0.037302006 0.015883207 0.037029214 0.03158348 0.0052137114
0.035388026 0.00016389179 -0.009677766 0.032582592 0.029176317 0.00017358252 -0.0057852045 0.025129054
0.009829971 0.04253773 0.04619481 -0.014967471 -0.00045686762 0.05445004 0.026637323 0.035850216
-0.030439978 0.005868103 0.0017780021 -0.010116403 -0.017032487 0.051417366 0.0076871146 0.024618847
0.02825686 -0.0016450913 0.018241573 -0.006810739 0.0016892137 -0.009653132 -0.009650164 -0.011203772
-0.009691361 0.036314484 -0.0068328246 0.004118106 0.01750339 -0.01955721 0.014740407 -0.018094445
0.007520961 -0.0077362233 0.020705324 -0.0019163804 -0.0014538071 0.013788899 -0.002702306 -0.004639866
0.050681777 0.060100097 -0.016311632 -0.012189758 -0.00052962964 0.042069346 0.038984492 0.02606247
0.008709701 -0.023310117 0.013843469 -0.021458352 0.035030052 0.004418992 -0.0039493404 -0.017521879
-0.011180744 -0.023206618 -0.009076294 0.03665418 -0.0009707751 -0.014274981 0.048015125 0.005289927
0.011731518 0.037089296 -0.027959011 -0.026363477 0.04535835 0.04759889 -0.004989832 -0.015531879
0.024146808 0.03279746 0.0013743872 0.0062705684 0.058758758 0.037864022 -0.008296447 -0.017660439
0.03523312 -0.015192133 0.0032592453 0.036367614 -0.010108765 0.010465349 -0.023855211 0.015342164
-0.0017440432 0.031710982 -0.012024257 0.024135465 0.03852626 0.016110782 0.050780542 0.008613863
-0.011354611 0.018164458 -0.0048177554 0.028305002 0.0153218545 0.0010813567 -0.015438525 0.013273678
0.030964663 0.012616179 0.043940034 -0.014163011 0.007661735 0.03386678 0.05412368 -0.0080948435
-0.011987569 0.0016134824 0.040313307 0.013112637 -0.003572909 -0.029067025 0.02673604 0.02357341
0.0034709978 -0.0063470425 -0.022260386 0.041542444 -0.0010313581 0.01821715 -0.009162679 0.007187165
0.055859957 0.0019399426 -0.0029120254 0.03546272 0.006990989 -0.003980333 -0.010500413 -0.022783991
0.047994107 0.06340504 -0.020909691 0.015164782 -0.016922714 -0.044437196 0.029511103 0.021697331
-0.00048561642 0.025616854 0.019522743 0.05859851 -0.0022246276 -0.0024172454 -0.010709202 -0.017612426
-0.0036669613 0.06271518 -0.027234862 0.022513865 -0.013151688 0.021462575 -0.0011018736 0.03374949

StatefulPartitionedCall/sequential/dense_2/BiasAdd/ReadVariableOp:0 f4 [256]
00000000: 01a0 a23a ea5c b43a ae2e 423a 652c f4ba
00000010: 2321 143a 0b8a abb9 3d16 2f3b e785 2f3a
00000020: e09d b8b9 28be beb9 51ac 3838 34fd 44ba
00000030: da18 25b9 731e 1a3a 4633 053b f7b6 29ba
00000040: 7d51 51b9 f456 553a 4bea bcb7 7d51 953a
00000050: f106 16ba bbe3 3938 ca3a bcb9 af9b 443a
00000060: cf03 723a 876e 00ba 38a5 84b9 aa54 1a39
00000070: 9d67 baba 710c 073b ea2c 2f3a 0e87 6c3a
00000080: cad9 4cba 4b4b 5b3a 7db5 d93a 2ca8 a1ba
00000090: d04c 6ab9 748f 82ba 75a9 edb9 b6c9 d3ba
000000a0: cc7b f139 a54b ba3a 6e66 293b 95b6 f8b9
000000b0: f0a8 18ba b6b3 97b9 a873 f13a 841d c4ba
000000c0: 433a 4a3a 95db edba 3a2c 87ba 30b6 20ba
000000d0: fde1 7dba 0005 583b c790 d13a a220 84ba
000000e0: 5652 373a 28eb d939 e73f 5139 7972 e839
000000f0: 122b 9f3a 095f c43a 6e5c bb38 4400 643b
00000100: ad07 5d38 9800 d0b9 bdad f93a 4111 83bb
00000110: cab4 18bb feea 0bbb 0a34 d839 6826 1c3a
00000120: 6114 2dbb 8c8f 9039 8607 843a 6471 0b3a
00000130: 5354 d839 f6ae 93ba 5967 1a3b 237b 7dba
00000140: f9ef dbba 574d 39bb f0ba f93a 59a1 0b3a
00000150: e5ae 4a3a 3a9b aaba 0c9e 17b9 02e7 5c3a
00000160: 21d0 aeba 3e28 38bb b30f 9bba e54f a8ba
00000170: 420d 6139 b92d 2aba d222 a839 eeaa 76b9
00000180: cd79 173b 4dff 8f3a e60f d3b8 7b99 7eba
00000190: 0be9 f639 0eb4 e9b9 bffc 26b8 0aba 88b9
000001a0: 33e8 973a b729 4c3a f2b3 85ba 42d7 413b
000001b0: f583 13bb da54 1d3a 8ea0 cf3a d494 3bba
000001c0: a9a9 c539 cca6 57ba db3d e839 7d73 fe39
000001d0: d9d4 3a3a e164 023a 703c f1ba c4a0 9239
000001e0: 9ea5 813a f5d6 6f38 75e5 743a 21c9 f1ba
000001f0: f9bf 16ba c2c3 553a ebc0 a639 2e71 96ba
00000200: 238e 14bb 7585 e839 9881 093a 04db f538
00000210: 7570 0b3a b64a dc3a b6bd 3739 0723 77b9
00000220: b882 433a b5a8 99b9 be53 d0b9 1263 c3ba
00000230: a03d 54ba 657d 3c3b b8d4 0cba 76d4 c83a
00000240: 13f9 9aba b8d7 e5ba f439 3339 dac5 d839
00000250: 7b35 bfb9 fde9 c93a 4a77 37ba 530c a037
00000260: 5edd fbba 48a1 9dba 7129 02b8 234e ccba
00000270: 4e6d 39b9 0d1c 44b9 0f2e 2c3a 6395 603a
00000280: b714 253a c0aa 5839 f3e2 04ba 18dd e3ba
00000290: fbcc bc3a b77d 85b9 ab58 1cbb 866d 1ab9
000002a0: 7f52 873a 9e8e 76ba 3c30 cd3a ca40 8fb9
000002b0: c033 6eba 43ed 5b38 4061 cbb9 f96d 03ba
000002c0: 5a49 de3a ae42 ad3a 4af7 85b9 df72 c93a
000002d0: 318c 77ba ee88 9339 5aa6 92b9 0cf0 20b9
000002e0: 4046 4c3a e766 47ba eb4b aeba 1acf d8ba
000002f0: 7739 813a d73d 693a 6621 40ba 06a8 a3ba
00000300: 707a 55b9 608e b9b8 ba36 b4b9 2f34 84ba
00000310: e1d9 3638 7833 573a 20b9 b03a c644 68ba
00000320: a1b5 17bb c5b8 8939 9301 47b9 4f80 5aba
00000330: d29e dbba b4ca fcb9 53c3 38bb cd0a e0ba
00000340: f561 feb9 f76d 053b b2f2 de3a 9f9d c9ba
00000350: c636 5bba b116 8939 18bb d6b8 3bfb a23a
00000360: 5303 ecb9 1177 ae39 ddb7 e4ba 39d8 053a
00000370: f38e ea37 8aaf e438 83cd 1eba 8dd8 b03a
00000380: 99cd bb37 fb32 3ebb 0c2f beb8 d152 a238
00000390: 977e 90ba 2191 ae3a 7e13 3fba f316 283a
000003a0: ac14 6639 adda e5b8 1068 693a 1d3a d9b8
000003b0: 5b9c 9739 f545 8bba b100 f0b9 6c38 5c3a
000003c0: d0fa d839 260b 06ba 95a1 823a 89af 4339
000003d0: 695d 883a 573b 7b3a 30c7 163b af21 6b3a
000003e0: d7e2 8dba 1367 beb9 552b 3c39 5610 4939
000003f0: 9087 3fba 7540 3aba 7d1d 1e3b 73d5 f93a
0.0012407304 0.0013760601 0.00074074685 -0.0018628953 0.000565069 -0.00032718512 0.0026716136 0.0006695673
-0.0003521284 -0.00036381301 4.40295e-05 -0.0007514537 -0.00015744884 0.0005879171 0.002032475 -0.0006474102
-0.0001996215 0.0008138262 -2.2520448e-05 0.0011392083 -0.000572308 4.4319528e-05 -0.00035901956 0.00075000053
0.0009232135 -0.00048992824 -0.000253001 0.00014718124 -0.0014221553 0.002060678 0.0006682413 0.000902281
-0.00078144355 0.00083654065 0.0016609874 -0.0012333444 -0.00022344594 -0.0009960965 -0.00045330418 -0.0016158137
0.00046059338 0.0014213218 0.0025848406 -0.0004743828 -0.00058235135 -0.0002893486 0.0018421309 -0.001496241
0.000771437 -0.0018147106 -0.0010312863 -0.00061306637 -0.0009684859 0.0032961965 0.0015988582 -0.0010080526
0.0006993165 0.0004156467 0.00019955599 0.00044335777 0.0012143573 0.0014981936 8.934071e-05 0.0034790197
5.2697655e-05 -0.00039673294 0.001904897 -0.0039998596 -0.0023301118 -0.0021349783 0.00041237503 0.0005956651
-0.0026409852 0.0002757277 0.0010073043 0.0005319326 0.00041261557 -0.0011267352 0.0023560135 -0.0009669533
-0.0016779891 -0.0028274858 0.0019052904 0.0005326472 0.000773175 -0.0013016232 -0.00014459359 0.0008426757
-0.0013337174 -0.0028100158 -0.001183024 -0.0012841193 0.00021462611 -0.00064917986 0.000320694 -0.00023524064
0.002311337 0.001098612 -0.00010064225 -0.00097122014 0.00047094407 -0.00044575374 -3.9812872e-05 -0.0002607855
0.0011589587 0.00077881984 -0.0010200723 0.0029577767 -0.0022509072 0.00060017186 0.0015840696 -0.0007155661
0.00037701175 -0.0008226454 0.00044296574 0.000485327 0.00071270537 0.00049741386 -0.0018404853 0.0002796707
0.0009891277 5.7182235e-05 0.0009342053 -0.0018446782 -0.0005750652 0.00081544754 0.00031805722 -0.0011477822
-0.0022667728 0.00044349922 0.0005245446 0.00011723305 0.00053191866 0.0016806934 0.00017522913 -0.00023568804
0.0007458138 -0.0002930813 -0.00039735244 -0.0014906845 -0.0008096341 0.0028761264 -0.0005372274 0.0015322107
-0.0011823497 -0.0017535603 0.0001709236 0.0004134614 -0.00036470205 0.0015404817 -0.00069986715 1.9079225e-05
-0.0019215753 -0.0012026215 -3.103301e-05 -0.0015587251 -0.00017683694 -0.00018702466 0.00065681426 0.0008567182
0.0006297337 0.00020662975 -0.00050692185 -0.0017384617 0.0014404351 -0.00025461402 -0.0023856561 -0.00014727385
0.0010324268 -0.0009405407 0.0015654634 -0.00027323357 -0.0009086691 5.2434636e-05 -0.00038791634 -0.00050136406
0.0016959116 0.0013218725 -0.00025551982 0.0015369317 -0.00094431924 0.00028140045 -0.00027971232 -0.00015348213
0.00077924505 -0.0007606581 -0.0013297772 -0.0016541213 0.0009859045 0.00088974595 -0.00073291955 -0.0012485988
-0.00020358874 -8.848007e-05 -0.0003437305 -0.0010086353 4.3595097e-05 0.00082092686 0.0013482906 -0.00088603457
-0.002314903 0.0002626834 -0.00018978705 -0.00083351595 -0.0016755706 -0.0004821621 -0.0028192594 -0.0017093063
-0.0004851964 0.0020359734 0.0017009585 -0.0015382058 -0.0008362349 0.00026147583 -0.00010239164 0.0012434492
-0.00045015904 0.00033276578 -0.0017449815 0.0005105767 2.796154e-05 0.00010904584 -0.00060578453 0.0013492272
2.2387876e-05 -0.0029022086 -9.068669e-05 7.740188e-05 -0.0011024055 0.0013318398 -0.00072889763 0.0006412111
0.0002194221 -0.000109603025 0.0008903751 -0.00010358191 0.00028917458 -0.0010625707 -0.00045776882 0.00084007415
0.000413856 -0.00051133556 0.0009966368 0.00018662041 0.0010403815 0.00095837325 0.0023006909 0.0008969558
-0.001082505 -0.0003631642 0.0001794522 0.0001917494 -0.0007306272 -0.0007104942 0.0024126463 0.0019060805

StatefulPartitionedCall/sequential/dense_1/MatMul/ReadVariableOp:0 f4 [17, 512]
00000000: e34f f3bb 20eb c5bd 5e4d dc3c e76b a2bd
00000010: 37b0 11bc 87de b83d d071 0f3d 0635 483d
00000020: 92a2 aa3d 4420 7d3b e84f 523c 2d81 903d
00000030: 2c54 ebbd e033 b93d 012a 943d ac6b ca3d
00000040: ec1a 14bc 0582 6a3d dd7c 73bc 90d2 e8bc
00000050: fc41 24bd 9956 2c3e ae1d c03d 7b14 593d
00000060: e6d9 04bc 3d78 693b d193 fbbd 923b 7d3c
00000070: 4524 cb3c 8a33 af3c c671 023d 4564 ab3d
00000080: 780e afbd a23d 7b3d 212c ccbd f4be 47bc
00000090: b8d3 e7bd b127 b53c dec2 603d 0dd6 87bd
000000a0: 3f9f ec3a 065f d83d b6d7 d93d d588 5d3d
000000b0: c79a bcbd 536c 99bd 57a0 03be dfe5 893c
000000c0: 7192 adbd eaad dbbc c3a0 2b3c 4ee0 9cbc
000000d0: b527 233d cb96 b33d 392c df3d af7b 8fbd
000000e0: 8a67 fa3c 0727 433d 5b5f 90bc b8d9 cebd
000000f0: 3eaf 5e3c 0f01 0b3d 582f ac3d df99 9e3b
00000100: dfc9 8f3b 4d2e 46bd 5403 24bd e796 5a3d
00000110: 437a c43c dfc3 a4bd c323 61bd a4b3 31bc
00000120: 537b cf3d 4898 31bc 9496 84bd cdeb 863c
00000130: ba57 f73d 8491 273e bd1d 90bd 2c00 253d
00000140: e262 e33d 5e71 d53d a60d 033d 46c4 5d3d
00000150: a93a 7f3d 1817 1f3e 6f93 ddbd 976a f13c
00000160: 3a78 7aba 09ca 143d e3f9 b6bd f210 35bd
00000170: 306a adbb 8ba7 2b3d 8186 c2bc d734 02be
00000180: 5bad 123e 3438 da3c 4378 d6bb 67f0 173e
00000190: fb4e e83c f23e 5f3e 606d 0d3c 9845 da3c
000001a0: e393 c1bc 545d bdbd 9ec3 5abd 782c 3c3d
000001b0: 3361 4ebd 34e6 153d 23e0 d5bd df66 13bd
000001c0: 560b 3bbc d803 2e3b be97 d0bd 6e22 f1bd
000001d0: ec20 1d3c ff7a aebc 5a63 35bc 4f8a 5ebd
000001e0: 152b 9f3c bc94 fcbd d2f2 b33a 5724 6cbc
000001f0: 53d5 29bd 7f37 ecbd c471 9ebd 9aa6 d63d
00000200: 82f3 19bc 4c3f e83c d02a 3b3d 1678 323d
00000210: 3048 f1bc 5010 e23c 26ef b33d b648 cf3c
00000220: 812b 7d3d 1841 88bd 79aa b6bd 06b9 ecbc
00000230: 7288 21bc 8908 303e 4642 423d b4d7 83bd
00000240: 0d5d 9fbd 4789 343d 743d 063d 8792 1d3d
00000250: 97a8 f83b 5ba6 153d df81 983d ab96 27bd
00000260: a2bf b8bc 2f5a 07be acef 843d bdd5 703d
00000270: 7678 0cbd ae00 2d3d 7fc8 16bd 1779 d13c
00000280: c172 26be 9090 bfbc cdb7 bebc 1231 3a3d
00000290: 9970 373a b09d 73bd 8631 a1bd 533d 3d3b
000002a0: 53fa abbd 2902 ad3b 9603 863d 845e 7d3d
000002b0: dc32 543d 34bf c8bb d255 92bd 0c11 563c
000002c0: f17e eb3d 6856 813c 7c50 2e3e 40cc 4f3c
000002d0: 97b4 303b c932 a13d cd5d d13d 9e81 823d
000002e0: fb55 833d ae1f d4bd 092f 89bd 2aaf 91bb
000002f0: 7010 253c 6546 20bb 92e9 343d a813 e6bc
00000300: 58e1 9f3d 68a9 563d 1ffb 72bd 6493 9fbd
00000310: d09a fdbc e7e5 703d 3ef8 9abc 8f9d 3b3c
00000320: c885 9fbd 626c 263d fc75 513c 16e3 b0bd
00000330: 9e32 35bd a227 f2bc 99e2 d13c 4b6a 0d3d
00000340: 8781 073e 3cf7 64bd 9961 003d ba25 30bd
00000350: a50f 16bd 5889 1c3e e528 49bc d959 32be
00000360: 6da7 523c 549d d83b c6d4 743d fc6b 803d
00000370: 12b6 233d fce5 abbd f276 b83d a975 c2bc
00000380: b135 aa3c ca6b b6bd e351 823d 1920 0f3e
00000390: 0fd1 cfbd 4069 4cbc 8155 1d3e 0c80 983b
000003a0: cb43 113d d306 963c 7123 7abc 6ff4 233e
000003b0: 4713 c1b9 fe70 7f3d cf45 b3bb 681b 7f3d
000003c0: 9669 8dbc e19e 043e ffea 053d 1425 82bc
000003d0: ada2 0cbe e62b b93c 962a 113d f783 ffba
000003e0: 55eb ca3b cd66 e8bc 7fc7 b4bc 6c69 7bbc
000003f0: 81e5 19bd 9428 89bc 327a b43c dc25 f7bc
-0.0074252947 -0.09663987 0.02689236 -0.07930737 -0.008892111 0.09026819 0.03502065 0.048878692
0.08331789 0.0038623968 0.012836434 0.07055888 -0.11490664 0.090430975 0.07234574 0.09883818
-0.009039622 0.057252903 -0.014861313 -0.028420717 -0.04010199 0.1682991 0.09380661 0.052998047
-0.008108592 0.0035624646 -0.12284053 0.015456097 0.024797568 0.02138688 0.031846784 0.08368734
-0.085476816 0.061338075 -0.099693544 -0.012191523 -0.11319679 0.022113653 0.05487334 -0.06632624
0.001805283 0.10564999 0.10636847 0.05408557 -0.09209209 -0.07491364 -0.12854134 0.016833244
-0.08475197 -0.026816327 0.01047534 -0.019149926 0.03983279 0.08768996 0.10897107 -0.07006013
0.03056695 0.04764464 -0.017623594 -0.1010012 0.013591586 0.033936556 0.084074676 0.00484012
0.0043880786 -0.048384 -0.040042236 0.053366568 0.02398408 -0.08045172 -0.054965746 -0.010846052
0.10130944 -0.010839529 -0.06474033 0.01646986 0.120772794 0.16364104 -0.07036922 0.040283367
0.11102845 0.10422014 0.031995438 0.05414226 0.062311802 0.15536153 -0.10819136 0.029469771
-0.00095546583 0.03632549 -0.08934381 -0.044205613 -0.0052921996 0.04190783 -0.023745777 -0.1271547
0.14323942 0.026638128 -0.006545098 0.148378 0.028357973 0.21801355 0.008632034 0.026644513
-0.023630088 -0.092463166 -0.05340921 0.045940846 -0.050385665 0.036596492 -0.10443141 -0.035986777
-0.011416277 0.0026552584 -0.101851925 -0.11774145 0.009590369 -0.021298883 -0.011071051 -0.05433112
0.019429723 -0.12333056 0.0013728982 -0.014412961 -0.041463207 -0.115340225 -0.07736543 0.104809955
-0.009396436 0.028350495 0.045695126 0.043571554 -0.029453367 0.027595669 0.08785848 0.025303226
0.061809067 -0.06653041 -0.08919234 -0.02889682 -0.009859191 0.17190756 0.047426485 -0.064376265
-0.0778142 0.04407623 0.03277345 0.038469817 0.007588457 0.036535602 0.07446646 -0.040915173
-0.022552315 -0.13217996 0.06491026 0.058797587 -0.034294568 0.042236976 -0.0368123 0.025570435
-0.16254713 -0.023384362 -0.023281002 0.045456953 0.00069976744 -0.059476554 -0.07870774 0.0028875663
-0.08397355 0.0052797985 0.06543653 0.061857715 0.051806316 -0.006126309 -0.07145275 0.013065588
0.114988215 0.015788272 0.1702289 0.012682974 0.0026963109 0.078710146 0.10222969 0.06372379
0.06412884 -0.10357605 -0.06698424 -0.00444593 0.01007472 -0.002445602 0.044168063 -0.028085545
0.07806653 0.052407652 -0.05932152 -0.077917844 -0.03095761 0.058813002 -0.0189172 0.011451139
-0.077891886 0.040630706 0.012784477 -0.08637063 -0.044237725 -0.029559914 0.025620745 0.034525197
0.13233005 -0.055899844 0.031343076 -0.04300473 -0.036636014 0.15286767 -0.012277816 -0.17417087
0.0128573 0.006610552 0.05977323 0.062705964 0.039968558 -0.083934754 0.09007062 -0.023737745
0.020777555 -0.08907278 0.06363275 0.13977088 -0.10147297 -0.012476265 0.15364648 0.0046539363
0.035465043 0.0183138 -0.015267239 0.16011213 -0.0003682619 0.062363617 -0.0054709683 0.062281996
-0.017262261 0.12951232 0.032694813 -0.01588682 -0.13733931 0.02260394 0.035441004 -0.0019494285
0.0061926045 -0.028369332 -0.022067783 -0.015344959 -0.037572388 -0.016742982 0.022030924 -0.03016942

StatefulPartitionedCall/sequential/dense_1/BiasAdd/ReadVariableOp:0 f4 [512]
00000000: 79c5 f7bb 719d c33b 07ad f2b9 452b 883b
00000010: 2b58 75bb 8cf7 34bc 2d4b 153a fd37 e53b
00000020: f48e 703b 35b8 e139 6af4 96bb 4781 9d3a
00000030: d4eb 963b f315 e1ba 4b98 18bc 6912 0a3c
00000040: 885b fabb 164f 82bc d1de d1bb dd15 f5bb
00000050: 72aa 853a aec3 803b 1c70 9cba 560a fcba
00000060: a313 173a ef40 b2bb 5893 ad3b ab6e bf3a
00000070: 74d7 aabb c55f a1bb 21c4 fb3a 7a14 823b
00000080: 558e 22bb f64c 933c 6e7d 173c 1fae e93a
00000090: e661 48b9 6aad c93a 596b a43b ce54 32bb
000000a0: c2e1 30bb 8dd1 7bbc f8f6 e03b 14d9 e1bb
000000b0: 8e9d 91bb 9ecd 9fbb 0031 84bc 2db3 bcba
000000c0: 9e06 e33b bc51 933b f718 a7ba db5b 2abb
000000d0: cec7 b7bb d5dc 833b 3a9f a1bb c5ad 853c
000000e0: ad44 3cba c621 9a3b 4114 e2bb a9b2 3bbc
000000f0: 972b c73a feda 4ebb f2ab 8139 44dd 63ba
00000100: 4d6c 71bb 3157 573b ed56 0abc 5a89 883c
00000110: 29ca 0fbb 53eb fdbb 6ef9 2ebc 0ece bebb
00000120: e8f0 a4bb e2fd 90bb 103c c1ba c1d1 ff3b
00000130: 373c 953b 2476 b63b 4ac6 8c3b a093 cc3a
00000140: 06a7 d8bb 610a 3abc 3b34 44bc 3294 caba
00000150: bac0 013c e4c2 223c b7e2 8bbb 2e8b bfbc
00000160: 8282 433a 313e e8ba a8ee d23b 1458 cd3b
00000170: 6010 71bc c6f2 d5b9 eca2 b4bb 2433 2dbc
00000180: e9ac febb 7f52 0abc a139 85b9 681f 8f3b
00000190: 53ff 30bb 529c 50bc 6744 a4ba 4eec aabb
000001a0: 559b 3c3b 32eb ccbb 2571 9bb9 153b 43bb
000001b0: 41ec 9d3b 49f5 2ebb 6359 f13b e39e 38bb
000001c0: 842d 8a3b 279b 9abb cd9e a53b 796f 8abb
000001d0: 4225 64ba 1175 8cbb 0f96 b9bb a1e8 e3bb
000001e0: b2dd ceba 8a5d 0bbb 6de6 93bb 53fe 653b
000001f0: f850 4739 3891 a6bb a659 cd3b fb56 2c3c
00000200: ec98 b53b 8d42 953b ef2f 1cbc 48c6 e7ba
00000210: f3cd ef3a aa82 2ebb 3593 3f3b ddc8 a03b
00000220: c34f 073c 5969 0d3c 3249 493c 1741 0dbc
00000230: 03ca 22bc 337b 6cbb 27c9 3cbb 5a52 51bb
00000240: 5460 213b 1dee bb3c ddcb 10bc 9808 f0ba
00000250: 1e68 52bb aa2c 453b 68e6 32bc 5163 15bc
00000260: 3f6d f53a 508d acb9 a010 90bb 0e67 bcbc
00000270: e072 8a39 ac09 22bb 7511 69bc 42ec 3c3b
00000280: 2e3d 523b 47dd f6bb d1b0 2b39 0ba2 0d3c
00000290: c5f6 4abb 6289 04bc 576d 24bc 7ee0 fdba
000002a0: e525 1d3c 0c06 73bb 150e 23bb bc15 6ab9
000002b0: 17ad 4c3b 01ae 6f3a 8872 fa3b 71cd 0fbb
000002c0: 24d8 703b 09b2 cf3b 7576 02bb 8596 9c3a
000002d0: b55d e73b 58c4 bfbc 7c13 ec3b 6d5b 2abc
000002e0: 6c9d aebb b714 02bc fca4 313c 3539 183b
000002f0: a534 7c3c bb64 38ba 7a7e d1b9 d072 da3b
00000300: 8b02 353c 1de1 603c c05a 1dbc 3665 3d3b
00000310: f7eb d8bb 574f 8c3b 28a7 083a e45a d53b
00000320: 2a93 a93b abf8 27bb e872 183b d4bf 2d3b
00000330: 89ea 1e3c ce09 a13a 6a91 d63b fb5b c83b
00000340: 4932 00bc 1197 cbbb ab55 56ba 6138 13b9
00000350: f56a d53b 3879 b1bc 5b22 983a 563f 04bb
00000360: a6d8 ab3b 811a 473a 6f53 373b e208 ee3b
00000370: 9985 f2bb 73af 4139 63dc 3dbb 7006 bf3b
00000380: b30a 10bc ee06 cb3b ac08 153c 365e 983c
00000390: d408 20bb dd28 853c 0e25 e4bb 5ada 2b3b
000003a0: 58e7 20bb 37ce d2bb ed55 ad3a 004d 5ab9
000003b0: 85ec 613b ee4e dabb 0651 f8ba 004a 76bb
000003c0: adc5 4cb8 1c7b 1d3c 048e 17bb d293 143c
000003d0: 3866 dc3c 8f60 05bc ccbf 063c 6cc6 273c
000003e0: f55c 3aba d669 f9ba a619 10ba 5e1a 92ba
000003f0: 7a03 a8ba b162 673a 12ab 5abb ac4a aa3b
-0.0075613824 0.005969696 -0.00046286752 0.0041555488 -0.0037436585 -0.011045348 0.0005695101 0.0069951997
0.00367063 0.0004305259 -0.004606773 0.0012016677 0.0046057496 -0.0017172679 -0.009313653 0.008427241
-0.007640306 -0.015906852 -0.0064047356 -0.007479413 0.0010197891 0.003929577 -0.0011935267 -0.0019229155
0.0005763119 -0.0054398696 0.0052971058 0.0014605125 -0.0052136723 -0.0049247467 0.0019208231 0.003969726
-0.0024804075 0.017981034 0.009246213 0.0017828381 -0.00019109956 0.0015386764 0.0050176797 -0.0027211192
-0.002699003 -0.015369785 0.0068653785 -0.006892333 -0.004443831 -0.0048768064 -0.016136646 -0.001439666
0.006928279 0.0044958275 -0.0012748529 -0.0025994692 -0.0056085354 0.004024128 -0.0049323114 0.016318211
-0.00071818643 0.004703733 -0.006899387 -0.01145617 0.0015195486 -0.0031563635 0.00024732907 -0.0008692334
-0.0036838234 0.0032858367 -0.008443576 0.016667057 -0.0021940565 -0.007749 -0.010679586 -0.0058229035
-0.005033601 -0.0044247964 -0.0014742631 0.007806987 0.0045542973 0.0055682827 0.004296099 0.001560796
-0.0066117076 -0.011355014 -0.011975343 -0.0015455543 0.007919485 0.009934161 -0.00426897 -0.023381796
0.0007458107 -0.001771873 0.0064371414 0.0062666032 -0.014713377 -0.00040807406 -0.005512586 -0.010571275
-0.0077720773 -0.00844252 -0.00025410674 0.0043677576 -0.0027007654 -0.012732582 -0.0012532593 -0.005216158
0.0028779109 -0.0062536234 -0.00029648203 -0.0029789854 0.0048194234 -0.0026696494 0.007365392 -0.0028170876
0.0042168517 -0.0047182026 0.005054331 -0.0042247144 -0.00087030616 -0.0042864163 -0.0056636403 -0.0069552218
-0.0015782623 -0.002126547 -0.004513553 0.0035094216 0.00019008282 -0.0050832294 0.0062667904 0.010518785
0.0055419113 0.0045550526 -0.009532913 -0.0017682994 0.001829563 -0.0026628175 0.002923203 0.0049067573
0.008258763 0.008631074 0.0122855175 -0.008621476 -0.009935859 -0.0036084175 -0.002880642 -0.0031939954
0.0024624066 0.02294069 -0.008837667 -0.0018313108 -0.0032105516 0.0030086436 -0.010919191 -0.009117917
0.0018724574 -0.00032911683 -0.004396513 -0.022998359 0.00026407 -0.0024725003 -0.0142253535 0.0028827344
0.0032079923 -0.0075337025 0.000163737 0.008644591 -0.003096984 -0.008089395 -0.010035834 -0.0019369272
0.009591554 -0.0037082462 -0.002488022 -0.00022324076 0.00312311 0.0009143055 0.0076430477 -0.002194252
0.0036749924 0.006338362 -0.0019907032 0.0011946714 0.0070607313 -0.023409054 0.007204471 -0.010397774
-0.0053288247 -0.007939509 0.010842558 0.0023227457 0.015393411 -0.0007034053 -0.0003995782 0.0066665187
0.01104797 0.013725546 -0.009604156 0.0028899438 -0.006619926 0.004281919 0.00052128965 0.006511079
0.005175014 -0.0025630395 0.002326185 0.0026512044 0.009699472 0.0012286247 0.0065480964 0.0061144806
-0.007824489 -0.006213077 -0.00081762177 -0.00014040015 0.0065129944 -0.021664247 0.0011606918 -0.0020179353
0.0052443324 0.0007595197 0.0027973314 0.0072642425 -0.00740118 0.00018471274 -0.0028970472 0.005829625
-0.008791613 0.0061958944 0.009096306 0.01859961 -0.0024419324 0.016254837 -0.006962425 0.0026222677
-0.0024551954 -0.006433274 0.001322446 -0.00020818785 0.0034473252 -0.006662241 -0.0018945045 -0.0037580729
-4.882149e-05 0.009611871 -0.002312542 0.009068446 0.02690421 -0.008140697 0.008224439 0.010240179
-0.00071091886 -0.0019028734 -0.0005496986 -0.0011146774 -0.0012818419 0.0008826657 -0.0033366126 0.00519689

StatefulPartitionedCall/sequential/dense/MatMul/ReadVariableOp:0 f4 [17, 17]
00000000: e794 e9be 1c5f d63e b646 b13c 6bd5 52bd
00000010: abcc 133e 4ad6 2b3e b5f4 37be 9530 57be
00000020: 62e8 91be 4145 76bc df15 893e 1c83 f2be
00000030: 4e90 fb3e 9a28 3f3d aff2 f73e d095 613e
00000040: 69e5 f2bd af10 62be 7150 d0be 473a b13e
00000050: 76a0 a63e fcc8 0f3e abfd 5cbd 25cd cbbe
00000060: a2e1 c73d 7b9c cb3e 310e b1be 9bdd 863d
00000070: 1114 ecbe 736c a73e 7bee 04bf 3ecf d1be
00000080: 0ebe eebd e115 75be f534 dc3e d5d3 28be
00000090: efe7 103e 1516 42be 4247 9dbe 975a cc3d
000000a0: d616 7dbe a2f5 5e3e d72e a43e 73bc 1ebe
000000b0: 7433 64be cce6 043f d773 ccbe ccaf 443e
000000c0: 26cc 91be 6e4c 7bbe a6e3 5e3e fdde 093e
000000d0: 561a b5bd aa3d 87be e7da 80bd 811c 79be
000000e0: af70 843e ced7 cc3e 19d7 c5be c0b7 d3be
000000f0: 3e4f 9f3e e6c3 643e 7b7a 943e 64b7 8dbe
00000100: be43 ad3e 4851 623e 5af1 ac3e 3655 fc3e
00000110: 8ad2 16be e0fd f7bc b6ec c0bd ac77 193d
00000120: 9a03 323e b3a6 5c3e 9ff1 e2be 6ad7 2dbc
00000130: 18a1 5c3d 3329 18bc e919 613d c035 263e
00000140: fdce f43d cdf3 993e 4843 863e db8c 373e
00000150: 9235 c0be 0778 8c3e 3716 8cbe d4da 24be
00000160: cb34 9d3e 003e 023e a4d5 2fbe 6111 90bc
00000170: 4ab6 3bbe 0502 e539 eb41 033e 0c93 953e
00000180: c451 bdbe 7714 6cbd b443 d3bd c929 2dbd
00000190: fd49 4a3e d86e b43e b6a5 1a3e c6cd 1ebd
000001a0: 1ee4 debd 2fc2 513e 80c6 953e 9b6b 1b3e
000001b0: e646 cc3d 5cd6 843e c678 1cbd 3fb7 94be
000001c0: aae1 6a3c b5cc 503d 1670 253e 0909 5a3e
000001d0: 2d54 ecbd c741 a9be 7ebd 9fbe c897 17bd
000001e0: 0d37 923e 1132 3dbd f6e5 83be cf61 2f3e
000001f0: 909d 383e 9173 81be 1e9f 89be 5670 a53d
00000200: 00eb 44bd 986e 6bbe 2121 5a3d 247e 65bd
00000210: c579 653d 7f3f 6fbc 4887 b73d 3240 4ebd
00000220: ab33 453d 6c40 ffbd 8ea8 b2be 2091 48bd
00000230: 23f0 7cbe 6190 a9bd 245c c3be 2113 01be
00000240: d4c1 44bd 1133 903e 1f6c bcbd cb6c 0cbe
00000250: 9b9d 813d f551 bc3e 619b 12bd 3230 973d
00000260: ae4e aa3e 5a07 1e3c cefb bcbe 0b1a c2be
00000270: 09b1 b4be ef97 7bbc ffc2 b4bc 8b81 003e
00000280: 857c 903e f46c b6bb d162 943e b4a2 33be
00000290: 8139 7bbe d858 afbd 8a46 51be cdb1 313e
000002a0: c3af 46be aafb 96be 3889 173e 6d3b fdbc
000002b0: 8697 d2be 0ee2 34bd f4e8 b73e 0568 a83e
000002c0: 665b 033c 91e4 94be 72f9 fb3d a540 863e
000002d0: 1b70 633d fba6 0a3d d8a7 233e 0e0b 38be
000002e0: 916c 6d3e a88d ef3c 99bb 63be 1b69 63be
000002f0: 8128 8fbe fd72 1b3d 5b4a 663e 0297 693e
00000300: b95f c23e c18f b0bc 9fc6 65be 0d09 0c3d
00000310: 2a07 303e 6e72 69be c578 db3d c8b1 f4bc
00000320: 4db8 a7bd e8eb 413e 9542 bbbd a72c 42be
00000330: 9daa 1abe 998e 303e 1304 a63d e1ce 213e
00000340: d063 15be fab3 6fbd f6ea b03e f96c 9cbd
00000350: 10b6 9c3e 98a4 013d a9fc 13bd 814b a03d
00000360: 5d30 dcbd a7c8 abbd 5921 253e c2c4 b43e
00000370: 0006 38be b085 863d 6235 cbbe 7fd3 3dbe
00000380: e0ef 373e 500e 7dbe 65c9 bebd 4c13 233d
00000390: 15f7 c4bd 44c2 dbbd d259 ac3e 9c55 cabe
000003a0: e239 51be e188 163d 8b0f 5cbe 3ca0 123e
000003b0: eefc 6d3e 7644 9c3e 65fc 07be 390b 3abc
000003c0: 80d0 d73e 5ece 0f3c 3d47 d6bc 5144 a6be
000003d0: 52e2 73be 8da4 943d 69a7 90be 088c 85be
000003e0: 7d31 b5bd 056f 4b3e fb9a 823d cc26 2bbe
000003f0: c259 f7bd b717 c7be c8f6 643e c376 ea3d
-0.45621416 0.41869438 0.021640163 -0.051473062 0.14433543 0.16780964 -0.17964442 -0.21014626
-0.28497607 -0.01503116 0.267745 -0.47365654 0.49133533 0.04666958 0.4842734 0.22029805
-0.11860163 -0.22076677 -0.40686372 0.34614775 0.32544297 0.14041513 -0.053952854 -0.3980495
0.09759833 0.39767823 -0.3458114 0.06585237 -0.4610906 0.32699928 -0.5192639 -0.40978426
-0.11657344 -0.23934127 0.43009153 -0.16487058 0.14150976 -0.18953736 -0.30718428 0.09978216
-0.24715742 0.21773389 0.32066986 -0.15501575 -0.22285253 0.5191467 -0.3993213 0.19207686
-0.28476065 -0.24540874 0.21766528 0.1346397 -0.08842914 -0.26414233 -0.06291752 -0.2432728
0.2586722 0.40008396 -0.3864067 -0.41351128 0.31115144 0.22340354 0.28999695 -0.27678978
0.33840746 0.22101319 0.33777887 0.4928376 -0.14728752 -0.030272424 -0.09420149 0.037467644
0.17384186 0.21547966 -0.44324967 -0.010610441 0.05386457 -0.009287166 0.05495635 0.16231441
0.119535424 0.30068818 0.26223207 0.17924826 -0.3754087 0.27435324 -0.273607 -0.16099101
0.3070434 0.12718964 -0.17171341 -0.017586412 -0.18331257 0.00043679788 0.12818114 0.2921375
-0.36976445 -0.057636704 -0.10315648 -0.042276178 0.19754787 0.35240817 0.15102276 -0.03877046
-0.10883354 0.20484231 0.29253006 0.15177767 0.0997446 0.25944793 -0.038201116 -0.29046056
0.014336029 0.050976474 0.16156039 0.21292509 -0.11539493 -0.33057997 -0.3119926 -0.037009984
0.28557625 -0.046190325 -0.25761384 0.17127155 0.18028855 -0.25283483 -0.2687921 0.08078067
-0.048075676 -0.22991407 0.05325425 -0.0560285 0.05602433 -0.014602541 0.0896135 -0.05035419
0.048144978 -0.12463459 -0.34894222 -0.048966527 -0.2470098 -0.08279491 -0.38156235 -0.12604953
-0.04803641 0.2816396 -0.0920031 -0.13713376 0.06328889 0.36781278 -0.035792712 0.073822394
0.33263153 0.009645307 -0.36910862 -0.37910494 -0.35291317 -0.015356048 -0.022065638 0.12549417
0.2822 -0.0055671874 0.2898164 -0.17542535 -0.24533655 -0.085618675 -0.20437065 0.17352982
-0.19402985 -0.2948888 0.14798439 -0.030912125 -0.41131228 -0.044160895 0.35919917 0.3289186
0.008017397 -0.29080632 0.12303437 0.26221195 0.055526834 0.03385065 0.15981996 -0.17972967
0.23185946 0.029242352 -0.22239532 -0.22208063 -0.2796059 0.03795146 0.22489302 0.22811511
0.37963656 -0.021552922 -0.22439049 0.03418832 0.17190233 -0.22797558 0.10716394 -0.029869929
-0.081894495 0.18937647 -0.09143559 -0.18962346 -0.15104146 0.17241897 0.08106246 0.15801574
-0.14588857 -0.05852125 0.3455426 -0.076379724 0.30607653 0.03165111 -0.036129627 0.07826901
-0.10751412 -0.08387881 0.16126002 0.35306364 -0.17971039 0.065684676 -0.39689165 -0.1853771
0.17962599 -0.24712491 -0.09315757 0.039813325 -0.0961744 -0.107304126 0.33662277 -0.3951844
-0.20432237 0.03675163 -0.21490304 0.14318937 0.23241016 0.30520982 -0.13279875 -0.011355215
0.4215126 0.008777229 -0.026157016 -0.32473996 -0.23816803 0.07257948 -0.28252724 -0.26083398
-0.0884733 0.1986657 0.063772164 -0.16714019 -0.12077667 -0.3888528 0.22359765 0.11448433

StatefulPartitionedCall/sequential/dense/BiasAdd/ReadVariableOp:0 f4 [17]
00000000: 529a 7d3d 5b6c 18bd c4ac 923d ab11 18bd
00000010: ff1b 3d3b 453f 653d 8c68 43bd 8490 3ebd
00000020: 416b 983d 432e 283d f34a 6dbd f3a7 0f3e
00000030: 764c 98bc 81ff 2c3d 2875 7e3c 7235 8bb9
00000040: cd34 443b
0.06191475 -0.03721271 0.07161859 -0.037126224 0.0028855798 0.05596854 -0.047707126 -0.04652454
0.07442332 0.041059744 -0.057932805 0.14028911 -0.018591147 0.042235855 0.015530862 -0.00026551966
0.0029938698

StatefulPartitionedCall/sequential/batch_normalization_3/batchnorm/sub:0 f4 [256]
00000000: 26b3 d3be 1d77 9abd a425 8c3d c84b 4bbe
00000010: 80ce 95bc 0aad b7be 5dfe 01bf 6a6c eabe
00000020: 6ebb b8be e7bd f4be 74d9 f3bc 6375 abbe
00000030: 29a6 81be cc39 cfbe 8f79 1fbe 91a5 eebd
00000040: 8a3d ecbe 7152 cebe b086 6ebe 72d4 9bbe
00000050: a48d 97be 4604 b5bd f8de 31be f16c e6bd
00000060: acb6 0abf 28cd d1be 234f 34bd 7c56 3abe
00000070: 6eb9 29bf 183d 89bc cc42 96be 3ebf 68be
00000080: df4f 34bf 987c 4abe eba9 30be 3a4d 81bd
00000090: e034 fbbe eab5 efbd 23f3 a4be 9f6c adbe
000000a0: c65e a1be 8203 56bf 1759 c4be da01 cabc
000000b0: 72e6 03bf 94eb 4dbe 84e2 32bd f8b8 50be
000000c0: 4771 efbe 9a5e 99be 84bf 3cbe 59d8 aabe
000000d0: a5b2 8a3d e0c6 b8be f68d 81be fe16 ae3c
000000e0: d124 90bd 60d0 cfbe 9016 ffbe f66f 26bf
000000f0: d6a5 2fbe 78de 9f3e f1f2 94be 7387 00bf
00000100: fe07 963e 26b8 b2be ffe5 29be 0202 50be
00000110: 3a4c a9bd 3055 4cbe d8e1 25bd 4c29 5abe
00000120: 04c7 33bc 8ebf 68be 4606 aabd 20f7 37be
00000130: a328 10bf b8bd adbd 7204 9dbe 0117 f0be
00000140: dbd2 11bf f6e0 6fbe 607d 27be 8b8e 3cbe
00000150: 392f 61be 10e2 b0be f349 70bd 6fde e1bd
00000160: aabd b4bd 921a 01bd 4d00 90be b2e7 3bbe
00000170: 82bc 7d3d fa63 dcbe c60b 94be 2663 13bf
00000180: d6e4 f1be ec17 023d c2b9 c5be be45 40be
00000190: dfbd 9bbe aa8f cabe 9254 0dbe e4fc 42bf
000001a0: 08e1 3d3e 96bb 19be c470 bbbe 02eb 4bbd
000001b0: d05b 0bbd 7b44 25be 669f 09be 51a9 73be
000001c0: 88cf 39bd 5841 86bd 437f 02be 50b6 ab3c
000001d0: 70ba f6bd 48ca 94bc 37fb 6bbe d33c d3be
000001e0: 33d7 d9be 9fab a1bd c2ed 76bd faf0 febd
000001f0: 64ad 3cbf 3e37 f0bd 4663 efbe 6350 963d
00000200: 0a1b 553d fbc2 e5be 6a8a 41be 7341 0ebe
00000210: 0179 e6be 0a83 e0be a26e 55be b79d 0ebe
00000220: 976e 52be 18d8 92be 9f2f a7be cfca 92be
00000230: bff9 5fbe 5ddc 70bf f9dc 47be b41c 01bf
00000240: 8ca2 0dbe de64 35be b517 7cbf 7e1a b6be
00000250: 73ea 6abe 96a9 9bbe ec9c 62be c23b 3ebe
00000260: 9d11 21bf 40d4 d93c 483b 80be 44cb 94be
00000270: 221c 633e b855 70bc 65f8 79be 6cde 74be
00000280: 0160 15bf 64bf eb3c 2aa2 033e e88e 52be
00000290: 41b3 e3be b219 04be f544 b8be 158d e9be
000002a0: f2af 0ebe b93a b8be 12e3 a0be 2a8a 21be
000002b0: c475 a5bd c298 74be 3ce3 3f3e 923e cfbd
000002c0: 5205 8dbe c04f 94bd 1439 b13d 5ec9 9bbe
000002d0: f6df d0be 42ae 8ebe 8485 a8bd b6fc 8c3d
000002e0: 45c8 d5bd aeca 19be 6874 313c ecaa c53c
000002f0: 9d81 06be 2066 96be bbc6 c1be 5a7b 50be
00000300: d6cc 11bd 480b aa3c 220a 34be de6c 78be
00000310: 48e2 85be c084 d0be 06b3 9dbe 5db1 e4bd
00000320: a5f0 95be 7225 a3be 5b54 05be 42c9 a7be
00000330: 300a 56be a803 98be 1ffb a1be b230 11be
00000340: cebd 63be 1bdd 1b3e 99f7 a7bd 7464 a8bd
00000350: df06 11bf 56b4 b5be 2ba6 11bf 6d35 c4be
00000360: 3ea4 953d 48cd f6be 3685 ddbe c25f 8fbe
00000370: f5a2 b7be 7180 b2bd accc cbbe 4ab9 1dbe
00000380: 46b2 81be 7a5d 6abe 2a2d 99be 8b21 7ebd
00000390: 44a7 4abe 5af7 9cbe f8fc 4ebd 7434 01bc
000003a0: 5999 0cbe 5626 20be 8048 4bbd e266 8bbe
000003b0: e77b edbe c9b4 94be 8682 9bbe 1438 79bd
000003c0: 4cad a4be e86e babe e745 0fbe 41c0 e6bd
000003d0: 261b 3fbe d4ea 12bf f8ea 40be 3e51 93be
000003e0: ded0 803d 4460 60be 8712 323e 4e15 afbe
000003f0: 0cf5 93be 90ac d8be e2b3 853e 0242 02be
-0.41347617 -0.0754225 0.06843117 -0.19853127 -0.018286943 -0.35874206 -0.5077875 -0.45785838
-0.36080498 -0.47801134 -0.029766776 -0.33487996 -0.25322083 -0.40473783 -0.15573715 -0.11652673
-0.461407 -0.40297273 -0.23293567 -0.3043552 -0.2960025 -0.08838706 -0.17370212 -0.11251248
-0.54184985 -0.40976834 -0.044020783 -0.18197054 -0.6629857 -0.016752765 -0.29347837 -0.22729203
-0.70434374 -0.19774091 -0.17252319 -0.06313558 -0.49063778 -0.11704619 -0.3221675 -0.33871934
-0.3151762 -0.835991 -0.3834922 -0.024659086 -0.51523507 -0.20109397 -0.043673053 -0.2038306
-0.4676611 -0.29954988 -0.18432432 -0.33368185 0.06772355 -0.3608923 -0.2530362 0.021251198
-0.07038272 -0.40588665 -0.498219 -0.6501459 -0.17153105 0.31224418 -0.290916 -0.5020668
0.29302973 -0.3490612 -0.16591643 -0.20313266 -0.08266492 -0.19954371 -0.040498585 -0.21304816
-0.010972742 -0.22729322 -0.08301978 -0.17965364 -0.56312007 -0.084834516 -0.30667454 -0.4689255
-0.56962365 -0.2342566 -0.1635642 -0.18413751 -0.2199067 -0.34547472 -0.058664273 -0.11028754
-0.08825238 -0.03151948 -0.2812523 -0.18350103 0.061947353 -0.43045026 -0.28915232 -0.57573164
-0.472449 0.031761095 -0.38618284 -0.18776605 -0.30418298 -0.39562732 -0.13801792 -0.7616713
0.18542874 -0.15012965 -0.3660947 -0.049784668 -0.034023106 -0.16139404 -0.13439712 -0.23795058
-0.045363933 -0.06555432 -0.12743859 0.020960957 -0.12047279 -0.018162861 -0.2304505 -0.41257343
-0.42546996 -0.07894062 -0.060285337 -0.124483064 -0.73702073 -0.117292866 -0.46755427 0.07339551
0.05202774 -0.4487532 -0.18900457 -0.13892154 -0.45014194 -0.43849975 -0.20842984 -0.13927351
-0.20549999 -0.2868049 -0.3265352 -0.28670356 -0.21872614 -0.9408625 -0.19517888 -0.5043442
-0.13831538 -0.17714259 -0.98473674 -0.35567087 -0.22940998 -0.3040282 -0.22130173 -0.18577483
-0.629175 0.026590466 -0.25045228 -0.2906133 0.221787 -0.014668874 -0.24411161 -0.23912972
-0.58349615 0.028777786 0.1285483 -0.20562327 -0.44472697 -0.12900427 -0.3599011 -0.4561545
-0.13934305 -0.35982302 -0.3142324 -0.15775362 -0.08079103 -0.23886397 0.18739027 -0.10119356
-0.27543122 -0.072417736 0.08653465 -0.30427068 -0.4079587 -0.27867323 -0.08228591 0.06884138
-0.10438589 -0.15018722 0.010830976 0.024129353 -0.13135381 -0.2937479 -0.37846932 -0.20359555
-0.035595737 0.020757332 -0.1758199 -0.2426028 -0.261492 -0.4072628 -0.30800647 -0.11166642
-0.2928516 -0.31864506 -0.1302046 -0.32770735 -0.20902324 -0.2969029 -0.31636903 -0.14178732
-0.22240373 0.15221064 -0.082015224 -0.08222285 -0.5665111 -0.35489148 -0.5689418 -0.3832201
0.07306717 -0.48203492 -0.43265694 -0.28002745 -0.35866514 -0.087159045 -0.3980459 -0.15402713
-0.25331324 -0.22887221 -0.2991727 -0.062043708 -0.1979037 -0.30657464 -0.05053422 -0.007886041
-0.13730372 -0.15639624 -0.04962969 -0.2722693 -0.46383592 -0.29044178 -0.3037302 -0.060844496
-0.32163465 -0.3641274 -0.1399151 -0.11267138 -0.186627 -0.5738957 -0.18839633 -0.2877292
0.06289838 -0.21911722 0.1738988 -0.34195942 -0.28897893 -0.42319155 0.26113802 -0.12720492
