data/DNN/Inlusive_noMetCut_amcatnlo_xyComponent_JetLepXY_50EP__diff_xy_2016_preVFP_20230206-1026genMETweighted.onnx (onnx, 580407 bytes, 24 tensors)

dense_3/kernel:0 f4 [256, 2]
0.09160404 0.24824518 -0.022090122 0.19942662 -0.068941005 -0.16684544 -0.042980343 -0.17641531
0.1881866 0.07637562 -0.22164698 0.051686343 0.17238969 -0.12854342 0.16301663 0.1403065
0.13392164 -0.024211442 -0.069539584 -0.11514799 0.0910284 -0.21483603 0.073689155 0.09358939
-0.10680078 0.13327454 0.17205617 -0.09770819 0.09329014 0.05377002 0.1377021 -0.19493583
0.11605231 0.062593624 -0.18640359 0.07391725 0.10553278 0.17731068 -0.13400957 -0.045282092
-0.01946146 -0.1713563 0.22066155 0.054585304 -0.120475106 -0.15781529 -0.15101127 -0.012775966
-0.16181727 -0.028002987 0.127842 0.17789933 0.039354853 0.15123458 0.1999716 0.00586655
-0.020415196 0.09935387 0.16993845 -0.14361961 0.13402145 -0.07203466 -0.06836245 0.17527133
-0.093219414 -0.0321881 -0.102946766 0.18727486 -0.09217532 0.33372837 -0.023262298 -0.18797386
0.15163271 0.003029707 0.009470896 0.12593347 0.16523074 0.07811511 -0.13678716 0.13424869
-0.036307942 -0.116450556 -0.11380423 0.09995438 0.010671624 0.17663503 0.09021804 -0.1476026
-0.119626135 0.15980145 -0.0657474 -0.10443335 -0.13167612 0.023208855 -0.12359082 -0.115780175
-0.054004345 0.057886437 -0.05132311 0.1520869 -0.101180464 -0.21394956 -0.1252096 0.1008408
-0.11265589 0.14946806 -0.098072454 0.09637402 0.005689899 -0.10086409 -0.15193278 -0.13343902
0.17414962 -0.01997809 -0.0930849 -0.1776539 0.043857954 -0.16472675 -0.14648873 -0.10707182
-0.032388672 0.13317513 0.18047898 -0.07156932 0.16389807 0.04806098 0.19302228 -0.10258243
-0.093552716 0.038088836 -0.17474586 -0.034547806 0.10197538 0.13338906 -0.115944125 -0.10826293
-0.073346004 0.13945733 -0.03640827 -0.15224376 0.08467485 -0.064369425 -0.011227205 0.100891724
-0.23266183 0.031127421 0.121213116 0.16869317 -0.16970587 -0.114033796 0.1448903 0.14698586
0.09268035 -0.0067129736 -0.26979002 -0.10338366 -0.11282367 0.045060366 -0.10762668 -0.09860969
0.1710569 -0.024593186 -0.06838284 0.07188288 -0.11440013 -0.0084878635 0.06267616 -0.1591263
0.066357955 0.16880499 -0.25090376 -0.054853998 0.15534881 -0.017199643 -0.11454988 0.07925623
0.28411332 -0.05944534 0.1150811 -0.07477138 0.11931078 0.11938786 0.00021030633 -0.15210006
0.17240812 0.09471454 -0.14293447 -0.005038293 0.18522172 -0.027562622 -0.14065306 0.09003567
-0.07320674 0.19876607 0.19681676 0.059245817 0.07655365 -0.10440722 -0.07418712 0.16745669
0.19251016 -0.017808063 -0.032295026 -0.1296833 0.08118329 -0.097246885 0.14657961 0.083151
0.059151124 0.02404542 0.105646476 -0.22234818 -0.17537525 -0.031427387 0.12370696 0.19496295
0.06354595 -0.16953634 0.0067739063 -0.17542614 0.15594687 -0.08432711 0.16340974 -0.07438964
-0.0049490184 0.1642997 0.24244574 0.05054622 -0.14903446 -0.059800975 0.14560255 0.018786164
0.058650527 0.113268755 -0.17244114 -0.1329878 -0.07615432 -0.16127758 0.14026858 0.05911068
0.1660512 0.026440699 -0.23412643 0.06014078 -0.12790029 -0.04767791 -0.10453176 0.11234644
0.20925404 -0.09078811 -0.19507945 0.014921612 0.03384089 0.067821585 0.08192962 -0.11620026
00000000: e69a bb3d fc33 7e3e 58f6 b4bc 7e36 4c3e
00000010: f130 8dbd 88d9 2abe 280c 30bd 37a6 34be
00000020: fdb3 403e d26a 9c3d 6df7 62be 0fb5 533d
00000030: ec86 303e e3a0 03be d5ed 263e 82ac 0f3e
00000040: c122 093e 1357 c6bc c56a 8ebd b6d2 ebbd
00000050: 196d ba3d fafd 5bbe 57ea 963d cbab bf3d
00000060: 5eba dabd 1f79 083e 7e2f 303e 3b1b c8bd
00000070: e70e bf3d f43d 5c3d c801 0d3e 429d 47be
00000080: d5ac ed3d 1631 803d 95e0 3ebe ed61 973d
00000090: 9221 d83d ee90 353e ce39 09be b779 39bd
000000a0: a46d 9fbc 0778 2fbe 1af5 613e d794 5f3d
000000b0: a7bb f6bd 559a 21be b3a2 1abe 4952 51bc
000000c0: 6db3 25be 8566 e5bc 03e9 023e 3e2b 363e
000000d0: 8e32 213d 3ddd 1a3e 5bc5 4c3e 303c c03b
000000e0: c53d a7bc 0b7a cb3d 5804 2e3e 0511 13be
000000f0: eb3c 093e e886 93bd 9d01 8cbd 547a 333e
00000100: d2e9 bebd abd7 03bd c1d5 d2bd fbc4 3f3e
00000110: 6ac6 bcbd 72de aa3e 9390 bebc 387c 40be
00000120: 9b45 1b3e 0c8e 463b d12b 1b3c b4f4 003e
00000130: 3f32 293e d1fa 9f3d ef11 0cbe 7d78 093e
00000140: a3b7 14bd a17d eebd 3112 e9bd e2b4 cc3d
00000150: 09d8 2e3c d0df 343e 3cc4 b83d 2325 17be
00000160: 8cfe f4bd fea2 233e 93a6 86bd 27e1 d5bd
00000170: 1bd6 06be 7f20 be3c 2f1d fdbd 281e edbd
00000180: a933 5dbd 541a 6d3d 2e38 52bd abbc 1b3e
00000190: b437 cfbd 9815 5bbe f236 00be 9f85 ce3d
000001a0: 22b8 e6bd 280e 193e 36da c8bd be5f c53d
000001b0: 5572 ba3b d591 cebd 4494 1bbe 3da4 08be
000001c0: 4754 323e 17a9 a3bc 4ca3 bebd e7ea 35be
000001d0: 66a4 333d 21ae 28be 2401 16be 7848 dbbd
000001e0: fca9 04bd 105f 083e 7bcf 383e f092 92bd
000001f0: e5d4 273e 97db 443d a2a7 453e bd16 d2bd
00000200: 9198 bfbd 0a03 1c3d 94f0 32be 0082 0dbd
00000210: 78d8 d03d 2497 083e 1d74 edbd f4b8 ddbd
00000220: 6e36 96bd e7cd 0e3e d720 15bd cae5 1bbe
00000230: 026a ad3d 1ed4 83bd 50f2 37bc 52a0 ce3d
00000240: e73e 6ebe effe fe3c 953e f83d e7bd 2c3e
00000250: 60c7 2dbe 8d8a e9bd 1f5e 143e 7683 163e
00000260: 32cf bd3d 81f8 dbbb eb21 8abe d0ba d3bd
00000270: 1910 e7bd 3891 383d 606b dcbd e1f3 c9bd
00000280: 8a29 2f3e a677 c9bc 4d0c 8cbd 5537 933d
00000290: 9e4a eabd ae10 0bbc 5c5c 803d 01f2 22be
000002a0: aee6 873d 37db 2c3e 7576 80be 96ae 60bd
000002b0: c213 1f3e 44e6 8cbc 2199 eabd 1751 a23d
000002c0: 4d77 913e f57c 73bd a4af eb3d bd21 99bd
000002d0: 3659 f43d 9f81 f43d ad85 5c39 1ec0 1bbe
000002e0: c18b 303e b2f9 c13d 6a5d 12be 4418 a5bb
000002f0: c3aa 3d3e 02cb e1bc 5b07 10be 9f64 b83d
00000300: 6aed 95bd 5589 4b3e 558a 493e beab 723d
00000310: 29c8 9c3d 74d3 d5bd 6bef 97bd c479 2b3e
00000320: 6221 453e 37e2 91bc ca47 04bd b3cb 04be
00000330: 6d43 a63d 6029 c7bd f718 163e 124b aa3d
00000340: 7348 723d e7fa c43c 2e5d d83d 3eaf 63be
00000350: 9295 33be 01ba 00bd 135a fd3d 5ea4 473e
00000360: 6124 823d ef9a 2dbe a5f7 dd3b e9a2 33be
00000370: 89b0 1f3e b1b3 acbd e254 273e 9859 98bd
00000380: 602b a2bb 2e3e 283e b243 783e 8e09 4f3d
00000390: 7d9c 18be def1 74bd d618 153e 71e5 993c
000003a0: 893b 703d 73f9 e73d 6994 30be f42d 08be
000003b0: ccf6 9bbd f325 25be 91a2 0f3e 0a1e 723d
000003c0: 5309 2a3e 2a9a d83c d7be 6fbe 2e56 763d
000003d0: 4bf8 02be ea49 43bd bf14 d6bd e415 e63d
000003e0: b146 563e 1eef b9bd e8c2 47be c779 743c
000003f0: bf9c 0a3d 0be6 8a3d b7ca a73d 67fa edbd

dense_3/bias:0 f4 [2]
0.004484363 0.012408721
00000000: 90f1 923b f34d 4b3c

scale f4 [256]
0.3879653 0.46199498 0.41853526 0.56749976 0.56780696 0.5503132 0.4245141 0.47289297
0.56477326 0.54047465 0.46972364 0.49440947 0.47940013 0.51722986 0.55427206 0.5085685
0.47894046 0.5510435 0.5818334 0.52816784 0.55258 0.47335032 0.51848084 0.61569583
0.5045355 0.41232324 0.45923316 0.51543 0.56066954 0.50878775 0.5502569 0.44670573
0.52668524 0.41615608 0.5227421 0.5194461 0.5679803 0.5286869 0.6242219 0.44734365
0.60070145 0.48583722 0.42828092 0.52954197 0.50635064 0.5670611 0.5012789 0.5591216
0.67120993 0.46241814 0.541687 0.47612655 0.42713204 0.4388007 0.6108704 0.4743345
0.43872738 0.6095623 0.57267606 0.5428519 0.6232026 0.57818246 0.63571566 0.44383186
0.6371834 0.51070076 0.44518086 0.493454 0.47857863 0.52749413 0.5637831 0.47174934
0.45449778 0.50615066 0.50052845 0.449665 0.5943686 0.45891845 0.4940623 0.5197483
0.47904447 0.5668481 0.49999303 0.5156939 0.48243362 0.5989348 0.5923656 0.5247515
0.50147724 0.56054807 0.49746627 0.50582385 0.4889917 0.45871973 0.52825135 0.5812474
0.7464312 0.5186949 0.5400719 0.44360515 0.4421459 0.63894767 0.51842886 0.5898491
0.71182925 0.5409078 0.49824223 0.44742742 0.54215837 0.49752462 0.57958 0.47098488
0.48571777 0.6083314 0.51788133 0.62900144 0.5840655 0.50502497 0.5015934 0.5738481
0.48795524 0.41512966 0.4917392 0.49397892 0.49071845 0.8024247 0.76594454 0.60205036
0.5172609 0.5297367 0.6239129 0.5915609 0.5503092 0.49023986 0.41088846 0.5201136
0.49121323 0.47244996 0.51191604 0.44903967 0.6110275 0.5953364 0.51004434 0.5636872
0.6609815 0.46977395 0.5251272 0.5954358 0.48003715 0.5984334 0.45846617 0.45400327
0.6023819 0.5543379 0.47604457 0.581795 0.43772364 0.471772 0.5216688 0.5877319
0.5466954 0.5547477 0.5486167 0.4833767 0.44559515 0.54486203 0.52030015 0.44700202
0.5158601 0.57712245 0.48260584 0.56454575 0.44412884 0.51260984 0.5353652 0.5508318
0.52986497 0.5572452 0.5240324 0.567065 0.68363774 0.46648583 0.50322556 0.45854443
0.44985408 0.5170403 0.48946276 0.53248703 0.57368755 0.58288544 0.5859663 0.52594304
0.48216403 0.5391229 0.43508232 0.5769166 0.4564086 0.4813518 0.5257266 0.5319011
0.48421043 0.5590681 0.574556 0.5234675 0.46018708 0.6330694 0.44084162 0.4250278
0.43833748 0.5514909 0.5780069 0.4292417 0.45229188 0.56802577 0.612467 0.48666087
0.44655192 0.48568025 0.5523173 0.62025905 0.6883698 0.48100513 0.5680593 0.49865043
0.48610854 0.56074136 0.48290783 0.6643329 0.5670713 0.51183087 0.4904603 0.5162646
0.44965735 0.515184 0.5163048 0.57325727 0.593176 0.4579921 0.4871967 0.51884055
0.5075084 0.43807533 0.4698828 0.51736 0.50563246 0.5890586 0.5431191 0.4704134
0.5127225 0.4993742 0.5348155 0.5228314 0.50032705 0.376028 0.6007876 0.5879731
00000000: 63a3 c63e 9b8a ec3e 414a d63e aa47 113f
00000010: cc5b 113f 53e1 0c3f ea59 d93e 071f f23e
00000020: fb94 103f 8c5c 0a3f 9e7f f03e 3d23 fd3e
00000030: ef73 f53e 2d69 043f c6e4 0d3f 8c31 023f
00000040: af37 f53e 3011 0d3f 09f3 143f 0236 073f
00000050: e275 0d3f f95a f23e 29bb 043f 3e9e 1d3f
00000060: 3d29 013f 081c d33e 9c20 eb3e 38f3 033f
00000070: 0a88 0f3f ea3f 023f a3dd 0c3f 9db6 e43e
00000080: d8d4 063f 6912 d53e 6dd2 053f 6bfa 043f
00000090: 2867 113f 0658 073f 02cd 1f3f 3a0a e53e
000000a0: 92c7 193f a8bf f83e a347 db3e 1090 073f
000000b0: 32a0 013f eb2a 113f d053 003f 9822 0f3f
000000c0: 6ad4 2b3f 12c2 ec3e 00ac 0a3f dcc6 f33e
000000d0: 0db1 da3e 7caa e03e 0162 1c3f f9db f23e
000000e0: e0a0 e03e 460c 1c3f e69a 123f 58f8 0a3f
000000f0: 358a 1f3f c403 143f 43be 223f ee3d e33e
00000100: 741e 233f 49bd 023f bfee e33e 01a6 fc3e
00000110: 4208 f53e db09 073f 1754 103f 2189 f13e
00000120: efb3 e83e 1793 013f a222 003f 7e3a e63e
00000130: 8a28 183f 5cf7 ea3e bcf5 fc3e 390e 053f
00000140: 5145 f53e f51c 113f 16ff ff3e 8404 043f
00000150: 8a01 f73e cb53 193f 46a5 173f 1d56 063f
00000160: d060 003f 1480 0f3f e6b3 fe3e ac7d 013f
00000170: 1f5d fa3e 50dd ea3e 7b3b 073f a1cc 143f
00000180: 1d16 3f3f 30c9 043f 2742 0a3f 3720 e33e
00000190: f360 e23e 1392 233f c1b7 043f 5a00 173f
000001a0: 713a 363f ef78 0a3f 9b19 ff3e 3515 e53e
000001b0: e4ca 0a3f 8cbb fe3e 5b5f 143f ee24 f13e
000001c0: 00b0 f83e 9bbb 1b3f df93 043f 3d06 213f
000001d0: 5185 153f 5149 013f 6d68 003f b6e7 123f
000001e0: 45d5 f93e e08b d43e 3ec5 fb3e ceea fc3e
000001f0: 733f fb3e b56b 4d3f f114 443f f91f 1a3f
00000200: 366b 043f d39c 073f c1b8 1f3f 8970 173f
00000210: 10e1 0c3f b800 fb3e f95f d23e 2a26 053f
00000220: 4d80 fb3e f6e4 f13e ee0c 033f 87e8 e53e
00000230: 4c6c 1c3f f767 183f 4492 023f ce4d 103f
00000240: 1536 293f 3686 f03e bc6e 063f 7b6e 183f
00000250: 6ec7 f53e ee32 193f 14bc ea3e 1e73 e83e
00000260: b335 1a3f 17e9 0d3f 1dbc f33e 84f0 143f
00000270: 501d e03e 198c f13e 168c 053f 9975 163f
00000280: 3bf4 0b3f f203 0e3f 2572 0c3f 277d f73e
00000290: 0c25 e43e 147c 0b3f 6432 053f 73dd e43e
000002a0: 680f 043f 4cbe 133f 1d18 f73e 1286 103f
000002b0: db64 e33e 663a 033f b20d 093f 5003 0d3f
000002c0: 3ba5 073f 9fa7 0e3f fd26 063f 2c2b 113f
000002d0: e202 2f3f 3bd7 ee3e 64d3 003f 56c6 ea3e
000002e0: 4653 e63e c15c 043f dd9a fa3e 1251 083f
000002f0: 30dd 123f fb37 153f e301 163f 34a4 063f
00000300: 34de f63e f503 0a3f 1cc3 de3e ceb0 133f
00000310: 63ae e93e be73 f63e 0596 063f ac2a 083f
00000320: 6eea f73e 161f 0f3f 1a16 133f f701 063f
00000330: a49d eb3e d610 223f feb5 e13e 3e9d d93e
00000340: c56d e03e 822e 0d3f 43f8 133f 91c5 db3e
00000350: cd92 e73e 236a 113f a3ca 1c3f 9d2b f93e
00000360: 74a2 e43e 15ab f83e ab64 0d3f 4cc9 1e3f
00000370: 0139 303f 4e46 f63e 566c 113f 1c4f ff3e
00000380: 38e3 f83e bf8c 0f3f b23f f73e b911 2a3f
00000390: 962b 113f 5907 033f 9d1d fb3e eb29 043f
000003a0: 7d39 e63e 19e3 033f 8d2c 043f fdc0 123f
000003b0: 62da 173f f17d ea3e d971 f93e bcd2 043f
000003c0: 12ec 013f 694b e03e 7a94 f03e b471 043f
000003d0: 2171 013f 8bcc 163f da09 0b3f 06da f03e
000003e0: c841 033f faad ff3e abe9 083f 47d8 053f
000003f0: 6f15 003f be86 c03e 37cd 193f 6885 163f

bias f4 [256]
-0.5810678 -0.48422143 -0.08172469 -0.25775015 -0.38830775 0.005587071 -0.2101348 -0.26448524
-0.58438396 -0.08937857 -0.02526167 -0.1913588 -0.4197662 -0.39135247 -0.20767277 -0.42652732
-0.3778483 -0.43134516 -0.24295637 -0.4721619 -0.014560632 -0.4648182 0.13867679 -0.091718994
-0.15815601 -0.41294417 -0.45782107 -0.8034959 -0.39732483 -0.3831678 -0.50158596 -0.50957555
-0.27707636 -0.4664245 -0.24795908 -0.15534885 -0.770726 -0.49518552 -0.7272808 -0.0823331
0.06817291 -0.08718234 -0.436638 -0.4669191 0.046869244 -0.28698802 -0.23173544 -0.19650032
-0.31577086 -0.557642 -0.15771595 -0.39320323 -0.327001 -0.38691017 0.15375225 -0.0789557
-0.12968668 -0.36267024 0.16833927 0.10793851 -0.3240407 -0.38068414 -0.3758358 -0.16289902
0.06663059 -0.21861063 -0.34452006 0.011353765 -0.16816603 -0.22810088 -0.43091026 -0.40352583
-0.16318548 -0.28087306 -0.13471067 -0.58001375 -0.33031043 -0.12510657 -0.1361399 -0.18283913
-0.34929746 -0.38718048 -0.16707954 -0.1547741 -0.5013485 0.120741606 -0.48712814 -0.07880852
-0.18893972 -0.53643584 -0.38309443 -0.26644477 -0.1884285 -0.2669766 -0.073636435 0.18072411
0.60273343 -0.5919903 -0.45754844 -0.2220763 -0.23346457 -0.52767247 -0.2008463 -0.86456126
-0.28880528 -0.58770895 -0.2343083 -0.41020644 -0.48006904 -0.30527303 -0.6358968 -0.39127135
-0.73779756 -0.39215037 -0.45568877 -0.22498485 -0.33185536 -0.31044564 0.05271572 -0.5598098
-0.37557048 -0.028720573 -0.20107782 -0.28428382 -0.19116992 0.23822135 -0.30204454 -0.18687396
-0.30363756 -0.45873225 -0.24169375 -0.12877265 -0.6264811 -0.09990769 -0.1320942 -0.34323913
-0.24279901 -0.30716366 0.080643535 -0.18812793 -0.031503864 -0.49169526 0.03645848 0.205817
-0.24965253 -0.010690776 -0.04093081 -0.38726115 -0.47320256 -0.11749776 -0.44405746 0.010546647
-0.23010992 0.06750306 -0.4765979 -0.20979244 -0.21049175 -0.6045276 -0.30085373 -0.39042577
-0.4967309 -0.3130122 -0.2524891 -0.21529347 -0.6754822 -0.24043256 -0.3759069 -0.5395696
-0.37043563 0.12414855 -0.49084824 -0.12180996 -0.3095192 0.21143654 -0.5967294 -0.46516952
-0.14214483 -0.5235988 -0.11199852 -0.26618004 -0.101999186 -0.08188725 0.012692444 -0.4441525
-0.32930252 -0.46980768 -0.3833717 -0.18201576 -0.5953523 -0.09797476 -0.066580765 -0.4668026
-0.40819773 0.0012150705 -0.12052536 -0.5820024 -0.14630409 -0.39011592 -0.4354216 -0.32153302
-0.3645174 -0.0659028 0.06082873 -0.25771958 -0.4081801 -0.024574205 -0.43018764 -0.23659888
-0.08995773 -0.31256005 0.24649411 -0.057391863 -0.35933983 -0.43271172 -0.28820622 -0.44122088
-0.40148365 -0.2264429 -0.33030444 -0.37266093 0.021747679 -0.5110955 -0.27424413 -0.49777555
-0.21250167 -0.34513605 -0.14515147 0.010620103 0.2757969 -0.04302907 -0.37927744 -0.25665453
-0.31491676 -0.25402147 -0.41239148 -0.6357751 -0.38870087 -0.21352865 -0.4596786 -0.20273899
0.03504845 -0.65189546 -0.1691138 -0.011108719 -0.4871976 0.57014525 -0.51336765 -0.17925568
-0.42427492 -0.16340536 -0.6070677 -0.089613676 -0.67977196 -0.28217024 -0.20948514 0.0050083846
00000000: dcc0 14bf dfeb f7be 465f a7bd d4f7 83be
00000010: 46d0 c6be c013 b73b 942d 57be 9c6a 87be
00000020: 309a 15bf 1d0c b7bd 90f1 cebc 90f3 43be
00000030: 98eb d6be 5a5f c8be 2ca8 54be ca61 dabe
00000040: 5575 c1be 46d9 dcbe 8ec9 78be 34bf f1be
00000050: b88f 6ebc a7fc edbe 4a01 0e3e 2bd7 bbbd
00000060: a6f3 21be 6b6d d3be 8667 eabe e8b1 4dbf
00000070: 296e cbbe 922e c4be f067 00bf 8b73 02bf
00000080: f4dc 8dbe 31cf eebe fce8 7dbe c513 1fbe
00000090: 4d4e 45bf f588 fdbe 132f 3abf 429e a8bd
000000a0: 3d9e 8b3d a88c b2bd 048f dfbe 0510 efbe
000000b0: f7f9 3f3d 18f0 92be 0e4c 6dbe 6137 49be
000000c0: b8ac a1be a0c1 0ebf 4a80 21be ef51 c9be
000000d0: ad6c a7be 1719 c6be 3b71 1d3e 87b3 a1bd
000000e0: 96cc 04be eaaf b9be 2161 2c3e de0e dd3d
000000f0: aae8 a5be 08e9 c2be 8d6d c0be 00cf 26be
00000100: 9e75 883d 77db 5fbe ef64 b0be 2405 3a3c
00000110: b733 2cbe 4793 69be 45a0 dcbe f09a cebe
00000120: 181a 27be 98ce 8fbe 98f1 09be c87b 14bf
00000130: 731e a9be f01b 00be 4268 0bbe 2e3a 3bbe
00000140: 1ed7 b2be 853c c6be e616 2bbe 1a7d 1ebe
00000150: 6058 00bf 6047 f73d dc68 f9be 5d66 a1bd
00000160: 6a79 41be dc53 09bf f424 c4be 736b 88be
00000170: 67f3 40be 28b1 88be b3ce 96bd be0f 393e
00000180: bd4c 1a3f ad8c 17bf ca43 eabe f867 63be
00000190: 5611 6fbe 8b15 07bf a7aa 4dbe e353 5dbf
000001a0: 49de 93be 1874 16bf 84ee 6fbe 9406 d2be
000001b0: 9ccb f5be bf4c 9cbe 22ca 22bf b854 c8be
000001c0: 4de0 3cbf efc7 c8be 0a50 e9be 6e62 66be
000001d0: f2e8 a9be bbf2 9ebe 70ec 573d b24f 0fbf
000001e0: c64a c0be 6847 ebbc 58e7 4dbe a68d 91be
000001f0: 0cc2 43be 4cf0 733e 95a5 9abe e35b 3fbe
00000200: 6276 9bbe f4de eabe 917e 77be fadc 03be
00000210: 1161 20bf 679c ccbd b443 07be 0abd afbe
00000220: 4ea0 78be 8e44 9dbe 7028 a53d 9ca4 40be
00000230: 320a 01bd 7bbf fbbe 7d55 153d b1c1 523e
00000240: eaa4 7fbe 5d28 2fbc 11a7 27bd 1847 c6be
00000250: 9b47 f2be aaa2 f0bd 805b e3be d8cb 2c3c
00000260: efa1 6bbe 0b3f 8a3d a404 f4be d4d3 56be
00000270: 268b 57be 52c2 1abf 8009 9abe e3e5 c7be
00000280: 8353 febe 2343 a0be 4046 81be e475 5cbe
00000290: 67ec 2cbf f433 76be df76 c0be 3c21 0abf
000002a0: bda9 bdbe 9841 fe3d 7650 fbbe 8077 f9bd
000002b0: 4d79 9ebe d282 583e 42c3 18bf b32a eebe
000002c0: 6a8e 11be 920a 06bf 7b5f e5bd c048 88be
000002d0: f3e4 d0bd 81b4 a7bd f8f3 4f3c f567 e3be
000002e0: 579a a8be a28a f0be 4c49 c4be 5762 3abe
000002f0: 0269 18bf fea6 c8bd 7f5b 88bd c000 efbe
00000300: 4bff d0be 0043 9f3a 00d6 f6bd 1cfe 14bf
00000310: bdd0 15be 46bd c7be 94ef debe fa9f a4be
00000320: 06a2 babe 0cf8 86bd 8c27 793d d2f3 83be
00000330: fbfc d0be d84f c9bc 8e41 dcbe fa46 72be
00000340: c23b b8bd df07 a0be f468 7c3e bb13 6bbd
00000350: 64fb b7be 648c ddbe c48f 93be b4e7 e1be
00000360: 448f cdbe a6e0 67be aa1d a9be 6acd bebe
00000370: 3028 b23c 28d7 02bf ba69 8cbe 70dc febe
00000380: 0a9a 59be acb5 b0be 96a2 14be f1ff 2d3c
00000390: 4035 8d3e 403f 30bd a730 c2be 3968 83be
000003a0: c53c a1be 1a0f 82be fa24 d3be 28c2 22bf
000003b0: cd03 c7be 41a7 5abe fe5a ebbe cf9a 4fbe
000003c0: f78e 0f3d 9fe2 26bf 2b2c 2dbe 5801 36bc
000003d0: f771 f9be 0af5 113f 106c 03bf cd8e 37be
000003e0: 903a d9be bc53 27be ca68 1bbf 6087 b7bd
000003f0: 8905 2ebf 9e78 90be 4683 56be 601d a43b

mean f4 [256]
0.0 0.0 0.0 0.0 0.0 0.0 0.0 0.0
0.0 0.0 0.0 0.0 0.0 0.0 0.0 0.0
0.0 0.0 0.0 0.0 0.0 0.0 -0.0 0.0
0.0 0.0 0.0 0.0 0.0 0.0 0.0 0.0
0.0 0.0 0.0 0.0 0.0 0.0 0.0 0.0
-0.0 0.0 0.0 0.0 -0.0 0.0 0.0 0.0
0.0 0.0 0.0 0.0 0.0 0.0 -0.0 0.0
0.0 0.0 -0.0 -0.0 0.0 0.0 0.0 0.0
-0.0 0.0 0.0 0.0 0.0 0.0 0.0 0.0
0.0 0.0 0.0 0.0 0.0 0.0 0.0 0.0
0.0 0.0 0.0 0.0 0.0 -0.0 0.0 0.0
0.0 0.0 0.0 0.0 0.0 0.0 0.0 -0.0
-0.0 0.0 0.0 0.0 0.0 0.0 0.0 0.0
0.0 0.0 0.0 0.0 0.0 0.0 0.0 0.0
0.0 0.0 0.0 0.0 0.0 0.0 0.0 0.0
0.0 0.0 0.0 0.0 0.0 -0.0 0.0 0.0
0.0 0.0 0.0 0.0 0.0 0.0 0.0 0.0
0.0 0.0 0.0 0.0 0.0 0.0 0.0 -0.0
0.0 0.0 0.0 0.0 0.0 0.0 0.0 0.0
0.0 -0.0 0.0 0.0 0.0 0.0 0.0 0.0
0.0 0.0 0.0 0.0 0.0 0.0 0.0 0.0
0.0 -0.0 0.0 0.0 0.0 -0.0 0.0 0.0
0.0 0.0 0.0 0.0 0.0 0.0 0.0 0.0
0.0 0.0 0.0 0.0 0.0 0.0 0.0 0.0
0.0 0.0 0.0 0.0 0.0 0.0 0.0 0.0
0.0 0.0 -0.0 0.0 0.0 0.0 0.0 0.0
0.0 0.0 -0.0 0.0 0.0 0.0 0.0 0.0
0.0 0.0 0.0 0.0 0.0 0.0 0.0 0.0
0.0 0.0 0.0 0.0 -0.0 0.0 0.0 0.0
0.0 0.0 0.0 0.0 0.0 0.0 0.0 0.0
0.0 0.0 0.0 0.0 0.0 -0.0 0.0 0.0
0.0 0.0 0.0 0.0 0.0 0.0 0.0 0.0
00000000: 0000 0000 0000 0000 0000 0000 0000 0000
00000010: 0000 0000 0000 0000 0000 0000 0000 0000
00000020: 0000 0000 0000 0000 0000 0000 0000 0000
00000030: 0000 0000 0000 0000 0000 0000 0000 0000
00000040: 0000 0000 0000 0000 0000 0000 0000 0000
00000050: 0000 0000 0000 0000 0000 0080 0000 0000
00000060: 0000 0000 0000 0000 0000 0000 0000 0000
00000070: 0000 0000 0000 0000 0000 0000 0000 0000
00000080: 0000 0000 0000 0000 0000 0000 0000 0000
00000090: 0000 0000 0000 0000 0000 0000 0000 0000
000000a0: 0000 0080 0000 0000 0000 0000 0000 0000
000000b0: 0000 0080 0000 0000 0000 0000 0000 0000
000000c0: 0000 0000 0000 0000 0000 0000 0000 0000
000000d0: 0000 0000 0000 0000 0000 0080 0000 0000
000000e0: 0000 0000 0000 0000 0000 0080 0000 0080
000000f0: 0000 0000 0000 0000 0000 0000 0000 0000
00000100: 0000 0080 0000 0000 0000 0000 0000 0000
00000110: 0000 0000 0000 0000 0000 0000 0000 0000
00000120: 0000 0000 0000 0000 0000 0000 0000 0000
00000130: 0000 0000 0000 0000 0000 0000 0000 0000
00000140: 0000 0000 0000 0000 0000 0000 0000 0000
00000150: 0000 0000 0000 0080 0000 0000 0000 0000
00000160: 0000 0000 0000 0000 0000 0000 0000 0000
00000170: 0000 0000 0000 0000 0000 0000 0000 0080
00000180: 0000 0080 0000 0000 0000 0000 0000 0000
00000190: 0000 0000 0000 0000 0000 0000 0000 0000
000001a0: 0000 0000 0000 0000 0000 0000 0000 0000
000001b0: 0000 0000 0000 0000 0000 0000 0000 0000
000001c0: 0000 0000 0000 0000 0000 0000 0000 0000
000001d0: 0000 0000 0000 0000 0000 0000 0000 0000
000001e0: 0000 0000 0000 0000 0000 0000 0000 0000
000001f0: 0000 0000 0000 0080 0000 0000 0000 0000
00000200: 0000 0000 0000 0000 0000 0000 0000 0000
00000210: 0000 0000 0000 0000 0000 0000 0000 0000
00000220: 0000 0000 0000 0000 0000 0000 0000 0000
00000230: 0000 0000 0000 0000 0000 0000 0000 0080
00000240: 0000 0000 0000 0000 0000 0000 0000 0000
00000250: 0000 0000 0000 0000 0000 0000 0000 0000
00000260: 0000 0000 0000 0080 0000 0000 0000 0000
00000270: 0000 0000 0000 0000 0000 0000 0000 0000
00000280: 0000 0000 0000 0000 0000 0000 0000 0000
00000290: 0000 0000 0000 0000 0000 0000 0000 0000
000002a0: 0000 0000 0000 0080 0000 0000 0000 0000
000002b0: 0000 0000 0000 0080 0000 0000 0000 0000
000002c0: 0000 0000 0000 0000 0000 0000 0000 0000
000002d0: 0000 0000 0000 0000 0000 0000 0000 0000
000002e0: 0000 0000 0000 0000 0000 0000 0000 0000
000002f0: 0000 0000 0000 0000 0000 0000 0000 0000
00000300: 0000 0000 0000 0000 0000 0000 0000 0000
00000310: 0000 0000 0000 0000 0000 0000 0000 0000
00000320: 0000 0000 0000 0000 0000 0080 0000 0000
00000330: 0000 0000 0000 0000 0000 0000 0000 0000
00000340: 0000 0000 0000 0000 0000 0080 0000 0000
00000350: 0000 0000 0000 0000 0000 0000 0000 0000
00000360: 0000 0000 0000 0000 0000 0000 0000 0000
00000370: 0000 0000 0000 0000 0000 0000 0000 0000
00000380: 0000 0000 0000 0000 0000 0000 0000 0000
00000390: 0000 0080 0000 0000 0000 0000 0000 0000
000003a0: 0000 0000 0000 0000 0000 0000 0000 0000
000003b0: 0000 0000 0000 0000 0000 0000 0000 0000
000003c0: 0000 0000 0000 0000 0000 0000 0000 0000
000003d0: 0000 0000 0000 0080 0000 0000 0000 0000
000003e0: 0000 0000 0000 0000 0000 0000 0000 0000
000003f0: 0000 0000 0000 0000 0000 0000 0000 0000

var f4 [256]
1.0 1.0 1.0 1.0 1.0 1.0 1.0 1.0
1.0 1.0 1.0 1.0 1.0 1.0 1.0 1.0
1.0 1.0 1.0 1.0 1.0 1.0 1.0 1.0
1.0 1.0 1.0 1.0 1.0 1.0 1.0 1.0
1.0 1.0 1.0 1.0 1.0 1.0 1.0 1.0
1.0 1.0 1.0 1.0 1.0 1.0 1.0 1.0
1.0 1.0 1.0 1.0 1.0 1.0 1.0 1.0
1.0 1.0 1.0 1.0 1.0 1.0 1.0 1.0
1.0 1.0 1.0 1.0 1.0 1.0 1.0 1.0
1.0 1.0 1.0 1.0 1.0 1.0 1.0 1.0
1.0 1.0 1.0 1.0 1.0 1.0 1.0 1.0
1.0 1.0 1.0 1.0 1.0 1.0 1.0 1.0
1.0 1.0 1.0 1.0 1.0 1.0 1.0 1.0
1.0 1.0 1.0 1.0 1.0 1.0 1.0 1.0
1.0 1.0 1.0 1.0 1.0 1.0 1.0 1.0
1.0 1.0 1.0 1.0 1.0 1.0 1.0 1.0
1.0 1.0 1.0 1.0 1.0 1.0 1.0 1.0
1.0 1.0 1.0 1.0 1.0 1.0 1.0 1.0
1.0 1.0 1.0 1.0 1.0 1.0 1.0 1.0
1.0 1.0 1.0 1.0 1.0 1.0 1.0 1.0
1.0 1.0 1.0 1.0 1.0 1.0 1.0 1.0
1.0 1.0 1.0 1.0 1.0 1.0 1.0 1.0
1.0 1.0 1.0 1.0 1.0 1.0 1.0 1.0
1.0 1.0 1.0 1.0 1.0 1.0 1.0 1.0
1.0 1.0 1.0 1.0 1.0 1.0 1.0 1.0
1.0 1.0 1.0 1.0 1.0 1.0 1.0 1.0
1.0 1.0 1.0 1.0 1.0 1.0 1.0 1.0
1.0 1.0 1.0 1.0 1.0 1.0 1.0 1.0
1.0 1.0 1.0 1.0 1.0 1.0 1.0 1.0
1.0 1.0 1.0 1.0 1.0 1.0 1.0 1.0
1.0 1.0 1.0 1.0 1.0 1.0 1.0 1.0
1.0 1.0 1.0 1.0 1.0 1.0 1.0 1.0
00000000: 0000 803f 0000 803f 0000 803f 0000 803f
00000010: 0000 803f 0000 803f 0000 803f 0000 803f
00000020: 0000 803f 0000 803f 0000 803f 0000 803f
00000030: 0000 803f 0000 803f 0000 803f 0000 803f
00000040: 0000 803f 0000 803f 0000 803f 0000 803f
00000050: 0000 803f 0000 803f 0000 803f 0000 803f
00000060: 0000 803f 0000 803f 0000 803f 0000 803f
00000070: 0000 803f 0000 803f 0000 803f 0000 803f
00000080: 0000 803f 0000 803f 0000 803f 0000 803f
00000090: 0000 803f 0000 803f 0000 803f 0000 803f
000000a0: 0000 803f 0000 803f 0000 803f 0000 803f
000000b0: 0000 803f 0000 803f 0000 803f 0000 803f
000000c0: 0000 803f 0000 803f 0000 803f 0000 803f
000000d0: 0000 803f 0000 803f 0000 803f 0000 803f
000000e0: 0000 803f 0000 803f 0000 803f 0000 803f
000000f0: 0000 803f 0000 803f 0000 803f 0000 803f
00000100: 0000 803f 0000 803f 0000 803f 0000 803f
00000110: 0000 803f 0000 803f 0000 803f 0000 803f
00000120: 0000 803f 0000 803f 0000 803f 0000 803f
00000130: 0000 803f 0000 803f 0000 803f 0000 803f
00000140: 0000 803f 0000 803f 0000 803f 0000 803f
00000150: 0000 803f 0000 803f 0000 803f 0000 803f
00000160: 0000 803f 0000 803f 0000 803f 0000 803f
00000170: 0000 803f 0000 803f 0000 803f 0000 803f
00000180: 0000 803f 0000 803f 0000 803f 0000 803f
00000190: 0000 803f 0000 803f 0000 803f 0000 803f
000001a0: 0000 803f 0000 803f 0000 803f 0000 803f
000001b0: 0000 803f 0000 803f 0000 803f 0000 803f
000001c0: 0000 803f 0000 803f 0000 803f 0000 803f
000001d0: 0000 803f 0000 803f 0000 803f 0000 803f
000001e0: 0000 803f 0000 803f 0000 803f 0000 803f
000001f0: 0000 803f 0000 803f 0000 803f 0000 803f
00000200: 0000 803f 0000 803f 0000 803f 0000 803f
00000210: 0000 803f 0000 803f 0000 803f 0000 803f
00000220: 0000 803f 0000 803f 0000 803f 0000 803f
00000230: 0000 803f 0000 803f 0000 803f 0000 803f
00000240: 0000 803f 0000 803f 0000 803f 0000 803f
00000250: 0000 803f 0000 803f 0000 803f 0000 803f
00000260: 0000 803f 0000 803f 0000 803f 0000 803f
00000270: 0000 803f 0000 803f 0000 803f 0000 803f
00000280: 0000 803f 0000 803f 0000 803f 0000 803f
00000290: 0000 803f 0000 803f 0000 803f 0000 803f
000002a0: 0000 803f 0000 803f 0000 803f 0000 803f
000002b0: 0000 803f 0000 803f 0000 803f 0000 803f
000002c0: 0000 803f 0000 803f 0000 803f 0000 803f
000002d0: 0000 803f 0000 803f 0000 803f 0000 803f
000002e0: 0000 803f 0000 803f 0000 803f 0000 803f
000002f0: 0000 803f 0000 803f 0000 803f 0000 803f
00000300: 0000 803f 0000 803f 0000 803f 0000 803f
00000310: 0000 803f 0000 803f 0000 803f 0000 803f
00000320: 0000 803f 0000 803f 0000 803f 0000 803f
00000330: 0000 803f 0000 803f 0000 803f 0000 803f
00000340: 0000 803f 0000 803f 0000 803f 0000 803f
00000350: 0000 803f 0000 803f 0000 803f 0000 803f
00000360: 0000 803f 0000 803f 0000 803f 0000 803f
00000370: 0000 803f 0000 803f 0000 803f 0000 803f
00000380: 0000 803f 0000 803f 0000 803f 0000 803f
00000390: 0000 803f 0000 803f 0000 803f 0000 803f
000003a0: 0000 803f 0000 803f 0000 803f 0000 803f
000003b0: 0000 803f 0000 803f 0000 803f 0000 803f
000003c0: 0000 803f 0000 803f 0000 803f 0000 803f
000003d0: 0000 803f 0000 803f 0000 803f 0000 803f
000003e0: 0000 803f 0000 803f 0000 803f 0000 803f
000003f0: 0000 803f 0000 803f 0000 803f 0000 803f

dense_2/kernel:0 f4 [512, 256]
0.045788698 -0.017572418 0.0020208277 0.015970252 -0.017676834 0.002123707 0.044698253 -0.009417626
0.050289575 -0.0091176545 0.0016596024 0.014508375 -0.010367191 0.01155691 0.030107915 0.015322707
-0.0011751633 -0.0021408303 -0.030110855 -0.016078057 0.014542772 -0.016073259 -0.07450893 0.0043736813
0.015744694 -0.031703565 0.0026678913 0.041896526 0.0005086251 0.0044381754 0.027763398 -0.037594937
0.02211475 -0.013837437 -0.012677053 0.013905779 0.03407469 0.003744865 0.013512475 -0.013454904
-0.025247961 0.025565913 -0.035063494 0.035318885 0.015530836 0.0030951481 -0.045487706 -0.032629192
0.0050813584 0.011658584 0.015271684 -0.012628766 -0.059366867 0.0031733685 0.016659122 0.03220409
0.03323492 0.009470824 -0.018781452 0.013916126 -0.005219865 0.059328727 -0.030693399 0.028160017
-0.01283326 0.015325508 -0.046835124 0.0028611931 -0.024414117 0.045149423 0.04335744 -0.0056810984
-0.029436642 0.02130118 -0.0006455101 0.005305324 0.009416701 -0.04844058 -0.014728374 0.012495134
3.120664e-05 -0.01670518 0.009939601 0.021935167 -0.013931067 -0.033641767 0.03770645 -0.03478517
0.063775204 0.055854566 0.013726277 0.030864663 -0.022658437 0.00694766 0.038443226 -0.023091173
-0.040910825 0.060333285 0.06271229 0.028191432 0.044807017 0.03353444 0.043410502 -0.0065344013
0.0073975725 0.021638714 0.0037856787 -0.02237123 0.033800814 0.0028685143 0.043414645 0.024924932
-0.0038626492 0.0065750056 -0.016283698 0.06043581 0.0059792134 0.04379721 -0.041664053 -0.013435104
0.0033584884 -0.027319202 0.036515906 -0.0048051854 0.03531984 -0.016009327 0.0025791973 0.041099533
-0.020553688 -0.002387632 -0.030551 0.02744867 0.02753529 -0.015787024 -0.013733934 0.0039054528
0.03868933 0.010457721 -0.023370333 0.013209307 -0.022913823 0.011211902 0.034142494 -0.0047613024
0.011231445 0.005155953 0.012255439 -0.0016916295 0.10216536 0.024885302 -0.030700253 0.049056135
0.008178001 -0.0046824208 0.00023434624 -0.051333748 0.038153913 0.0011883363 0.015178516 -0.025508903
0.09800731 0.007308298 -0.047093317 0.009950082 0.03819822 -0.023302803 0.042550623 -0.013316375
0.03413307 0.052481532 -0.012814367 0.02689746 0.08207354 0.050479818 -0.011584461 -0.0055811624
-0.027644534 0.037075218 -0.021879533 0.010487757 0.02010712 0.043289393 0.02675829 0.0037660971
0.0189702 -0.0103733055 0.008751827 -0.011242709 -0.034017313 -0.019919623 -0.018317888 -0.021385582
0.015360586 0.00044249598 0.016037304 -0.00069810794 0.0045750584 -0.009243964 0.030480772 -0.018448213
-0.019691704 0.008357971 -0.016544636 -0.013298994 -0.012062495 0.0018220447 0.01816 0.061152045
-0.06913582 0.007414742 -0.014371072 0.013019356 -0.04776429 -0.026854085 -0.047626097 -0.030657468
0.039858676 -0.032878526 -0.017733598 0.05753829 0.01083722 -0.044586048 -0.015193728 8.201739e-05
0.0050860634 0.042327084 0.036131818 0.0011877433 -0.017378451 0.065465845 -0.022637805 -0.054533064
0.005227761 -0.022721156 0.0725923 0.00056381227 0.017394383 -0.032340083 0.0047949287 0.03315216
-0.036110267 0.025519282 0.024161078 -0.022668865 0.010195384 -0.0049334667 0.016476767 -0.04725
0.013750565 0.020260192 0.034638472 0.058413506 0.034611687 -0.046240624 0.0006977531 -0.023103826
00000000: ee8c 3b3d 08f4 8fbc dd6f 043b 0cd4 823c
00000010: 02cf 90bc e42d 0b3b 8415 373d 634c 1abc
00000020: 71fc 4d3d 3762 15bc 0487 d93a 89b4 6d3c
00000030: 27db 29bc 3259 3d3c e0a4 f63c 170c 7b3c
00000040: f007 9aba 2c4d 0cbb 0aab f6bc 21b6 83bc
00000050: cf44 6e3c 11ac 83bc 2398 98bd 1951 8f3b
00000060: 04fb 803c 99db 01bd cad7 2e3b b19b 2b3d
00000070: 4155 053a 1d6e 913b 1170 e33c 26fd 19bd
00000080: fe29 b53c 6bb6 62bc 6ab3 4fbc 11d5 633c
00000090: e791 0b3d 696c 753b 6e63 5d3c f571 5cbc
000000a0: d0d4 cebc 9b6f d13c bd9e 0fbd 89aa 103d
000000b0: 0c75 7e3c f8d7 4a3b 5151 3abd 30a6 05bd
000000c0: 8681 a63b a503 3f3c 1636 7a3c e2e8 4ebc
000000d0: ac2a 73bd 4af8 4f3b b678 883c 70e8 033d
000000e0: 5721 083d 842b 1b3c 8fdb 99bc 7700 643c
000000f0: 670b abbb ae02 733d b970 fbbc d6af e63c
00000100: 9842 52bc d717 7b3c 30d6 3fbd db82 3b3b
00000110: 1d00 c8bc 9aee 383d 9297 313d 8228 babb
00000120: 1d25 f1bc d07f ae3c 7337 29ba 49d8 ad3b
00000130: 8248 1a3c a169 46bd 474f 71bc 64b8 4c3c
00000140: e0e3 0238 4dd9 88bc b5d9 223c 61b1 b33c
00000150: 213f 64bc f3cb 09bd 1472 1a3d e57a 0ebd
00000160: 939c 823d c2c7 643d 2ee4 603c e4d7 fc3c
00000170: 309e b9bc 32a9 e33b a576 1d3d b329 bdbc
00000180: 1c92 27bd 0920 773d 4d6f 803d b8f1 e63c
00000190: 9087 373d 695b 093d 36cf 313d 881e d6bb
000001a0: 5667 f23b ac43 b13c 2619 783b df43 b7bc
000001b0: b972 0a3d affd 3b3b 8ed3 313d 5f2f cc3c
000001c0: 8024 7dbb 2573 d73b 6465 85bc 8a8b 773d
000001d0: 47ed c33b b464 333d eda7 2abd e91e 5cbc
000001e0: 161a 5c3b 85cc dfbc b491 153d d174 9dbb
000001f0: 89ab 103d fe25 83bc c007 293b fc57 283d
00000200: 3560 a8bc d179 1cbb 1746 fabc 08dc e03c
00000210: b091 e13c ca53 81bc 4b04 61bc a0f2 7f3b
00000220: b478 1e3d dc56 2b3c 2473 bfbc d96b 583c
00000230: c5b5 bbbc 20b2 373c 00d9 0b3d b304 9cbb
00000240: 1804 383c 45f3 a83b 09cb 483c abb9 ddba
00000250: 123c d13d 43dc cb3c 197f fbbc 16ef 483d
00000260: 06fd 053c fe6e 99bb d7ba 7539 5643 52bd
00000270: 4747 1c3d f3c1 9b3a 4faf 783c 0cf8 d0bc
00000280: 0eb8 c83d 727a ef3b ece4 40bd ab05 233c
00000290: bd75 1c3d 85e5 bebc 9049 2e3d ed2c 5abc
000002a0: 1ecf 0b3d e0f6 563d 5af3 51bc 1058 dc3c
000002b0: 2c16 a83d edc3 4e3d c0cc 3dbc 2fe2 b6bb
000002c0: ca76 e2bc 2fdc 173d b53c b3bc d7d4 2b3c
000002d0: b0b7 a43c 3850 313d 3434 db3c a0d0 763b
000002e0: 6567 9b3c ccf4 29bc d363 0f3c 5733 38bc
000002f0: bd55 0bbd 7a2e a3bc 650f 96bc d130 afbc
00000300: f8aa 7b3c cefe e739 aa60 833c 3b01 37ba
00000310: 5fea 953b ff73 17bc d0b2 f93c b520 97bc
00000320: 7f50 a1bc dfef 083c 9e88 87bc 06e4 59bc
00000330: c5a1 45bc add1 ee3a 48c4 943c 917a 7a3d
00000340: 1597 8dbd 5df7 f23b a574 6bbc 234f 553c
00000350: 7da4 43bd 19fd dbbc 9513 43bd 5f25 fbbc
00000360: da42 233d a2ab 06bd 0d46 91bc 45ad 6b3d
00000370: 988e 313c dc9f 36bd 1def 78bc c000 ac38
00000380: fea8 a63b 2a5f 2d3d f5fe 133d 0dae 9b3a
00000390: 415d 8ebc f512 863d eb72 b9bc 105e 5fbd
000003a0: a34d ab3b b821 babc 46ab 943d cdcc 133a
000003b0: aa7e 8e3c 0977 04bd c71e 9d3b 8fca 073d
000003c0: 5ce8 13bd d00d d13c 74ed c53c 0eb4 b9bc
000003d0: 8a0a 273c eba8 a1bb 49fa 863c 3789 41bd
000003e0: 0d4a 613c b4f8 a53c 12e1 0d3d 0043 6f3d
000003f0: fcc4 0d3d cf66 3dbd 6be9 363a 3c44 bdbc

dense_2/bias:0 f4 [256]
0.00089042785 -0.0005756485 0.00039296623 -0.0007281797 -0.0003901564 -0.00049166015 0.00020660747 -9.43522e-05
-0.00020420867 0.0004340533 0.00041471564 -6.413944e-05 -0.0003222464 -0.0010106254 0.0006472889 0.0007990706
2.4575287e-05 2.0447638e-05 0.0003569628 0.0007199245 -0.000119779244 0.00027871397 0.0006029762 -0.00030725938
0.0005119083 0.0005013435 0.0007103835 -0.00043404114 3.3239372e-05 0.0002631001 -7.80942e-06 -0.0007155987
0.00016582749 -0.00010463921 0.0002650797 0.0007898265 -0.00074506376 -0.0006684862 -0.0006323347 0.00088319345
0.00014654196 -0.0008228972 -0.00015612191 0.000410182 0.0004100771 -1.7573377e-06 0.00013053411 0.0005962204
0.000112794725 -0.00028511425 -5.897546e-05 0.0002436095 0.00038169432 0.00039160196 -0.00035234774 -0.00076804956
0.00016898951 0.00016365766 0.00023741367 0.0006076093 -2.4510871e-05 -0.00087425194 3.9916406e-05 -0.00025956123
5.074845e-05 -0.000135206 0.00010172131 8.44771e-05 1.2902808e-07 0.00017191318 0.00035411204 -0.00048488643
0.001189573 -0.0012860493 -0.0010207712 0.0013507166 4.4587614e-05 0.0006296277 -0.00026400454 -0.0005298045
0.00016483969 0.00078691455 8.092135e-05 -0.00024130993 -0.0013392296 -0.00073744886 -0.00037666064 -0.00048580623
0.0026119703 0.00021436885 -0.00046323967 0.0004674334 0.0013247062 0.0005675427 -0.0008985838 0.00016710984
-0.0004537373 -0.0007652718 6.475438e-05 0.00020793632 -0.0012579018 0.00013465602 4.0133003e-05 -0.0004915781
8.862525e-05 0.00077611883 0.0007697587 -0.00076273776 -0.0007724214 -0.00018863815 2.3641054e-05 -0.00017938243
0.0009798713 -0.00013266389 -0.0004268586 0.000645068 -0.0007088774 9.4178395e-05 -0.00021988749 -0.00054765574
-0.001144063 -0.0005458916 0.0012674535 -0.00058030675 -0.000103823775 0.0001821716 0.00032999512 0.0003480955
-0.00042941596 0.00019527758 -0.00017920596 0.00033344014 0.000569789 -0.0011638592 0.00074243586 0.00047621233
0.0010284409 -0.000576754 0.00040369135 -0.0007212036 -1.1083316e-05 -0.0016434506 -0.00036253437 0.0023257087
-0.00032922128 0.0009210024 0.0006993456 1.2642692e-05 0.0001636078 0.00031345288 0.0006925773 0.00067537435
0.00013259242 0.00064236135 -0.0010145004 -0.00046070118 -0.0007462372 -0.0008477164 -4.512402e-05 7.4773416e-05
0.0008295483 -5.7208426e-06 -3.1799795e-05 0.00065605354 0.00071482884 3.655958e-05 9.162234e-05 -0.00031111948
0.00028507537 -0.0014698594 -0.00075955887 0.00011945226 -0.00036680957 -0.0006409662 -0.00015134044 0.00019895652
-2.8340311e-05 0.0008509562 0.00013103319 -0.00011858309 -0.0006551878 -2.2546732e-05 -0.0005335151 0.0007889778
0.00036097816 0.0005568335 0.000871717 -0.00059395574 -0.0009613156 -1.9392084e-05 -0.00012643426 0.00042183616
-0.000953545 0.0006282709 -0.0007868564 0.0001854064 -0.00036161224 -0.0013628801 -2.2540868e-05 -0.00022124153
-0.0009943806 0.0005205082 5.155793e-05 0.00016997952 0.00054797647 -0.00045702048 -0.00066131674 -0.00027191846
-0.00061062997 -0.00025017743 -8.78489e-05 -0.0012364073 -0.0006470555 0.00060188747 0.0004455427 -0.00059099053
0.00045668677 0.0016587585 -0.0003540881 -0.00064181606 -0.00029336315 -5.3798452e-05 -4.3592565e-05 -0.0009823783
0.0005576581 0.0002942977 0.00037582536 -0.00056344265 0.00051767775 0.00070749153 0.0007926764 0.00093880226
0.0014778756 0.0005327787 7.663712e-05 -0.00040102043 -0.0007849901 0.00054941163 2.5618045e-05 0.00059232133
-0.00049194816 -0.00035995754 0.00017905486 -7.3496165e-05 0.0010619455 -5.1192597e-05 -0.00060305116 -0.00038899822
-0.0014977553 0.0010212422 -0.0004899824 -0.0007394101 -0.00044397914 0.0004763673 -0.00059234764 0.00012942015
00000000: 9a6b 693a 1ee7 16ba 0907 ce39 50e3 3eba
00000010: e88d ccb9 c1e2 00ba c5a4 5839 f4de c5b8
00000020: d920 56b9 a691 e339 316e d939 9a82 86b8
00000030: 2ef3 a8b9 f676 84ba d3ae 293a b878 513a
00000040: 0727 ce37 f886 ab37 bc26 bb39 51b9 3c3a
00000050: fe31 fbb8 5b20 9239 0c11 1e3a a817 a1b9
00000060: 9631 063a 986c 033a 0839 3a3a 0490 e3b9
00000070: 816a 0b38 b3f0 8939 3405 03b7 0497 3bba
00000080: fae1 2d39 c071 dbb8 65fa 8a39 5c0c 4f3a
00000090: 6250 43ba 593d 2fba 43c3 25ba 1c86 673a
000000a0: 0fa9 1939 b2b7 57ba a8b4 23b9 b20d d739
000000b0: 9eff d639 aadd ebb5 fcdf 0839 ac4b 1c3a
000000c0: 358c ec38 637b 95b9 6b5c 77b8 6d71 7f39
000000d0: 251e c839 ed4f cd39 50bb b8b9 ef56 49ba
000000e0: c732 3139 859b 2b39 3ff2 7839 f847 1f3a
000000f0: b29c cdb7 0e2e 65ba ea6b 2738 b815 88b9
00000100: bcda 5438 16c6 0db9 3653 d538 4c29 b138
00000110: f88a 0a34 9843 3439 1da8 b939 5b38 feb9
00000120: 72eb 9b3a a790 a8ba 66cb 85ba 870a b13a
00000130: 9603 3b38 9a0d 253a 176a 8ab9 94e2 0aba
00000140: d1d8 2c39 f148 4e3a 52b4 a938 2408 7db9
00000150: 1789 afba 5b51 41ba 897a c5b9 cfb3 feb9
00000160: 972d 2b3b 33c8 6039 fade f2b9 d911 f539
00000170: c4a1 ad3a 25c7 143a f08e 6bba 353a 2f39
00000180: 97e3 edb9 859c 48ba becc 8738 7b09 5a39
00000190: 2ee0 a4ba 7332 0d39 7c54 2838 3fdd 00ba
000001a0: 52dc b938 7474 4b3a a2c9 493a 77f2 47ba
000001b0: 537c 4aba 2bcd 45b9 c750 c637 9b18 3cb9
000001c0: 066f 803a b11b 0bb9 fecb dfb9 c819 293a
000001d0: f5d3 39ba a481 c538 9991 66b9 8e90 0fba
000001e0: 62f4 95ba 2a1a 0fba af20 a63a ba1f 18ba
000001f0: f7bb d9b8 5105 3f39 3203 ad39 9680 b639
00000200: 3c23 e1b9 6dc3 4c39 3ce9 3bb9 94d1 ae39
00000210: e45d 153a a28c 98ba 07a0 423a 23ac f939
00000220: c0cc 863a 4e31 17ba 89a6 d339 280f 3dba
00000230: 7bf2 39b7 0d69 d7ba 8a12 beb9 eb6a 183b
00000240: 559b acb9 6d6f 713a 4a54 373a f31b 5437
00000250: 228e 2b39 ef56 a439 138e 353a 9b0b 313a
00000260: 8208 0b39 2464 283a fcf8 84ba 448a f1b9
00000270: 219f 43ba 4939 5eba 8c43 3db8 accf 9c38
00000280: 0b76 593a aaf5 bfb6 c560 05b8 02fb 2b3a
00000290: 5a63 3b3a 8d57 1938 5f25 c038 c01d a3b9
000002a0: 2b76 9539 4ca8 c0ba 221d 47ba 7282 fa38
000002b0: 5950 c0b9 8306 28ba 24b1 1eb9 fc9e 5039
000002c0: 5bbc edb7 b412 5f3a f465 0939 d0af f8b8
000002d0: e9c0 2bba bd22 bdb7 98db 0bba 67d3 4e3a
000002e0: ab41 bd39 77f8 113a f083 643a b2b3 1bba
000002f0: cc00 7cba 2fac a2b7 7093 04b9 e429 dd39
00000300: 52f7 79ba 8cb2 243a 0a45 4eba a769 4239
00000310: c696 bdb9 aba2 b2ba 2516 bdb7 12fd 67b9
00000320: e055 82ba b772 083a e83f 5838 883c 3239
00000330: 14a6 0f3a 409c efb9 375c 2dba 4790 8eb9
00000340: af12 20ba 3f2a 83b9 853b b8b8 f20e a2ba
00000350: 299f 29ba fcc7 1d3a bb97 e939 b4ec 1aba
00000360: 766f ef39 b36a d93a e6a4 b9b9 8c3f 28ba
00000370: 89ce 99b9 a6a5 61b8 29d7 36b8 25c3 80ba
00000380: cd2f 123a f84b 9a39 6d0a c539 ffb3 13ba
00000390: c4b4 073a f476 393a 9dcb 4f3a f419 763a
000003a0: 47b5 c13a 2caa 0b3a 3eb8 a038 0d40 d2b9
000003b0: cbc7 4dba 6406 103a 55e6 d637 0346 1b3a
000003c0: 15f6 00ba afb8 bcb9 acc0 3b39 f421 9ab8
000003d0: fa30 8b3a a2b7 56b8 1416 1eba 75f2 cbb9
000003e0: 5450 c4ba 34db 853a 2a72 00ba f9d4 41ba
000003f0: dfc5 e8b9 f0c0 f939 c747 1bba f5b4 0739

scale1 f4 [512]
3.3295774 4.70131 4.1439323 4.6775274 4.37259 5.1861076 4.5820646 3.3430617
3.887282 3.8438125 3.1116657 4.653681 4.4631634 4.1990895 4.155995 5.0951605
5.1849265 4.29422 4.533221 3.4588335 4.175148 3.8652632 4.37474 4.382017
4.543285 4.103951 3.3527339 4.7714553 4.0923777 3.1793404 3.5977967 3.9031165
3.8762162 3.540347 4.5781035 3.8418741 3.3291068 4.012236 4.310614 3.6258984
4.4976044 5.1070004 4.482744 5.0735774 4.7798877 3.043196 4.293677 4.143273
5.706349 4.0996532 3.3823442 4.864671 4.6664376 4.3682666 2.8677263 3.5662484
3.3274918 3.8105328 3.9322443 4.5144067 3.267543 4.979347 5.0007553 5.587445
5.5462675 4.0308485 4.500067 4.2150283 3.6173139 4.201709 3.2796998 4.3342786
5.3321395 3.806266 5.1442904 3.9444666 4.4973073 4.444038 3.3484197 4.101208
4.2594366 4.760496 3.4610639 3.7634995 4.1266465 4.062044 4.0839005 3.9959192
2.8466048 5.170524 3.374921 4.786904 3.4355164 3.0376139 4.3791223 3.3891146
4.5615625 5.6537232 4.116306 5.2854223 4.9838405 3.7235906 4.3601336 4.832155
4.365672 4.630157 5.053126 3.6713839 4.308518 3.7133381 5.2214065 3.6759474
4.1997294 3.955362 4.2922783 5.1172204 5.198863 4.653841 4.2238975 4.970108
2.9271753 5.2849116 3.6486475 3.3244076 3.579366 4.6067657 4.946425 5.0814276
4.0438967 5.548309 5.277349 4.388296 5.769529 3.846916 4.3060474 3.947837
3.3366084 5.1288013 4.832791 3.7122822 4.12691 4.2830734 4.191531 4.727764
5.3433814 4.4410176 3.445258 4.200941 3.5162208 3.7205553 3.3315718 3.6158023
3.8860176 4.5322704 3.8533626 4.5282087 4.4612036 3.576754 2.8253267 4.1147795
4.055703 3.676233 5.0853467 4.873975 4.502393 5.391976 4.5313835 4.6548343
4.6003327 4.111377 5.2339864 4.110457 3.4835403 5.5936317 4.368404 4.645419
4.5171957 5.7978354 4.316896 3.8167012 4.1059666 3.8893704 4.811962 4.1251245
6.299699 4.079255 4.319178 4.595276 3.8495781 3.9733813 3.8267434 3.5584319
3.378727 5.3939238 3.5805254 3.7657554 4.0404286 4.474299 3.5185347 4.7224855
3.5847926 3.6989863 4.539903 3.8241327 5.026483 3.9507504 3.187853 3.9197462
4.6628447 4.6485767 4.196481 5.497495 5.4121757 3.8804774 4.443823 5.165667
4.3504124 5.304663 4.399313 4.9465995 3.907137 3.0736268 3.4983 3.312454
4.5448313 5.918532 5.075411 4.5189795 4.9360495 4.102192 4.652073 4.79735
3.205577 4.0986795 3.8515785 3.643683 4.1359067 4.3363557 3.7048032 4.7176633
4.803581 3.5586529 3.7412696 5.358669 5.0331564 4.28754 5.7199817 4.295604
5.2971663 4.0272865 3.946514 3.9627802 3.5887685 5.65805 5.146339 4.416158
00000000: cc17 5540 2271 9640 189b 8440 4eae 9540
00000010: 42ec 8b40 98f4 a540 46a0 9240 b9f4 5540
00000020: 3ac9 7840 0601 7640 8825 4740 f4ea 9440
00000030: 3cd2 8e40 f15e 8640 e9fd 8440 8e0b a340
00000040: ebea a540 406a 8940 2510 9140 875d 5d40
00000050: d09a 8540 7960 7740 dffd 8b40 7c39 8c40
00000060: 9762 9140 9153 8340 3193 5640 c3af 9840
00000070: c2f4 8240 507a 4b40 4d42 6640 a9cc 7940
00000080: ed13 7840 0c95 6240 d37f 9240 44e1 7540
00000090: 1610 5540 3d64 8040 8df0 8940 b80e 6840
000000a0: 60ec 8f40 8c6c a340 a472 8f40 bf5a a240
000000b0: d7f4 9840 b9c3 4240 cd65 8940 b195 8440
000000c0: 699a b640 5c30 8340 5478 5840 63ab 9b40
000000d0: 7553 9540 d7c8 8b40 d488 3740 6a3d 6440
000000e0: a0f5 5440 c5df 7340 e4a9 7b40 0576 9040
000000f0: 6d1f 5140 d056 9f40 3006 a040 59cc b240
00000100: 067b b140 b6fc 8040 8d00 9040 83e1 8640
00000110: 1282 6740 6674 8640 9ae6 5140 69b2 8a40
00000120: e3a0 aa40 dd99 7340 079e a440 2472 7c40
00000130: f1e9 8f40 8f35 8e40 824c 5640 193d 8340
00000140: 4e4d 8840 fc55 9840 1282 5d40 2ddd 7040
00000150: 7d0d 8440 44fc 8140 50af 8240 24bd 7f40
00000160: c62e 3640 ef74 a540 b5fe 5740 512e 9940
00000170: 80df 5b40 4468 4240 c521 8c40 41e7 5840
00000180: 52f8 9140 4deb b440 c7b8 8340 2e22 a940
00000190: 9f7b 9f40 4f4f 6e40 3786 8b40 04a1 9a40
000001a0: 96b3 8b40 3f2a 9440 35b3 a140 f4f7 6a40
000001b0: 61df 8940 55a7 6d40 c315 a740 b942 6b40
000001c0: 2f64 8640 a724 7d40 585a 8940 45c0 a340
000001d0: 165d a640 44ec 9440 2b2a 8740 200b 9f40
000001e0: d756 3b40 ff1d a940 7183 6940 18c3 5440
000001f0: 5514 6540 a06a 9340 1d49 9e40 0e9b a240
00000200: 9a67 8140 bf8b b140 0be0 a840 ec6c 8c40
00000210: fb9f b840 df33 7640 24cb 8940 5da9 7c40
00000220: fe8a 5540 241f a440 39a6 9a40 0896 6d40
00000230: a60f 8440 f00e 8940 0621 8640 d849 9740
00000240: fbfc aa40 d11c 8e40 1b7f 5c40 1c6e 8640
00000250: c309 6140 941d 6e40 7938 5540 4e69 6740
00000260: 83b4 7840 5c08 9140 7e9d 7640 16e7 9040
00000270: 2ec2 8e40 8ae9 6440 27d2 3440 46ac 8340
00000280: 52c8 8140 6747 6b40 29bb a240 9af7 9b40
00000290: 9a13 9040 118b ac40 1801 9140 67f4 9440
000002a0: ed35 9340 6690 8340 d17c a740 dd88 8340
000002b0: 53f2 5e40 08ff b240 f7c9 8b40 46a7 9440
000002c0: de8c 9040 de87 b940 0324 8a40 d544 7440
000002d0: 1464 8340 72eb 7840 98fb 9940 0501 8440
000002e0: 2297 c940 4289 8240 b536 8a40 800c 9340
000002f0: 7d5f 7640 e14b 7e40 5de9 7440 59bd 6340
00000300: 103d 5840 069b ac40 5427 6540 2302 7140
00000310: 314b 8140 752d 8f40 ac2f 6140 9a1e 9740
00000320: 3e6d 6540 31bc 6c40 e346 9140 97be 7440
00000330: f3d8 a040 18d9 7c40 c905 4c40 1fdd 7a40
00000340: 0636 9540 24c1 9440 9349 8640 7beb af40
00000350: 8b30 ad40 be59 7840 cc33 8e40 254d a540
00000360: 9436 8b40 cdbf a940 2cc7 8c40 8b4a 9e40
00000370: 880e 7a40 4db6 4440 26e4 5f40 3fff 5340
00000380: 426f 9140 9d64 bd40 c469 a240 7b9b 9040
00000390: 1ef4 9d40 2845 8340 c8dd 9440 e483 9940
000003a0: 2c28 4d40 6228 8340 4380 7640 1a32 6940
000003b0: 5959 8440 6dc3 8a40 7f1b 6d40 19f7 9640
000003c0: f0b6 9940 f8c0 6340 f670 6f40 377a ab40
000003d0: 9e0f a140 8733 8940 170a b740 9775 8940
000003e0: 6382 a940 88df 8040 af93 7c40 319e 7d40
000003f0: 62ae 6540 bf0e b540 cfae a440 2b51 8d40
