data/DNN/Inlusive_noMetCut_amcatnlo_xyComponent_JetLepXY_50EP__diff_xy_2018_20230111-1004genMETweighted.onnx (onnx, 580407 bytes, 24 tensors)

dense_3/kernel:0 f4 [256, 2]
00000000: d732 793e 8b40 2b3d bab5 25be bde3 11be
00000010: 2fa8 9f3d d3db c63e b038 383c 6d8d aabe
00000020: 2f53 acbd 6a42 3c3e 2526 393e a180 9ebc
00000030: 5f4c 8d3c 7f68 9cbe 3473 7abe f444 58be
00000040: 4e21 6abc b874 573c 95f9 173b 1368 01be
00000050: 3eda 4abe fb60 0abe 9f81 f93d fa7a 413d
00000060: 8315 253d dd34 753e 17dc 6d3e 0ac2 9a3d
00000070: 552f 00be e222 0e3e 870b 81be f82e c7bc
00000080: b486 573e f171 b23a d179 c03c 709b 2a3c
00000090: 71cc eebb 673d 75bb dd41 56be d824 cc3d
000000a0: 086b a13d 305c cdbd b155 753e 7c7e 493c
000000b0: 7b2d 383e 6771 123e a110 d73d eb06 7e3c
000000c0: 0433 853d f9e1 96be 35c9 9abd 66ff 153e
000000d0: bc0c 6d3c 5429 60bc 391f 983c d393 b0be
000000e0: 141c 33be 5643 11bc d77d 793c 85e3 a7be
000000f0: efc6 32bd 8ea2 91bd df9e 1e3e 842a ff3d
00000100: 2731 d83d aead 973e 1a67 00be b049 143d
00000110: 18a4 993e 43f3 75be 6996 78be 1738 193e
00000120: 33d5 10be 4dd5 f5bc 9c44 96be 3094 273b
00000130: a01b 5cbd 261d 80be 0e25 26be ef34 31be
00000140: bebb 403d 3602 a5bc daf1 19be bb0d 53be
00000150: 0f45 5c3d f7fb 6e3e be55 463c 2315 053d
00000160: 5293 58be 738c 293e 1ad2 36be 7f9d be3d
00000170: 2260 52be 8545 c93c e238 b3bc e21e 1e3c
00000180: e7ab 273e 6efe a03e 56e2 ac3e 075c 943d
00000190: 428a 54be 85c7 053d e5a2 643e a433 3dbe
000001a0: e36c 9fbd a515 1b3e f976 80bc 1d9c 983e
000001b0: 8dde 3f3e 7a80 1bbe fbd9 123d 1331 2cbe
000001c0: f7b3 fd3d 9471 0b3e 97eb 523c f8dd a0be
000001d0: c18c 42be 6928 253e 79b8 a3be 3567 56be
000001e0: 5ce0 48be 8a8e d93d 957b 713e f636 00be
000001f0: 2643 253e 253f 373d 5095 e83d 1978 eb3d
00000200: 842d e43d 3c0c 503c d6c9 77be 44f0 b4bd
00000210: ee00 05be ae27 613e 1fb1 1abe 9127 273d
00000220: f07d 56bc d46d 8f3e 3372 21bd 252c 00be
00000230: cf0d 1a3d a369 8abe c831 f43d 5454 d439
00000240: ea5b 083e 62e4 503e 0bfc 4b3e f22a 813e
00000250: 061e 0ebe 3cab fa3d db77 a83e 4976 833e
00000260: 29b4 d83c 3222 253d f604 e63b a177 65bc
00000270: bb16 9abd f13a 91be fb17 04be deab 0bbe
00000280: dbdd 0fbf ac7b 00be 67b0 b53b f1bb d43c
00000290: dd91 5b3e 5a2c 9b3d 9884 54be 8d95 ec3d
000002a0: ab2c cf3c 2e72 f13d 9de1 7cbc b1f6 89be
000002b0: ef77 24be c2ad 5ebe 543a 0a3c 5e8c 163c
000002c0: eee8 61be 3774 1fbe aa6d 58be 4bde 8ebd
000002d0: 7442 3fbe 9485 063e fcdd 6dbe 90dc 9abd
000002e0: fcf2 23be 068a d53d 27f3 8bbb 7a35 233d
000002f0: c10b 62be 1443 cebd d6a2 693c 0247 0a3f
00000300: a02a 383d 8c68 59be d2bc d03d ae15 9dbd
00000310: c8db 00bc 8219 b13a 2f34 1b3e 5fc1 94bc
00000320: d75c 3b3e 49b4 adbd 11f8 ab3c 3ff3 87be
00000330: c6ce 523e 5055 d9bd 00e7 083e b340 f93d
00000340: f28b 28be 1f5b d63d df1b 4f3e 4fde 153e
00000350: 0553 22be 9997 103e 6453 4dbb 0f70 153d
00000360: 46a5 6c3e c22d 84bb a9a4 4ebe 807b a63e
00000370: f5b0 433e 139d 113e 6b63 3abe 15ca 713e
00000380: a925 77be b52d 4dbd 78ce dabd 08ea 65be
00000390: 2aca 50bc f8ed ddbc a0ed 63bd c364 febd
000003a0: 6cb1 813e ba5f 6f3d 5624 f8bd 5278 863e
000003b0: 25ba 623e 726e e6bd a576 103d 2f28 87be
000003c0: 7533 013e a72a 3e3e 8af1 59be a11d 5abd
000003d0: 26d0 783e 75a6 afbc 8008 553e 0174 233e
000003e0: f526 d33d d928 f3be e3df 853d b3f0 073e
000003f0: 8f3b f0bd 9893 2bbd d643 b43d 7a85 113e
0.243358 0.0418096 -0.16182604 -0.14247032 0.0779575 0.38839588 0.011243984 -0.33311024
-0.084143035 0.1838471 0.18080957 -0.019348444 0.01724833 -0.30548474 -0.24458009 -0.21120054
-0.014290167 0.0131503865 0.0023189534 -0.12637357 -0.19809815 -0.13513558 0.121829264 0.04723642
0.04030372 0.23945947 0.23228489 0.07556541 -0.12518056 0.13880494 -0.25204107 -0.024314389
0.21047479 0.001361428 0.023495587 0.010413036 -0.007287555 -0.0037420632 -0.20923562 0.09967965
0.07881743 -0.10027349 0.2395847 0.012298223 0.179861 0.14301072 0.105012186 0.015504579
0.06503871 -0.29469278 -0.075579084 0.14648208 0.014468368 -0.013681728 0.018569576 -0.3448778
-0.1749118 -0.008866152 0.015227756 -0.3279077 -0.04364675 -0.07111083 0.15490292 0.12459281
0.1055625 0.29624695 -0.1253933 0.036203086 0.30008006 -0.24018578 -0.24276127 0.14962803
-0.14143829 -0.030008936 -0.2934922 0.0025570504 -0.053737283 -0.25022238 -0.16225073 -0.17305349
0.047054045 -0.020142656 -0.15033665 -0.20610707 0.053776797 0.23338304 0.0121054035 0.03249086
-0.21149948 0.16557483 -0.17853585 0.09307384 -0.20544484 0.024569282 -0.02187771 0.009650918
0.1637417 0.31444114 0.3376643 0.07244115 -0.20755866 0.03266098 0.22327764 -0.1847673
-0.0778444 0.15144975 -0.01568173 0.29806605 0.1873724 -0.15185729 0.035852414 -0.16815595
0.12387841 0.13617545 0.012873552 -0.3141935 -0.18999006 0.16128697 -0.3197668 -0.20937808
-0.19616836 0.1062289 0.23582299 -0.12520966 0.16138896 0.044737954 0.11356604 0.11497516
0.11141494 0.012698229 -0.24198088 -0.088348895 -0.12988636 0.21987793 -0.15106629 0.040809218
-0.013091549 0.2801348 -0.03941555 -0.1251684 0.037610825 -0.2703372 0.119235575 0.0004049862
0.13316312 0.20399621 0.19920366 0.25228077 -0.1387864 0.122396916 0.32903942 0.25676182
0.026453095 0.040315814 0.0070196344 -0.014005573 -0.07523867 -0.2836528 -0.12899773 -0.13639781
-0.561979 -0.12547177 0.0055447104 0.025968524 0.21442361 0.07576819 -0.20753706 0.11551962
0.025289854 0.11789356 -0.01543465 -0.26946023 -0.16061376 -0.21745971 0.008436758 0.00918874
-0.22061512 -0.15571676 -0.21135584 -0.06975993 -0.18677694 0.13136894 -0.23229212 -0.075616
-0.1601066 0.104267165 -0.0042709294 0.03984592 -0.22074796 -0.10071388 0.0142600145 0.540146
0.044962525 -0.21231288 0.101922646 -0.07670151 -0.0078649 0.001351163 0.15156625 -0.018158613
0.18297134 -0.08481652 0.02099231 -0.2655277 0.2058669 -0.10611975 0.1336937 0.121705435
-0.16459635 0.10466599 0.20225476 0.14635585 -0.15851982 0.1412033 -0.0031330222 0.03648382
0.23109922 -0.004033775 -0.2018 0.32516098 0.19110473 0.14220075 -0.18201987 0.23612244
-0.2413546 -0.050092418 -0.10683912 -0.22452557 -0.012743512 -0.027091011 -0.05564654 -0.124215625
0.25330675 0.0584409 -0.121163055 0.26263672 0.22141321 -0.112515345 0.0352694 -0.26397845
0.12617286 0.18570958 -0.21283546 -0.053250913 0.24298152 -0.021441678 0.20804024 0.1596222
0.10310165 -0.47492102 0.06536844 0.13275413 -0.1173011 -0.041888803 0.08802001 0.14211074

dense_3/bias:0 f4 [2]
00000000: ec83 283e c06e 373e
0.16456574 0.17913342

scale f4 [256]
00000000: 638c 543f 55eb 403f b493 2f3f 9fc7 353f
00000010: 868c 2a3f 2c35 353f 44c8 4e3f 7dec 403f
00000020: 66d5 a23f 0e8a 373f effe 313f 8e9e 163f
00000030: e978 2b3f bf8c 5e3f c2df 323f 5887 2f3f
00000040: 73d9 3a3f 060c 4a3f 140d 1a3f 4515 393f
00000050: 23e6 3f3f 4b50 3a3f 9b11 c43e e858 403f
00000060: ab7b a13f 7c52 2d3f f5d8 e03f 7460 263f
00000070: 81bf 3d3f 879a 263f a967 363f bad4 093f
00000080: d02f 303f db31 803f c9f3 5a3f a289 253f
00000090: 02b7 383f 1d52 153f 7781 293f 7d8a 2b3f
000000a0: ae6c 773f 7144 2f3f cc22 503f 26e9 293f
000000b0: f05e 273f 34db 343f dc22 2a3f 0b04 a03f
000000c0: 9c0a 393f 4f57 243f 3634 3b3f 00d8 4e3f
000000d0: ce5c 443f 0f5c 363f 0ed3 163f d68a 2b3f
000000e0: 3fb0 463f 8d0a 393f 5f71 503f b706 523f
000000f0: b3c1 473f 240c 1a3f 9427 283f affe 2f3f
00000100: 601f 7c3f a42b 3f3f 28f5 1f3f 44a6 4e3f
00000110: 9e32 243f 5074 2b3f d79e 1f3f e714 2d3f
00000120: a164 253f 0495 243f f570 2c3f 2cf5 4f3f
00000130: de59 803f ab17 ca3f 3dd9 4d3f 8650 393f
00000140: 4742 413f b5e1 7e3f 4335 343f 1823 583f
00000150: eb8b 543f 1e6f 553f 0519 343f 7309 0340
00000160: 1f4f 293f 7b70 373f 85d2 443f 3493 1f3f
00000170: 0ffb 373f d824 893f a9e0 203f a627 5b3f
00000180: 4411 5d3f 04fd 573f 22d3 753f 9c22 443f
00000190: 4d09 473f 4773 583f 47df 2e3f cc08 703f
000001a0: a81e 293f 3b3e 2b3f 1b91 243f c49f 0e3f
000001b0: d2ef 4e3f 2086 2b3f 627c 553f ee53 493f
000001c0: 4bdd 1c3f bd39 523f 67ce a23f b9bd 313f
000001d0: 8539 453f 6777 323f dd53 263f 1c3e 613f
000001e0: cb38 213f df44 1c3f 7412 293f ae5c 2f3f
000001f0: a3ba 6a3f 33ca 3d3f de2e 493f fd88 2b3f
00000200: d36c 313f 1414 873f 66e3 223f bba6 193f
00000210: b2a1 2d3f 19fc ad3f d6ab 583f 925b 373f
00000220: 0a16 3e3f 253f 5b3f 3cb5 303f 0fb4 5a3f
00000230: cf04 2d3f c3c3 643f 498a 253f 0198 6b3f
00000240: 317b 193f 74f9 343f d420 163f 3dfe 333f
00000250: 256e 353f fba8 573f 6e0f 343f e6d0 343f
00000260: 68fa 453f 66b5 1e3f 5b6c 503f 7f76 5a3f
00000270: 2681 2d3f f5d0 393f 3a9a 323f 18f1 513f
00000280: 4da3 5a3f f0db 343f cfb9 613f 0a89 1a3f
00000290: 687d 4c3f baaf 283f 865a 323f 8de2 3d3f
000002a0: cafb 7f3f e4fd 173f 3666 4c3f 09e6 223f
000002b0: f061 833f 873c 2a3f f199 1e3f 41ba 273f
000002c0: 937a 2d3f 1965 233f 82a3 5c3f ae11 293f
000002d0: dd22 4a3f bdf6 a13f d583 2b3f c160 293f
000002e0: 7bd1 463f 6f27 963f 1cc0 503f f563 463f
000002f0: ff18 3c3f f53c 2c3f 35ec 323f 7a85 313f
00000300: a066 583f 9c0e 353f 5864 5f3f 0fd3 663f
00000310: 9721 643f a62e 123f 15fc 213f e4f6 2d3f
00000320: e920 193f 9a7f a83f ee7e 223f ad08 e13f
00000330: 8dab 433f fa1f 213f c4f1 2f3f 71d2 303f
00000340: 668e 3b3f 2996 1e3f 1683 233f 9078 453f
00000350: e27e 293f 69d2 2f3f 41cc 1e3f 34d0 323f
00000360: c11b 3f3f bed6 223f 9273 203f b0df 2e3f
00000370: ce3d 2c3f 2844 6f3f 8152 2e3f 7945 813f
00000380: c16d 473f ddd8 413f 3dc7 893f 378e 493f
00000390: d084 333f 8187 4d3f 619d 373f 09f8 2e3f
000003a0: 732a 353f 75f6 2d3f 01b9 a43f e5b5 343f
000003b0: 1315 353f 773f 633f 6e13 2f3f 7ec4 803f
000003c0: 00f3 ec3f 2064 303f 0d62 323f 4b17 2d3f
000003d0: 03cc 313f aae2 423f b18b 193f 2dcb 2a3f
000003e0: 5586 3d3f fdd0 253f b237 263f 85cb 1b3f
000003f0: 8239 563f 5854 3e3f fb07 373f e3af 353f
0.83026713 0.7535909 0.6858475 0.7100772 0.6662067 0.7078426 0.8077433 0.7536085
1.2721374 0.7169503 0.6952962 0.58835685 0.6698137 0.8693351 0.6987268 0.68565893
0.7298805 0.78924596 0.60176206 0.7229808 0.74960536 0.7277877 0.38294682 0.7513566
1.2615865 0.67703986 1.756621 0.64990926 0.74120337 0.6507954 0.7125192 0.5384022
0.68822956 1.0015215 0.85528237 0.64663136 0.7215425 0.5832842 0.6621317 0.6700819
0.9665021 0.6846381 0.81303096 0.6637138 0.6537924 0.7064698 0.6645944 1.2501234
0.72281814 0.6419572 0.7312654 0.8079834 0.7670411 0.7123422 0.58915794 0.6700872
0.7761268 0.72281724 0.8142299 0.82041496 0.78029937 0.60174775 0.6568539 0.6874799
0.98485374 0.74675965 0.62483454 0.8072245 0.64139736 0.66974354 0.62351745 0.6761002
0.6460667 0.6428988 0.6735986 0.8123348 1.0027425 1.5788473 0.80409604 0.72388494
0.75491756 0.9956315 0.7039377 0.8442855 0.83026 0.83372676 0.70350677 2.0474517
0.66136354 0.71656007 0.7688373 0.6233399 0.7186746 1.0714369 0.62842804 0.85607374
0.8635447 0.84370446 0.9602529 0.7661531 0.77748567 0.845509 0.68309444 0.9376342
0.660624 0.6689183 0.64283913 0.55712533 0.80834687 0.67001534 0.8339292 0.7864369
0.61275166 0.8211935 1.2719239 0.6943012 0.7704089 0.69713444 0.64971715 0.87985396
0.62977284 0.6104259 0.6604378 0.6850079 0.91691035 0.74136657 0.7858714 0.670059
0.6930668 1.0553002 0.6362823 0.60020036 0.6782485 1.3592559 0.846372 0.716241
0.7425238 0.85643226 0.6902654 0.85431 0.6758546 0.8936121 0.6466413 0.92028815
0.599536 0.70693135 0.5864384 0.7030981 0.7087119 0.8424222 0.70336044 0.70631254
0.77335215 0.6199554 0.8141534 0.8533706 0.6777519 0.7258447 0.6976658 0.82008505
0.8540543 0.706481 0.88174146 0.60365355 0.79878855 0.6589314 0.6966938 0.74173814
0.99993575 0.5937178 0.7984346 0.63632256 1.0264263 0.6649861 0.61953646 0.65518576
0.6776516 0.6382614 0.86186993 0.660426 0.7895945 1.2653424 0.66998035 0.6616326
0.7766339 1.1730784 0.81543136 0.7749627 0.7347564 0.67280513 0.69891673 0.69344294
0.84531593 0.7072542 0.8726249 0.901658 0.89113754 0.5710243 0.6327527 0.6795485
0.5981584 1.3163941 0.6347493 1.7580773 0.7643364 0.6293942 0.6872828 0.6907111
0.7326416 0.61947876 0.63871896 0.7713709 0.6620923 0.68680435 0.62030417 0.6984894
0.74651724 0.6360892 0.62676346 0.6831007 0.67281806 0.93463373 0.6809464 1.0099326
0.77901846 0.7572153 1.0763928 0.7873263 0.7012453 0.8028489 0.71724516 0.6834722
0.707679 0.6795419 1.2868959 0.7059005 0.7073528 0.88768715 0.6838902 1.0059965
1.8511658 0.6890278 0.69680864 0.6761367 0.6945192 0.7612711 0.5997878 0.6671627
0.740331 0.64772016 0.64928734 0.6085742 0.836815 0.7434745 0.7149655 0.70971507

bias f4 [256]
00000000: 4e64 73be bc41 93be 12dc bd3d 62b3 1cbf
00000010: 2be6 bf3e b533 30be bea3 4cbd 700f a3be
00000020: 3644 fcbe b47e 443e 10ea f8be eeab 30bf
00000030: 4813 d6be 35f9 643e 2ff3 94bd 78ba dfbc
00000040: 29f9 37bb 982d 48bf 64e2 13bf 28b8 1fbe
00000050: edd3 e33d 7aef 02be d7ab 4fbf 555c d8bd
00000060: f6f2 63be 1ce2 13bf 0fc3 7bbe 2a67 153e
00000070: 5a58 343d acdc 163e 789f d2be 0956 fc3d
00000080: ebbc 9bbe c524 0cbf 70ee 7f3e d806 8fbe
00000090: fe00 62be f321 663e 9e87 d8be 052c 5b3d
000000a0: 5c85 10be a254 abbd 3431 cb3b 84ef 45bf
000000b0: bc60 403d 9938 9e3d 1e0e 19be c599 00bf
000000c0: 3bfa 33bf 544c d0be a5f1 88be 7eb1 b33d
000000d0: 1ee8 e23d 3552 7b3e 8042 a7ba 47d1 22be
000000e0: 145e eb3d e8d2 ebbd 79a4 093e 8c41 743e
000000f0: a7f8 253e 2485 373e 5511 2ebe d4b6 033e
00000100: ead0 5abd 74f5 dcbe 2f9b f63d 3586 fbbe
00000110: c620 833d bc63 97be 8ce0 44bf d759 723e
00000120: dc84 10bf ba47 a93d 4a28 82be 8b2c 443e
00000130: 8aa4 9abe d352 10bf f461 98be 25bc f63d
00000140: 2433 993e 9775 60be e3a6 b83e ee62 d4bd
00000150: 0b6f cb3e 7fc8 a5be 9a68 67be a098 09bc
00000160: 1fe8 1c3e 87e3 10bf 173e e7be 15ed 12bf
00000170: c125 58be d4bb 57bd 9035 a3be 8a9b 033f
00000180: be1e 9bbe c192 683e 2cbc 19bf 2ee2 fd3d
00000190: 8851 853e da28 b5bd 1aab 453e ae66 0fbf
000001a0: 3795 8e3e be3a 513e 9207 95be 04f1 12bf
000001b0: 00c8 8f3d 0578 153e 30f1 8cbc 15f8 5cbf
000001c0: 1418 59be 7215 81be d82b eebe dbe6 19be
000001d0: 0005 cb3e 877a d8be 6061 02be 0ff8 0dbe
000001e0: b2a0 173e 36b8 11bf 98e0 753e 3e9d 2cbe
000001f0: 0631 5e3e 686e 36bb b48d 8cbe ec2e 263e
00000200: b88e f03d ca29 683d 114e d93d eeaf 313d
00000210: a1ee aa3e 80ba 16bb efdd cdbd eea2 bb3d
00000220: 66b7 363e 13b8 10be a94c 803c 58d1 093e
00000230: 4aeb 74be 4b71 1dbf 2497 1bbd d561 acbe
00000240: dcfd f73d 4ce9 19bf 7b36 02bf 46be 3ebf
00000250: 10d9 003e 02ab b1bd 613a a73d 9a96 b2bc
00000260: f892 a9be a6b6 2abf 14d8 87be b115 8abe
00000270: cc00 00be 55bd 03be 3cab 18be 630c c33e
00000280: 8fb0 10bf c5e0 03bf fab0 abbe 34ff a1be
00000290: 701a 0c3f 6d39 023e 8ba3 d63d 9c0a b1be
000002a0: d1ae 023d 59be 413e f3c8 9ebd cae6 123e
000002b0: d67a 0cbf b8b2 5c3d 49f0 a73c 5941 2b3e
000002c0: 8a4b 673d 773e 563d e523 90be 1c90 983d
000002d0: 8025 153e 9b36 08be 2687 0abd 3f08 2dbd
000002e0: 5ef9 c5be 32b1 0cbe 8b3d 5fbf 4800 4bbc
000002f0: 6e58 c7bd db17 89be 5118 e7bd b07b c9bc
00000300: ab0a f6bd 7a3e 263e 5e67 1ebf 8ceb b4bd
00000310: 06fb 21bf 476c 203e e1e3 37be f5e8 1dbe
00000320: 18ec 09bd b6c5 f6be 11d0 a63e 7914 19be
00000330: a7db 07be 9cf1 433d bf54 023e 9f00 333d
00000340: 7842 a6be 9f20 623e a2b8 23be 223f 93be
00000350: f5ec c1be f458 57bc d3c2 a0be 05e0 023e
00000360: 686f ab3d c40b 9dbd e8f2 f8bc 8ab6 90bd
00000370: b08d 5a3e f0a6 29bc eaf7 0c3e d4de 2bbf
00000380: 3207 513e 107d 99bc c390 933e 7c47 933c
00000390: dd07 423e 04b3 b03e 7ca1 3bbe 1d89 ee3d
000003a0: 806f 29bb fc86 36be 61c0 7abe 3d8d 08bd
000003b0: 102c 883c 80f8 b7bd d77a 8dbe 7613 adbe
000003c0: 9a0b 3b3d 7f80 89be 3405 573d 675d eb3d
000003d0: f23d debe 5693 9c3e f69a 0e3e 2eae 49be
000003e0: 9e73 85be b8a2 3c3e 2d66 2a3e c5d0 32be
000003f0: 640b 473e cc62 11bf e65a 1e3e b68f 043e
-0.23768732 -0.2876109 0.09270491 -0.61211216 0.37480292 -0.17207225 -0.049960844 -0.31847715
-0.4927079 0.19188958 -0.48616076 -0.69012344 -0.41811585 0.2236069 -0.07272946 -0.027310595
-0.0028072095 -0.7819457 -0.5776732 -0.15597594 0.11124406 -0.12786666 -0.8112158 -0.10564486
-0.22260651 -0.5776689 -0.24586128 0.14590135 0.04402957 0.14732617 -0.4113729 0.123210974
-0.3041757 -0.54743606 0.249933 -0.2793491 -0.22070691 0.22473888 -0.42290968 0.053508777
-0.14113373 -0.08365752 0.006200934 -0.77318597 0.046967253 0.07725639 -0.14946792 -0.50234634
-0.70303696 -0.40683234 -0.2674686 0.08774088 0.11079429 0.24543078 -0.0012760907 -0.15900145
0.11492553 -0.115148365 0.13441648 0.23853129 0.16208135 0.17921883 -0.16998799 0.12862712
-0.053421892 -0.43156016 0.12041318 -0.4912583 0.064027354 -0.2956828 -0.7690513 0.23667084
-0.5645273 0.08265634 -0.25421363 0.19157617 -0.30203658 -0.5637638 -0.29762232 0.120476045
0.2992183 -0.21919857 0.36064824 -0.10370432 0.39733157 -0.3237953 -0.22598496 -0.008398205
0.15322922 -0.5659718 -0.45164558 -0.5739301 -0.21108152 -0.05266936 -0.31876802 0.5140921
-0.30296892 0.22712232 -0.6005275 0.12396656 0.26038766 -0.088456824 0.19303551 -0.5601605
0.27848217 0.20432565 -0.29107338 -0.5739901 0.07020569 0.14596565 -0.01720485 -0.86316043
-0.21200591 -0.25211674 -0.46517825 -0.1502947 0.39652252 -0.4228098 -0.12732458 -0.13864158
0.14807394 -0.5692171 0.24011457 -0.16856858 0.21698388 -0.0027836803 -0.2745186 0.16228837
0.117459714 0.05668048 0.10610593 0.04338067 0.33385184 -0.0022999346 -0.10052096 0.09161936
0.17843398 -0.14132719 0.015661554 0.13458765 -0.2391788 -0.61500996 -0.037985936 -0.3366839
0.12108967 -0.6012161 -0.5086438 -0.74509084 0.12582803 -0.08675195 0.08165432 -0.021800328
-0.3311994 -0.6668495 -0.26532042 -0.26969674 -0.12500304 -0.12865193 -0.1490907 0.38095388
-0.5651941 -0.51514846 -0.3353346 -0.31640017 0.5472784 0.12717219 0.10480412 -0.34578407
0.031905 0.18920268 -0.07753172 0.14345852 -0.5487493 0.053881377 0.02050032 0.16724147
0.056468524 0.052305665 -0.28152385 0.07449362 0.14565086 -0.1330208 -0.033820294 -0.042244192
-0.38666815 -0.1373947 -0.8720328 -0.012390204 -0.097336635 -0.26776013 -0.11283935 -0.024595112
-0.120137535 0.1623477 -0.61876476 -0.088339895 -0.63273656 0.15666305 -0.17958023 -0.15420897
-0.033672422 -0.48197716 0.32580617 -0.14949216 -0.13267384 0.04783784 0.1272764 0.043701764
-0.32472587 0.22082756 -0.159884 -0.28759104 -0.37876096 -0.013143767 -0.3139864 0.12780769
0.083708584 -0.0766826 -0.030389264 -0.070660666 0.21343112 -0.010354742 0.13766447 -0.67136884
0.20412901 -0.018736392 0.28821382 0.017978422 0.18948312 0.34511578 -0.1832332 0.11647246
-0.0025853813 -0.1782493 -0.24487449 -0.03333782 0.016622573 -0.089829445 -0.27632782 -0.3380391
0.04566536 -0.26855847 0.052495196 0.114924245 -0.43406636 0.30581158 0.139263 -0.1969535
-0.2606477 0.18421447 0.1664054 -0.17462452 0.19437939 -0.5679138 0.15464363 0.12945446

mean f4 [256]
00000000: 0000 0000 0000 0000 0000 0080 0000 0000
00000010: 0000 0080 0000 0000 0000 0080 0000 0000
00000020: 0000 0000 0000 0080 0000 0000 0000 0000
00000030: 0000 0080 0000 0080 0000 0000 0000 0080
00000040: 0000 0000 0000 0000 0000 0080 0000 0080
00000050: 0000 0080 0000 0080 0000 0000 0000 0000
00000060: 0000 0080 0000 0000 0000 0080 0000 0080
00000070: 0000 0080 0000 0080 0000 0080 0000 0080
00000080: 0000 0080 0000 0000 0000 0080 0000 0080
00000090: 0000 0000 0000 0080 0000 0080 0000 0080
000000a0: 0000 0000 0000 0080 0000 0000 0000 0000
000000b0: 0000 0080 0000 0080 0000 0080 0000 0000
000000c0: 0000 0000 0000 0080 0000 0080 0000 0080
000000d0: 0000 0080 0000 0080 0000 0080 0000 0000
000000e0: 0000 0080 0000 0080 0000 0080 0000 0080
000000f0: 0000 0080 0000 0080 0000 0000 0000 0080
00000100: 0000 0000 0000 0080 0000 0080 0000 0000
00000110: 0000 0080 0000 0000 0000 0000 0000 0080
00000120: 0000 0000 0000 0080 0000 0080 0000 0080
00000130: 0000 0000 0000 0000 0000 0000 0000 0080
00000140: 0000 0080 0000 0080 0000 0080 0000 0000
00000150: 0000 0080 0000 0080 0000 0000 0000 0080
00000160: 0000 0080 0000 0000 0000 0000 0000 0000
00000170: 0000 0080 0000 0000 0000 0080 0000 0080
00000180: 0000 0080 0000 0080 0000 0000 0000 0080
00000190: 0000 0080 0000 0080 0000 0080 0000 0000
000001a0: 0000 0080 0000 0080 0000 0080 0000 0000
000001b0: 0000 0080 0000 0080 0000 0080 0000 0000
000001c0: 0000 0000 0000 0000 0000 0000 0000 0080
000001d0: 0000 0080 0000 0080 0000 0000 0000 0000
000001e0: 0000 0080 0000 0000 0000 0080 0000 0080
000001f0: 0000 0080 0000 0000 0000 0000 0000 0080
00000200: 0000 0080 0000 0000 0000 0080 0000 0080
00000210: 0000 0080 0000 0080 0000 0000 0000 0080
00000220: 0000 0080 0000 0080 0000 0000 0000 0080
00000230: 0000 0000 0000 0000 0000 0080 0000 0000
00000240: 0000 0080 0000 0080 0000 0000 0000 0000
00000250: 0000 0080 0000 0080 0000 0080 0000 0080
00000260: 0000 0000 0000 0000 0000 0000 0000 0080
00000270: 0000 0080 0000 0000 0000 0080 0000 0080
00000280: 0000 0000 0000 0000 0000 0000 0000 0080
00000290: 0000 0080 0000 0080 0000 0080 0000 0000
000002a0: 0000 0080 0000 0080 0000 0080 0000 0080
000002b0: 0000 0000 0000 0080 0000 0080 0000 0080
000002c0: 0000 0080 0000 0080 0000 0000 0000 0080
000002d0: 0000 0080 0000 0080 0000 0000 0000 0080
000002e0: 0000 0000 0000 0000 0000 0000 0000 0080
000002f0: 0000 0000 0000 0000 0000 0080 0000 0080
00000300: 0000 0080 0000 0080 0000 0000 0000 0000
00000310: 0000 0080 0000 0080 0000 0000 0000 0000
00000320: 0000 0000 0000 0000 0000 0080 0000 0080
00000330: 0000 0080 0000 0000 0000 0080 0000 0080
00000340: 0000 0000 0000 0080 0000 0000 0000 0080
00000350: 0000 0000 0000 0080 0000 0080 0000 0080
00000360: 0000 0080 0000 0080 0000 0080 0000 0080
00000370: 0000 0080 0000 0000 0000 0080 0000 0000
00000380: 0000 0080 0000 0080 0000 0080 0000 0080
00000390: 0000 0080 0000 0080 0000 0000 0000 0080
000003a0: 0000 0080 0000 0080 0000 0000 0000 0080
000003b0: 0000 0000 0000 0080 0000 0080 0000 0000
000003c0: 0000 0080 0000 0000 0000 0080 0000 0080
000003d0: 0000 0000 0000 0080 0000 0080 0000 0080
000003e0: 0000 0000 0000 0080 0000 0080 0000 0080
000003f0: 0000 0080 0000 0000 0000 0080 0000 0080
0.0 0.0 -0.0 0.0 -0.0 0.0 -0.0 0.0
0.0 -0.0 0.0 0.0 -0.0 -0.0 0.0 -0.0
0.0 0.0 -0.0 -0.0 -0.0 -0.0 0.0 0.0
-0.0 0.0 -0.0 -0.0 -0.0 -0.0 -0.0 -0.0
-0.0 0.0 -0.0 -0.0 0.0 -0.0 -0.0 -0.0
0.0 -0.0 0.0 0.0 -0.0 -0.0 -0.0 0.0
0.0 -0.0 -0.0 -0.0 -0.0 -0.0 -0.0 0.0
-0.0 -0.0 -0.0 -0.0 -0.0 -0.0 0.0 -0.0
0.0 -0.0 -0.0 0.0 -0.0 0.0 0.0 -0.0
0.0 -0.0 -0.0 -0.0 0.0 0.0 0.0 -0.0
-0.0 -0.0 -0.0 0.0 -0.0 -0.0 0.0 -0.0
-0.0 0.0 0.0 0.0 -0.0 0.0 -0.0 -0.0
-0.0 -0.0 0.0 -0.0 -0.0 -0.0 -0.0 0.0
-0.0 -0.0 -0.0 0.0 -0.0 -0.0 -0.0 0.0
0.0 0.0 0.0 -0.0 -0.0 -0.0 0.0 0.0
-0.0 0.0 -0.0 -0.0 -0.0 0.0 0.0 -0.0
-0.0 0.0 -0.0 -0.0 -0.0 -0.0 0.0 -0.0
-0.0 -0.0 0.0 -0.0 0.0 0.0 -0.0 0.0
-0.0 -0.0 0.0 0.0 -0.0 -0.0 -0.0 -0.0
0.0 0.0 0.0 -0.0 -0.0 0.0 -0.0 -0.0
0.0 0.0 0.0 -0.0 -0.0 -0.0 -0.0 0.0
-0.0 -0.0 -0.0 -0.0 0.0 -0.0 -0.0 -0.0
-0.0 -0.0 0.0 -0.0 -0.0 -0.0 0.0 -0.0
0.0 0.0 0.0 -0.0 0.0 0.0 -0.0 -0.0
-0.0 -0.0 0.0 0.0 -0.0 -0.0 0.0 0.0
0.0 0.0 -0.0 -0.0 -0.0 0.0 -0.0 -0.0
0.0 -0.0 0.0 -0.0 0.0 -0.0 -0.0 -0.0
-0.0 -0.0 -0.0 -0.0 -0.0 0.0 -0.0 0.0
-0.0 -0.0 -0.0 -0.0 -0.0 -0.0 0.0 -0.0
-0.0 -0.0 0.0 -0.0 0.0 -0.0 -0.0 0.0
-0.0 0.0 -0.0 -0.0 0.0 -0.0 -0.0 -0.0
0.0 -0.0 -0.0 -0.0 -0.0 0.0 -0.0 -0.0

var f4 [256]
00000000: 0000 803f 0000 803f 0000 803f 0000 803f
00000010: 0000 803f 0000 803f 0000 803f 0000 803f
00000020: 0000 803f 0000 803f 0000 803f 0000 803f
00000030: 0000 803f 0000 803f 0000 803f 0000 803f
00000040: 0000 803f 0000 803f 0000 803f 0000 803f
00000050: 0000 803f 0000 803f 0000 803f 0000 803f
00000060: 0000 803f 0000 803f 0000 803f 0000 803f
00000070: 0000 803f 0000 803f 0000 803f 0000 803f
00000080: 0000 803f 0000 803f 0000 803f 0000 803f
00000090: 0000 803f 0000 803f 0000 803f 0000 803f
000000a0: 0000 803f 0000 803f 0000 803f 0000 803f
000000b0: 0000 803f 0000 803f 0000 803f 0000 803f
000000c0: 0000 803f 0000 803f 0000 803f 0000 803f
000000d0: 0000 803f 0000 803f 0000 803f 0000 803f
000000e0: 0000 803f 0000 803f 0000 803f 0000 803f
000000f0: 0000 803f 0000 803f 0000 803f 0000 803f
00000100: 0000 803f 0000 803f 0000 803f 0000 803f
00000110: 0000 803f 0000 803f 0000 803f 0000 803f
00000120: 0000 803f 0000 803f 0000 803f 0000 803f
00000130: 0000 803f 0000 803f 0000 803f 0000 803f
00000140: 0000 803f 0000 803f 0000 803f 0000 803f
00000150: 0000 803f 0000 803f 0000 803f 0000 803f
00000160: 0000 803f 0000 803f 0000 803f 0000 803f
00000170: 0000 803f 0000 803f 0000 803f 0000 803f
00000180: 0000 803f 0000 803f 0000 803f 0000 803f
00000190: 0000 803f 0000 803f 0000 803f 0000 803f
000001a0: 0000 803f 0000 803f 0000 803f 0000 803f
000001b0: 0000 803f 0000 803f 0000 803f 0000 803f
000001c0: 0000 803f 0000 803f 0000 803f 0000 803f
000001d0: 0000 803f 0000 803f 0000 803f 0000 803f
000001e0: 0000 803f 0000 803f 0000 803f 0000 803f
000001f0: 0000 803f 0000 803f 0000 803f 0000 803f
00000200: 0000 803f 0000 803f 0000 803f 0000 803f
00000210: 0000 803f 0000 803f 0000 803f 0000 803f
00000220: 0000 803f 0000 803f 0000 803f 0000 803f
00000230: 0000 803f 0000 803f 0000 803f 0000 803f
00000240: 0000 803f 0000 803f 0000 803f 0000 803f
00000250: 0000 803f 0000 803f 0000 803f 0000 803f
00000260: 0000 803f 0000 803f 0000 803f 0000 803f
00000270: 0000 803f 0000 803f 0000 803f 0000 803f
00000280: 0000 803f 0000 803f 0000 803f 0000 803f
00000290: 0000 803f 0000 803f 0000 803f 0000 803f
000002a0: 0000 803f 0000 803f 0000 803f 0000 803f
000002b0: 0000 803f 0000 803f 0000 803f 0000 803f
000002c0: 0000 803f 0000 803f 0000 803f 0000 803f
000002d0: 0000 803f 0000 803f 0000 803f 0000 803f
000002e0: 0000 803f 0000 803f 0000 803f 0000 803f
000002f0: 0000 803f 0000 803f 0000 803f 0000 803f
00000300: 0000 803f 0000 803f 0000 803f 0000 803f
00000310: 0000 803f 0000 803f 0000 803f 0000 803f
00000320: 0000 803f 0000 803f 0000 803f 0000 803f
00000330: 0000 803f 0000 803f 0000 803f 0000 803f
00000340: 0000 803f 0000 803f 0000 803f 0000 803f
00000350: 0000 803f 0000 803f 0000 803f 0000 803f
00000360: 0000 803f 0000 803f 0000 803f 0000 803f
00000370: 0000 803f 0000 803f 0000 803f 0000 803f
00000380: 0000 803f 0000 803f 0000 803f 0000 803f
00000390: 0000 803f 0000 803f 0000 803f 0000 803f
000003a0: 0000 803f 0000 803f 0000 803f 0000 803f
000003b0: 0000 803f 0000 803f 0000 803f 0000 803f
000003c0: 0000 803f 0000 803f 0000 803f 0000 803f
000003d0: 0000 803f 0000 803f 0000 803f 0000 803f
000003e0: 0000 803f 0000 803f 0000 803f 0000 803f
000003f0: 0000 803f 0000 803f 0000 803f 0000 803f
1.0 1.0 1.0 1.0 1.0 1.0 1.0 1.0
1.0 1.0 1.0 1.0 1.0 1.0 1.0 1.0
1.0 1.0 1.0 1.0 1.0 1.0 1.0 1.0
1.0 1.0 1.0 1.0 1.0 1.0 1.0 1.0
1.0 1.0 1.0 1.0 1.0 1.0 1.0 1.0
1.0 1.0 1.0 1.0 1.0 1.0 1.0 1.0
1.0 1.0 1.0 1.0 1.0 1.0 1.0 1.0
1.0 1.0 1.0 1.0 1.0 1.0 1.0 1.0
1.0 1.0 1.0 1.0 1.0 1.0 1.0 1.0
1.0 1.0 1.0 1.0 1.0 1.0 1.0 1.0
1.0 1.0 1.0 1.0 1.0 1.0 1.0 1.0
1.0 1.0 1.0 1.0 1.0 1.0 1.0 1.0
1.0 1.0 1.0 1.0 1.0 1.0 1.0 1.0
1.0 1.0 1.0 1.0 1.0 1.0 1.0 1.0
1.0 1.0 1.0 1.0 1.0 1.0 1.0 1.0
1.0 1.0 1.0 1.0 1.0 1.0 1.0 1.0
1.0 1.0 1.0 1.0 1.0 1.0 1.0 1.0
1.0 1.0 1.0 1.0 1.0 1.0 1.0 1.0
1.0 1.0 1.0 1.0 1.0 1.0 1.0 1.0
1.0 1.0 1.0 1.0 1.0 1.0 1.0 1.0
1.0 1.0 1.0 1.0 1.0 1.0 1.0 1.0
1.0 1.0 1.0 1.0 1.0 1.0 1.0 1.0
1.0 1.0 1.0 1.0 1.0 1.0 1.0 1.0
1.0 1.0 1.0 1.0 1.0 1.0 1.0 1.0
1.0 1.0 1.0 1.0 1.0 1.0 1.0 1.0
1.0 1.0 1.0 1.0 1.0 1.0 1.0 1.0
1.0 1.0 1.0 1.0 1.0 1.0 1.0 1.0
1.0 1.0 1.0 1.0 1.0 1.0 1.0 1.0
1.0 1.0 1.0 1.0 1.0 1.0 1.0 1.0
1.0 1.0 1.0 1.0 1.0 1.0 1.0 1.0
1.0 1.0 1.0 1.0 1.0 1.0 1.0 1.0
1.0 1.0 1.0 1.0 1.0 1.0 1.0 1.0

dense_2/kernel:0 f4 [512, 256]
00000000: 5c42 873c fea7 a73c bc51 193d 5984 373c
00000010: 19fd 2c3c e144 d53b fbd6 563c 226f 8b3b
00000020: 3178 8dba 6872 a83b 99cc 553c 13f2 6d3c
00000030: a227 a03c 662b 7f3c 5b49 113c ffcf 2c3c
00000040: 9701 913c f914 4bbb ddc0 d6b9 e143 1f3b
00000050: d93c 403a 5cc7 8a3c 1fe3 483c 7eb9 4c3c
00000060: 418c c0bb 0adb f3b8 349d 01b9 a6ab 8b3b
00000070: 27a5 063c b141 f03b b91b 863b 2891 263c
00000080: 0ebf 133d a6e6 35bb f072 6c3c f022 173c
00000090: 54bf 6eb8 20bd 25bb 0e59 b53a 1188 8538
000000a0: 3f59 53bb a512 9d3b f004 1c3c 4bc0 e93a
000000b0: 5f8e fb3b b86d 4bbb bc38 523b 160c 42bb
000000c0: 2264 b83c 059a d83c 6258 3dbb f635 4e3c
000000d0: 2580 01bc 2e41 86b8 a23a 943b de61 823b
000000e0: 2ba8 503c 1994 b53b bbc0 d43b 3178 853b
000000f0: 41fd b33b fd31 f83b 3d6c 823c da08 353b
00000100: d5ce 1cbb e18b fc3b 1f41 31bb 1922 593b
00000110: 7f8a a23a f5a1 f7b9 2bb9 d83b 92a1 363c
00000120: 67d7 413d 21d2 dc3c 7018 ba3b efa1 4a3d
00000130: f8df 30bb 9f03 27bb 825d abba 5dd3 b4b9
00000140: 1445 d8ba 1b8f 9dba b255 703c b42b e3bb
00000150: c174 4d3c 22d0 98bb 380b 433c 612d 4fbb
00000160: c96d 5d3c 535d 603b 222e f93a 2958 053c
00000170: 95a5 b93b 7756 fdb8 0ff3 b33b 94de 2a3d
00000180: 7156 213c 2fd7 833b 7e23 8d39 93a5 e53b
00000190: 1b5e 2d3c 57f4 973b 2061 f73b 9989 833b
000001a0: 5747 2dbb bc53 c13c 3c7d 9cbb c0db 5bbb
000001b0: e4df 7a3c 8ced 843c dbb6 6d3c 32ba 8d3c
000001c0: a366 0e3c acee 873c 3ef3 f53b aa24 e53b
000001d0: 9d27 b53c 1e34 883c ff65 1cbc acb9 673c
000001e0: 5271 b43c 9567 223c c4a0 aa3c b874 c33c
000001f0: deb9 a4bc 394b f33b f0d8 3e3c cde7 523c
00000200: f437 873b 1498 bdba afa5 463c a220 913b
00000210: b28a ac3c 6984 503c 34d5 18ba 922a be3b
00000220: f57e 423a 3a46 e23b 2da9 ed3b f369 2e3c
00000230: f757 a73c d0c9 36bc 05e7 7d3c 22a6 93bb
00000240: 3bfb e23c e9f5 27ba ef06 093d 0c58 fc3b
00000250: cad4 073b 6b94 943b 9b52 813c 1b81 473c
00000260: 2813 5c3c b44a 1f3d bd67 2f3c 4ccf 2fb9
00000270: e09e e43a 76b2 ce3c f9fa 8a3c 2c6c dcbb
00000280: 5749 933c 8c4b a53b ed6e b53b 934a 283c
00000290: 4702 a43b 1a35 e13a 1f22 a13c 0519 f53b
000002a0: 9c25 8d3b d7e0 a13c c32a 733b e396 be3b
000002b0: 6694 11bb 995c d13b 8899 8e3b 8183 633c
000002c0: 98ec 1b3c 720b 3b3b fc4a 043d cd3d 983c
000002d0: 33be 253c 14c0 ac3b d409 123c fd4e e5b9
000002e0: 522b 523c 83bb b63a 1779 9e3c eae2 1f3b
000002f0: 4373 533b 5eed 27bb 69ad b23c 6eb7 463d
00000300: b788 da3b 4845 823c 4b69 94bb 86c5 d63b
00000310: 898a 43ba 68ff 1b3c 5113 823b 7e34 e739
00000320: 9fe0 b23c fdc7 9a3b f1da a93c fcd6 023b
00000330: 4a0b 4b3a 9f39 273b fd57 da3c ffdc 7e3c
00000340: 65b6 f03b 306f 8c3c c53e 423b c4bf 29bb
00000350: 52cb 823c 4c24 943b d755 b4bb ce59 093c
00000360: 15bc bb3b 54b4 ca39 e95d 193c a7e0 84bb
00000370: 897d 2abc e719 303c b067 4b3c 0b22 3abb
00000380: a923 ff3b 8974 b43c c492 863b d16f bb3b
00000390: ed7b 8f3c c862 323c 5474 1e3c 7e55 f1bb
000003a0: 0f79 8a3a a8f8 113c 32b2 4b3c 7933 3a3c
000003b0: 2ec1 2d3b ba32 d7ba adc8 eabb a72d ad3c
000003c0: 2f7a b0bb 991f d83b 3417 66bb 6a25 1d3c
000003d0: d402 0f3d 3151 f53a 491a 2dbb 12bc 513c
000003e0: f89d 903b f29c e53c befe 823c 73b8 843c
000003f0: 8089 9d3c 425f 9a39 0583 503b fa0b 033c
0.016511135 0.020465847 0.037431464 0.011200988 0.01055839 0.006508455 0.013112779 0.0042551914
-0.0010793266 0.0051405914 0.013049268 0.014523047 0.019550148 0.015574312 0.008867587 0.010547637
0.017700953 -0.0030987842 -0.00040960955 0.0024301934 0.0007333286 0.016940765 0.012261181 0.012495397
-0.0058760946 -0.00011627942 -0.00012360961 0.0042624054 0.008218086 0.00733205 0.0040926603 0.010166444
0.036070876 -0.0027755885 0.0144317 0.009224638 -5.692181e-05 -0.002528973 0.0013835744 6.3672785e-05
-0.003224924 0.0047934824 0.009522662 0.0017833797 0.007676884 -0.003104074 0.0032077273 -0.0029609255
0.022508685 0.02644063 -0.0028891792 0.0125861075 -0.007904087 -6.4017586e-05 0.004523591 0.003978952
0.012735407 0.0055413363 0.006492702 0.004073166 0.0054928367 0.0075743184 0.015920753 0.0027623684
-0.0023926992 0.0077071046 -0.0027046872 0.0033131896 0.0012400894 -0.0004723218 0.0066138706 0.01114692
0.047324564 0.026955666 0.0056791827 0.04947084 -0.0026988965 -0.0025484336 -0.0013074132 -0.00034489753
-0.0016500079 -0.0012020798 0.014668869 -0.0069327 0.012540043 -0.0046634832 0.01190453 -0.0031612741
0.013514944 0.0034235313 0.0019010941 0.008138695 0.005665491 -0.000120800854 0.0054916213 0.041716173
0.009847269 0.0040234546 0.0002692006 0.0070082634 0.0105815185 0.004637282 0.00754942 0.0040142057
-0.0026440227 0.023599498 -0.0047756713 -0.003354773 0.015312169 0.016226552 0.014508928 0.017300699
0.008691463 0.0165933 0.0075058034 0.006992896 0.022113616 0.016626414 -0.009545802 0.014143389
0.022026692 0.009912391 0.020828612 0.023859367 -0.02010816 0.0074247387 0.011648402 0.012872648
0.004126543 -0.0014464878 0.012124463 0.004428939 0.021062229 0.012726882 -0.00058301096 0.0058034146
0.0007419431 0.0069053443 0.0072528333 0.010645377 0.020427687 -0.011156514 0.015496974 -0.0045058886
0.027707687 -0.0006407188 0.033453878 0.0077009257 0.0020726197 0.0045342944 0.01578646 0.012176777
0.013432302 0.0388896 0.0107058855 -0.00016766525 0.0017442368 0.025231581 0.016965376 -0.0067267623
0.017979307 0.0050444063 0.005536905 0.010271686 0.0050051543 0.0017181963 0.01966959 0.007479789
0.004307462 0.019760532 0.0037104345 0.005816327 -0.0022213697 0.0063892123 0.0043517984 0.013886333
0.009516858 0.0028540757 0.032298073 0.018584156 0.010116148 0.005271921 0.008913476 -0.00043737135
0.012827711 0.0013941381 0.01934485 0.0024396726 0.0032264746 -0.002562366 0.021811204 0.048514776
0.0066691297 0.015902176 -0.0045291535 0.0065543083 -0.0007459303 0.009521343 0.003969588 0.00044098863
0.021835623 0.0047235475 0.020734282 0.0019964566 0.00077455177 0.0025516523 0.026653284 0.015555619
0.007345962 0.017142862 0.0029639464 -0.0025901655 0.015966091 0.0045209285 -0.005503397 0.0083832275
0.0057292082 0.00038662797 0.009360769 -0.004055101 -0.0104059065 0.010748363 0.012414858 -0.002840164
0.0077862334 0.022028225 0.0041068513 0.0057201167 0.017515147 0.010887809 0.0096712895 -0.007364928
0.0010564643 0.008909382 0.012432622 0.011364811 0.002651285 -0.0016418316 -0.0071650357 0.021139933
-0.005385659 0.0065955636 -0.0035109045 0.00959144 0.034914806 0.0018716214 -0.0026413372 0.012801187
0.0044133626 0.028028939 0.015990611 0.016201233 0.019230604 0.00029444142 0.0031816375 0.007998461

dense_2/bias:0 f4 [256]
00000000: 894a 973b 507e 2c3b 2431 a13a eec6 97bb
00000010: 626b 3eba 78fc e6ba cb4f 443c 7350 93ba
00000020: 12a4 e039 c73b b6ba 37d0 8eba 045c 7fb9
00000030: a8a2 db3b 757c 5bba add4 de3a 69b1 433a
00000040: a6e7 1b3b ee5e 133a dc39 7c39 e3be 833a
00000050: dbe7 9c3b 03e1 ecba 55e2 c2b7 e745 973a
00000060: 7be2 cd3a 2932 a83b b87c ef38 0568 07ba
00000070: 07ad 81bb c327 4f3b 48bd e9ba 24fe 28ba
00000080: 53d4 ad39 218d 743a 4c6d 4f3c e1cc 6b3a
00000090: 4ba4 12bb d8ff 243a 20c4 583b 478b 053b
000000a0: db65 69b9 84be aabb 8dbd cfb9 eb5d 4bb9
000000b0: 9d70 933a f4fd e1b7 331f d9ba 06b8 013a
000000c0: c9d9 77bb 9a7b 15bb 0d26 f13b 24e6 2a3b
000000d0: 589e 64bb 6741 29bb 38c0 cfba f072 0dba
000000e0: 5a6e abba e600 57bb 97f0 ae3b 6738 8c3b
000000f0: ee8e 6a3a dac1 1db7 72f4 993b e7fe edba
00000100: 8974 6a3b 75a3 523b 5a29 053a dfd8 6f3b
00000110: 0488 bd3b dd53 24bb 932b ad3b a4d8 f03a
00000120: 9bfe 1d3b 85cc a3ba c291 fb3a 35f1 c1ba
00000130: 1ef6 ebba 7fa9 803a 8b87 94bb 9fb0 8a3b
00000140: fc91 76bc f317 b9b9 e4e2 dabb 6bb4 0cbb
00000150: 1dfd 24bb d86b d23b bf24 413a 617f 0739
00000160: bf72 153b 8dc2 95ba 9636 af3b f8a4 923b
00000170: da52 3a3b 8172 0e3b e3df 9cbb 9c2a c63a
00000180: b87e b63b a0fd 49bb 76c4 ac3a 8edf 3dbb
00000190: 8244 95ba d5c6 713a c0ec f13a dde1 853b
000001a0: 35e3 5f3a 86b4 41ba b6b8 aa3b fbf7 803b
000001b0: cd10 41b9 2c46 4d3b 0548 123c 3719 2f3b
000001c0: 8c37 d9ba 9182 64bb 45ac 383b 812e 483b
000001d0: 4664 d8ba ef8f fdb9 b18a 4dba 216e adbb
000001e0: 7f0b c6bb 6f3f 0f3b 0e1d 9ebb 3778 93ba
000001f0: 655b c23b c6bc 9f3a b6f1 3bb9 1760 f83a
00000200: 1649 48bb 6404 d13a df4b ef3b 1f41 e43a
00000210: fd61 ca3a 21ff 44bb 94a4 14ba b069 9bba
00000220: d46c 063b 5e13 493b d906 cb3b 72d6 703b
00000230: 77f6 0dbb 5a1e 1c3b ee1e f4bb 8414 8b39
00000240: c2f9 c1ba dec4 da3a 46f1 d53b d015 f33b
00000250: 0384 063a 631d c73a 97df 9db9 568f 9f3a
00000260: 018d 433b 19e5 f03a 8e44 3c3b 9fb7 de39
00000270: 385f cd39 8938 793b 56f4 923b d09c 9c3b
00000280: a4de 213c 4922 503b 661b b13b cff8 a9ba
00000290: e4ec 5cbb 47ef faba 14f6 963b 1f59 c538
000002a0: f794 1abb f3eb 953b 969b 843b 7638 54bb
000002b0: 9dde d13b f685 a3bb 5f8b 913a 6d42 0f3a
000002c0: 3ff5 303a 77aa 36ba df7c 6f3b f6d9 a03b
000002d0: 7c7a 033b 1495 9d39 6e3f 0bbb 726e 823b
000002e0: ed40 3eba 2889 513b da43 d23a 389e 153a
000002f0: 9a15 95ba cbea 68ba a519 1fbb 4ec8 46bb
00000300: 30ba 313b a725 b53b 94ff c6b8 fbf0 773a
00000310: 8430 f239 68d3 abbb fbc4 093b f712 763b
00000320: 938d 183b efb0 b5b8 35dd 62bb 4d2c d6ba
00000330: d529 a13b 1f54 413b b856 043b ec7a 47ba
00000340: f000 9eba e530 7c3a 70e4 e63a dc08 613b
00000350: a1fd e13b d081 593a df1f df3b a2c3 deba
00000360: 60ef 1a3b b3f0 e4ba 113f f83b d275 913b
00000370: bbe3 c3bb 2a31 33ba e109 633b fcb3 043b
00000380: c1ce 0bba 659b b33b c284 46bb 0c3f 1b3a
00000390: 3285 e63a c8c4 11bb 6aab ee39 04f1 203a
000003a0: ee54 90ba ba63 1638 469d 123b b34f da3a
000003b0: fa92 013b bdba 36b7 3530 d4bb ca0e 023b
000003c0: cacf de3a 004b bc3a 1bb1 4d3c e174 1dbb
000003d0: fb71 313a d492 b0ba 686e 9fbb 0d8a 2bbb
000003e0: e0ba 193b 5fab 16bc 070f a6bb 2a29 f5b9
000003f0: 45bd 8abb 1e97 a5ba afe4 943a 2252 18bb
0.0046170396 0.0026320405 0.001229797 -0.0046318686 -0.0007263926 -0.0017622849 0.011981915 -0.0011239186
0.0004284685 -0.0013903313 -0.0010895793 -0.00024352974 0.0067027397 -0.00083727326 0.0017000638 0.0007465096
0.0023789196 0.00056217506 0.00024054147 0.0010051396 0.0047883815 -0.001807243 -2.3231996e-05 0.0011541218
0.0015707755 0.0051329327 0.00011419639 -0.00051653414 -0.003957394 0.0031609393 -0.00178329 -0.00064465613
0.00033155325 0.0009328891 0.012660336 0.0008995068 -0.0022375758 0.0006294227 0.0033075884 0.0020377205
-0.00022258556 -0.0052106995 -0.00039623343 -0.00019394576 0.0011248771 -2.6940346e-05 -0.0016565084 0.0004948381
-0.003781902 -0.0022809268 0.0073592723 0.0026077116 -0.003488442 -0.0025826336 -0.0015850132 -0.000539585
-0.0013079152 -0.0032806932 0.005338739 0.0042791846 0.000894769 -9.403064e-06 0.0046983296 -0.0018157632
0.0035775027 0.0032140885 0.0005079709 0.003659777 0.0057840366 -0.00250744 0.0052847355 0.0018375111
0.0024108056 -0.0012496865 0.001919322 -0.0014796617 -0.0018002426 0.0009816139 -0.0045327595 0.0042324807
-0.015049454 -0.00035303793 -0.0066798795 -0.0021469842 -0.0025175281 0.0064215474 0.00073678413 0.00012922056
0.002280399 -0.0011425779 0.0053470833 0.004475232 0.002843073 0.002173573 -0.0047874316 0.00151189
0.0055693053 -0.0030821338 0.0013181109 -0.002897236 -0.0011388215 0.00092230487 0.0018457398 0.004085763
0.00085406314 -0.0007389266 0.0052100075 0.0039358116 -0.00018412173 0.0031322343 0.008928304 0.002671791
-0.001657234 -0.0034867863 0.0028178853 0.0030545297 -0.0016509376 -0.0004836316 -0.0007840796 -0.0052926694
-0.006043851 0.0021857878 -0.004825241 -0.0011251037 0.0059313052 0.0012186996 -0.00017923754 0.0018949535
-0.003056114 0.0015946743 0.0073027457 0.0017414427 0.001544058 -0.0030059295 -0.0005670276 -0.0011857059
0.0020511644 0.003068171 0.0061958847 0.0036748913 -0.0021661797 0.0023821802 -0.007449976 0.0002652743
-0.0014799165 0.0016690751 0.006529006 0.0074183717 0.00051313656 0.0015191253 -0.0003011196 0.0012173455
0.0029838684 0.0018378823 0.0028727385 0.00042479948 0.0003917159 0.0038028082 0.0044846935 0.0047794357
0.009879742 0.0031758717 0.0054048775 -0.0012967827 -0.0033710534 -0.0019144797 0.0046069715 9.410292e-05
-0.0023587325 0.0045752465 0.0040468676 -0.0032382286 0.0064047114 -0.0049903346 0.0011104158 0.00054649153
0.00067504117 -0.000696815 0.0036542935 0.0049087955 0.002006202 0.00030056445 -0.0021247524 0.0039804513
-0.00072575995 0.003197262 0.001604195 0.00057074754 -0.0011374236 -0.00088850845 -0.002427676 -0.0030331793
0.0027119033 0.00552817 -9.488981e-05 0.0009458211 0.00046193984 -0.0052437074 0.002102195 0.0037547925
0.0023277744 -8.663709e-05 -0.0034616713 -0.0016340107 0.004918317 0.0029499603 0.002019329 -0.00076095643
-0.0012054723 0.0009620323 0.0017615687 0.0034337556 0.00689669 0.00082972366 0.0068092193 -0.0016995559
0.0023641214 -0.0017466753 0.0075758775 0.004439094 -0.0059780753 -0.0006835634 0.003464334 0.002024888
-0.0005333238 0.005481171 -0.0030291532 0.00059221755 0.0017587303 -0.0022242535 0.0004552261 0.000613943
-0.0011011639 3.5855664e-05 0.0022371574 0.0016655832 0.0019771443 -1.0891524e-05 -0.0064754733 0.001984524
0.0016999182 0.0014365613 0.012554432 -0.0024025964 0.00067689986 -0.0013471493 -0.0048654564 -0.0026174814
0.0023457333 -0.0091961315 -0.0050677094 -0.0004676071 -0.0042339885 -0.0012633537 0.0011359657 -0.0023242314

scale1 f4 [512]
00000000: e966 1c40 c337 4840 ece2 7840 65da 2440
00000010: d352 1040 ae54 e63f 1a1d 1a40 0a76 2f40
00000020: e755 3240 497b 1640 7b95 a940 535e 0440
00000030: 4f62 2440 a690 f83f da78 6d40 6444 3440
00000040: f24d 8540 e273 6740 57dc 3c40 076d 2940
00000050: 905f 1e40 7828 8440 cec1 3540 02c9 2f40
00000060: 0af8 4b40 7efe 2c40 8cc9 2240 3bb3 a640
00000070: cd33 2640 9c2e 3340 3ade 2f40 d10f 5540
00000080: 7b3a 4540 a123 4040 a897 7040 b4d1 2840
00000090: 2477 0d40 1889 8940 9ea3 4840 4f07 1540
000000a0: 4b72 aa40 43ad e33f 27b7 3340 6995 5340
000000b0: 1876 2140 1e7e 2040 4a38 2d40 f948 0040
000000c0: 0bba 0f40 06f9 b340 dbc5 3640 aae2 5640
000000d0: bf7f 1f40 395a 2040 4a02 4440 6d7b 3440
000000e0: b671 4f40 9208 2440 eb5b 6440 bf42 5740
000000f0: 2d76 4040 0657 2240 bfe2 9540 1a35 1f40
00000100: 006a 2e40 a802 4e40 ecce 9840 8f03 2340
00000110: 39fe 0540 3ab2 4f40 628f 1c40 f1b5 2e40
00000120: 58e1 3840 24a5 6d40 ef23 0a40 6e19 8440
00000130: 6691 5840 f716 1e40 edfd 4440 b645 2e40
00000140: 60f4 3b40 e576 3c40 6b32 3f40 f78a 1440
00000150: 36a9 1340 84d9 1040 3ac3 9640 297d 1f40
00000160: 9258 8740 1571 2240 4130 0c40 9ebb 4840
00000170: 2553 4840 d589 3440 120f 1e40 6cbf 2840
00000180: 2a72 8340 4cef 1540 37b5 0440 0721 5840
00000190: db99 2840 047b 3140 88ba 1740 c39a 6f40
000001a0: e0b3 9640 96f1 5040 f9a5 2240 ca3e 2940
000001b0: f8d1 2a40 ec3b 1340 cbdb 0d40 9375 6b40
000001c0: 1b9f 2b40 ffac 3540 3169 0d40 609b 3440
000001d0: 2199 0240 d840 2840 b1dd 4840 7af2 4440
000001e0: 04a5 1040 4d1c 1d40 a127 4240 879e 4e40
000001f0: a60e 2340 4bf3 1940 fdc5 b040 dd1d 1f40
00000200: 29e7 4e40 fc9c 2f40 d42f 5440 e702 5a40
00000210: a752 1d40 cae1 3040 a759 3c40 99cd 2b40
00000220: 98e0 1b40 fd2d 1940 2a51 2a40 e665 2b40
00000230: 5e3d 3940 93d5 1840 447c 2d40 ddb8 1e40
00000240: f317 3940 c8b0 1d40 e64a 4540 7954 4040
00000250: b9ca 3640 efc4 7540 d3a5 1940 c896 2040
00000260: 33d6 0440 b85b 8e40 d51e 1640 5a79 6940
00000270: 9ae9 1640 0810 7040 7b94 4440 3e7f 3a40
00000280: 272b 4c40 7f35 6a40 0340 d140 f40e 3440
00000290: e38d 8940 555e 3740 af51 3f40 1e4d b140
000002a0: 265e 5d40 3a57 d540 b5c6 2140 82e4 2c40
000002b0: dc1b 5b40 b7b0 6f40 3097 2e40 bf38 3c40
000002c0: 2784 0140 86b0 2840 633a 2540 d48f 2740
000002d0: 7c5b 7f40 29e2 3440 f582 f43f 0d5e 3d40
000002e0: 36db 3240 f6d5 3f40 effb 2040 6c32 7c40
000002f0: cd95 3b40 a9f3 8840 0887 1240 14de 5240
00000300: be94 3c40 1b84 6b40 a916 ac40 3f6e 2740
00000310: 4703 3540 f491 4f40 2ec5 4940 e655 2940
00000320: 6367 4c40 4e62 c240 c466 4f40 96a2 c040
00000330: 3343 1b40 2ae0 0840 c7fd 4940 c179 1240
00000340: a6b9 2940 eb7f 1640 2982 2a40 51f7 3740
00000350: 4f97 2a40 2162 9740 f799 0f40 2780 1f40
00000360: 10c3 1740 b602 8740 0412 b640 9bbb 2a40
00000370: 126a 0a40 10f5 1340 386d 4440 6c88 3440
00000380: 31f2 4b40 b43e 3e40 7b5f fe3f 4e0f 9040
00000390: d320 2f40 a157 5340 6fc3 2140 5eb5 3e40
000003a0: 59de 3f40 e879 2340 3729 2540 d1bc 1e40
000003b0: 4b2b 4440 4d1e 3140 a701 1640 525c 1f40
000003c0: 1e54 6b40 8c36 4e40 3503 1a40 1a61 4840
000003d0: bf56 2440 d518 b440 e6b4 6040 ccc1 3440
000003e0: 17e2 1a40 d2da 5c40 4fd1 3540 ec55 2f40
000003f0: f999 6d40 1593 5140 d0b3 0c40 e155 7340
2.4437811 3.1284034 3.8888502 2.5758297 2.2550552 1.7994592 2.4080262 2.7415795
2.786493 2.3512747 5.299497 2.068257 2.5685003 1.9419143 3.7105012 2.8166742
4.165765 3.616448 2.9509485 2.6472795 2.4745827 4.12994 2.839954 2.7466435
3.187014 2.703033 2.5435514 5.2093787 2.5969117 2.7997198 2.7479386 3.3290904
3.0816944 3.0021746 3.7592564 2.6377993 2.2103968 4.297985 3.1349864 2.328571
5.326452 1.778725 2.8080537 3.3059943 2.5228329 2.5076976 2.7065606 2.004454
2.2457302 5.6241484 2.8558261 3.3575845 2.492172 2.5055068 3.0626397 2.8200333
3.2413154 2.563023 3.5681102 3.3634489 3.0072129 2.5365615 4.683929 2.487616
2.7252197 3.2189121 4.775259 2.5470922 2.0936415 3.245253 2.4462514 2.7298548
2.888754 3.7132044 2.1584432 4.128104 3.3838744 2.4701517 3.0779984 2.7230048
2.9367905 2.9447567 2.9874523 2.3209817 2.3072028 2.263276 4.7113314 2.4920142
4.229562 2.538152 2.1904452 3.1364512 3.1300747 2.8209126 2.4696698 2.6366835
4.107686 2.3427305 2.0735605 3.3770158 2.6343906 2.7731333 2.37076 3.743821
4.7094574 3.2647452 2.5413802 2.6444573 2.6690655 2.3005323 2.21654 3.6790512
2.681586 2.8386838 2.2095454 2.8219833 2.0405962 2.6289577 3.138531 3.0772996
2.2600718 2.4548523 3.0336688 3.2284257 2.547769 2.4054744 5.5241685 2.4861977
3.232859 2.7439566 3.3154192 3.4064271 2.4581697 2.763781 2.942972 2.6844237
2.435583 2.393432 2.6612039 2.6780944 2.8943706 2.3880355 2.7107096 2.4800332
2.8920867 2.4639149 3.0826964 3.0051558 2.8561232 3.8401449 2.400746 2.509203
2.0755737 4.448696 2.3456318 3.6480317 2.358008 3.7509785 3.0715625 2.9140162
3.1901338 3.6595151 6.539064 2.8134127 4.29857 2.8651326 2.9893606 5.5406637
3.4588714 6.666898 2.527753 2.701447 3.4235754 3.7451608 2.7279778 2.9409635
2.023691 2.6357741 2.5816886 2.6181536 3.9899588 2.8263037 1.9102465 2.9588654
2.7946296 2.9974341 2.5153768 3.9405775 2.931018 4.2797437 2.2894917 3.2948046
2.9465785 3.679938 5.377766 2.616104 2.828325 3.2432833 3.15266 2.6458678
3.1938102 6.0745 3.2406473 6.019847 2.4259765 2.138682 3.1561143 2.2886813
2.651956 2.3515575 2.6641943 2.87447 2.6654851 4.7307286 2.2437723 2.4921968
2.3712807 4.219081 5.689699 2.6677005 2.162724 2.3118324 3.0691662 2.8208265
3.1866572 2.972577 1.9872888 4.5018682 2.7363784 3.3022234 2.5275533 2.9798198
2.997946 2.5543156 2.5806406 2.4802744 3.0651424 2.7674744 2.3438509 2.4900098
3.677009 3.2220793 2.4064457 3.1309266 2.5677946 5.6280313 3.5110412 2.8243284
2.4200494 3.4508557 2.8409002 2.7396193 3.7125227 3.2746022 2.198475 3.8021166
