data/DNN/Inlusive_noMetCut_amcatnlo_xyComponent_JetLepXY_50EP__diff_xy_2017_20230206-0940genMETweighted.onnx (onnx, 580407 bytes, 24 tensors)

dense_3/kernel:0 f4 [256, 2]
000000 90 3c 4c be 0c fe f7 bd 00 c6 b2 3d e9 bc 27 be
       -0.19944978 -0.121090025 0.08729172 -0.16380657
000010 f7 db 92 3e f0 d1 08 be 56 d9 5d 3d 25 63 8b be
       0.28683445 -0.13361335 0.054162346 -0.2722408
000020 bf 43 01 be 70 ea 81 3b 98 d9 06 3e b0 57 24 3e
       -0.126235 0.0039647147 0.13168943 0.16049075
000030 c9 af 55 be 42 9b a2 bd e0 55 e7 bc 44 45 37 3e
       -0.20867838 -0.07939769 -0.02823919 0.17897516
000040 9e 6c a9 3d 4b f9 06 bd 90 63 c9 bd 88 72 22 be
       0.0827267 -0.032952588 -0.09833443 -0.15864003
000050 f4 d1 1d 3e f4 a2 76 be a1 45 0a be b3 03 88 bd
       0.15412122 -0.24085599 -0.13503124 -0.066413306
000060 93 6f ac bc 6d 2a 3c bd 50 87 5a bb df 10 57 3e
       -0.021049296 -0.045938898 -0.0033344813 0.2100253
000070 d1 68 68 bd 27 b0 3b 3e 06 c8 5b 3d c5 47 a3 be
       -0.056740586 0.18328916 0.053657554 -0.31890693
000080 a1 fb a0 3d c1 99 5b be 29 35 6a be 0d 6e cc bd
       0.078604944 -0.21445371 -0.22871841 -0.09981928
000090 a4 30 10 bd f4 b6 70 be 52 60 4b 3e cd 86 01 bd
       -0.035202637 -0.23507291 0.19860962 -0.031622697
0000a0 f1 75 f7 3d 9b 7e 2a 3e 56 76 44 3e 55 c4 e2 bc
       0.120830424 0.16649859 0.19185767 -0.027681509
0000b0 69 7f 3d be eb 8c 0a 3e 87 6e 4a 3e 54 6d 5f be
       -0.18505634 0.13530318 0.19768725 -0.21819049
0000c0 27 fd 0d be a5 da c1 bc 38 53 03 3e 84 d2 24 be
       -0.13866101 -0.023663828 0.12824714 -0.1609593
0000d0 c4 db 82 3c 29 03 2e 3e e5 c3 8e be de 36 85 3d
       0.015973933 0.16993393 -0.2788383 0.06504606
0000e0 7e 48 46 3e aa 26 82 bd 7f 4c 15 be 78 e6 49 3d
       0.19363591 -0.06355031 -0.14579962 0.049292058
0000f0 c9 2a 07 3e 81 f3 0d bc cb 17 dd 3d f8 99 2b 3e
       0.13199915 -0.008664013 0.10795554 0.16757953
000100 f4 b8 75 be b0 48 88 3d c5 f2 aa 3d db d3 36 3e
       -0.23996335 0.06654489 0.08347086 0.17854254
000110 3c 24 45 3e b4 71 9b bc 0f 40 d0 bd 68 ff c0 3c
       0.19252104 -0.018975116 -0.10168468 0.023559287
000120 94 e4 4a 3e a1 e7 c9 3b ca 1a be be 42 d6 43 3d
       0.19813758 0.0061616455 -0.37129813 0.047811754
000130 a8 5a 1b bd 43 97 55 3e 0e fe 22 be b7 ba 1c be
       -0.037928253 0.20858483 -0.15917227 -0.15305601
000140 62 64 bf bd a3 5b 27 3c 61 fa 0f 3e 93 1b 0c 3e
       -0.093453184 0.010214719 0.14060356 0.13682394
000150 50 25 50 be d0 9b 3b bd 47 0c 11 be 68 e6 64 be
       -0.20326734 -0.04580289 -0.1416484 -0.22353518
000160 ff b3 9a bd d6 00 26 be bc e3 e5 bd cc bd 71 be
       -0.07553863 -0.16211256 -0.112250775 -0.23607558
000170 9b 81 0f 3e 49 21 1f 3e 21 da 15 3e aa 6b a1 3c
       0.14014284 0.15540041 0.14633991 0.019704659
000180 b0 32 ee bd bd d9 07 3d 86 5e 26 be c8 f8 76 bd
       -0.116307616 0.033166636 -0.16246995 -0.06029585
000190 a5 be 4d 3d 6a 89 c5 3d 11 63 28 3e 65 67 c9 bd
       0.05023064 0.0964535 0.16444041 -0.09834174
0001a0 a8 3e ff 3b ed 10 33 3e 26 2d ba 3d 3e 8c da 3d
       0.0077894516 0.17486925 0.09090643 0.1067128
0001b0 e5 6b 8d 3e ce 93 26 3d 00 17 2d 3d 8e 64 98 3d
       0.2762138 0.0406683 0.042258263 0.07441054
0001c0 c4 25 1f 3e 50 fe 20 3d e8 ae 91 be 87 95 f0 bc
       0.1554175 0.03930503 -0.28453755 -0.029368175
0001d0 df b4 61 3e 81 70 83 be e3 83 fe bc dd 5a 33 be
       0.22041653 -0.2567177 -0.031068748 -0.1751513
0001e0 30 d3 a5 3a 2a 28 5f be dc 3a 90 bd b5 31 db 3d
       0.001265144 -0.21792665 -0.070424765 0.1070284
0001f0 98 7a 49 3e c2 97 65 3d b5 b7 82 3d ca 76 32 be
       0.19675672 0.05605293 0.063826956 -0.17428127
000200 6e 18 51 3e 29 ad dd bd b3 a2 93 bd c5 ca 6d be
       0.20419475 -0.10824043 -0.07208767 -0.23221882
000210 8b 5c 08 be 44 2e 33 3e c0 b6 c0 bb f1 ba 09 be
       -0.13316552 0.17498118 -0.0058811605 -0.13450219
000220 f0 e6 d4 3d 57 f7 26 be 73 d7 44 bd ee ba 4c 3e
       0.1039561 -0.1630529 -0.04805703 0.19993183
000230 30 bd 16 be 51 12 3e 3e 9f b6 6a bc 34 19 50 be
       -0.14720607 0.18561675 -0.014325767 -0.20322114
000240 13 af 25 be 3c d2 3c 3e 38 69 69 3d d6 5e 68 3e
       -0.16180067 0.18439573 0.05698511 0.22692427
000250 b7 af c6 bd 6b 34 27 3e 54 75 0a 3c b7 ad 6f be
       -0.09701484 0.1632859 0.008450825 -0.2340611
000260 99 8a 86 be fd 2d 24 3e b5 00 45 be ac ea 6a bc
       -0.26277617 0.16033168 -0.19238551 -0.014338177
000270 49 0a 0d bb 9c b3 71 be 46 de 56 be 5b d9 5f 3d
       -0.0021521023 -0.23603672 -0.20983228 0.054650646
000280 0a 43 dc 3d fe 5b 9a bd d7 31 35 be 27 30 44 3d
       0.10754974 -0.07537077 -0.17694794 0.047897484
000290 59 5a ab bc dc 8e 26 be f0 16 1f 3d f4 c4 66 3e
       -0.020917105 -0.16265434 0.038840234 0.22536069
0002a0 db 7d 4a 3e 6e 02 a4 bd 22 b0 4c 3e 33 6e 93 3d
       0.19774573 -0.08008276 0.19989064 0.07198753
0002b0 ba 13 aa bd 7e 79 1c 3e 1a d5 b3 bc 55 97 24 be
       -0.08304544 0.1528072 -0.0219522 -0.16073354
0002c0 c9 ea 42 3d f1 8f 5a 3e ac f9 03 3e 35 dc 11 bd
       0.04758719 0.21343972 0.12888211 -0.035610396
0002d0 a6 9e 29 3e c5 d0 e5 3c 45 08 8c bd fb f4 1c be
       0.16564426 0.02805365 -0.06837515 -0.15327828
0002e0 3c df 4e be af 6a 83 3e 13 96 2d 3e 34 f4 4e be
       -0.20202345 0.2566733 0.1695178 -0.20210344
0002f0 e8 b6 c0 3d 12 a3 e1 3d fd 79 b0 3d b4 e1 29 3e
       0.094098866 0.11017431 0.086170174 0.16590005
000300 08 a0 a2 bd 8e 3f 95 bd 80 35 a5 3d 1b 9e 67 3e
       -0.0794068 -0.07287513 0.08066845 0.22618906
000310 e9 a9 9c be 91 b3 04 3e 21 73 2e 3e ed 66 b9 bd
       -0.3059838 0.12959124 0.17036106 -0.09052835
000320 a8 7c 6b 3d c6 b0 4f be a3 f1 ab bd fa 4b 08 be
       0.05749193 -0.20282277 -0.08395698 -0.13310233
000330 3d 02 5c be 3c 89 2d bd b9 23 55 be a6 7f 5a 3d
       -0.21485229 -0.042367205 -0.20814408 0.05334439
000340 f1 98 b4 3d 1f af 9a 3c fb e1 1f bd 48 0d 80 bd
       0.08818234 0.018882332 -0.03903387 -0.06252533
000350 61 06 cf 3d 92 65 fa bd e9 e7 d0 bd 0a 7f d8 bc
       0.101086386 -0.12226404 -0.10200483 -0.026427764
000360 2f 42 06 3d 45 a6 21 3e 23 77 0b be 23 9a cf 3d
       0.03277796 0.15786083 -0.13619666 0.10136821
000370 f3 c9 c8 3c 45 a9 56 be 45 11 c8 3b 66 05 39 be
       0.02451036 -0.20963009 0.0061055743 -0.18068466
000380 af 48 1d be 1b 15 9d 3d 26 c4 da 3d 3d 66 29 be
       -0.15359758 0.07670041 0.106819436 -0.16542907
000390 e6 f0 00 3e 6d d8 51 be d2 5a 25 be fe 4a aa 3d
       0.12591895 -0.20492716 -0.16147926 0.08315085
0003a0 d2 6a bc bd 88 03 b4 bb f4 45 07 3e c9 5c 0f 3e
       -0.09200062 -0.005493585 0.13210279 0.14000238
0003b0 6e fe 7a bd ad 72 99 be 52 e2 bb 3d be c2 38 3e
       -0.0612778 -0.29970303 0.091740265 0.18043038
0003c0 00 c3 a9 3e 14 6e 8c 3d 38 db 87 3d 80 fc 81 3e
       0.33156586 0.06856933 0.066336095 0.25387955
0003d0 07 48 22 be 6d 08 c3 3d 02 73 5a 3e e3 b3 c2 bd
       -0.15847789 0.095230915 0.21332934 -0.09506967
0003e0 13 86 07 3d 2d 2d c5 bd 7e bc 71 3d dc 8d 5b be
       0.033086848 -0.09627757 0.05901765 -0.21440834
0003f0 0e 0e e6 3d b8 cd 56 bd aa 5d 0a be bd be 21 3e
       0.112331495 -0.052442282 -0.13512293 0.15795417

dense_3/bias:0 f4 [2]
000000 a8 aa 32 bd be f4 da 3c
       -0.04361978 0.02672803

scale f4 [256]
000000 bc 13 fc 3e e1 c0 1d 3f 76 f7 08 3f b6 04 07 3f
       0.49233806 0.61622435 0.53502595 0.52741563
000010 00 19 3b 3f 73 47 4b 3f 6f 0f fd 3e 03 a8 ec 3e
       0.7308502 0.794059 0.49425837 0.46221933
000020 4d 93 29 3f 56 c9 23 3f 59 f2 24 3f 70 08 2a 3f
       0.6624039 0.6397909 0.64432293 0.66419125
000030 12 be 68 3f ba 2d 11 3f 1a 26 17 3f a2 7f fb 3e
       0.90915024 0.567104 0.59042513 0.49120814
000040 97 04 1d 3f c6 ce f4 3e a4 7b 1a 3f b0 64 1f 3f
       0.6133513 0.47814006 0.6034491 0.6226301
000050 11 ff ff 3e 08 c2 1b 3f b8 82 15 3f 49 e1 02 3f
       0.49999288 0.60842943 0.58402586 0.5112501
000060 fa af 5d 3f 13 16 17 3f 93 27 1c 3f 05 6c f5 3e
       0.86596644 0.5901806 0.60997885 0.47933975
000070 23 6b 09 3f e4 34 12 3f e8 92 25 3f 52 2a f6 3e
       0.536791 0.57111955 0.64677286 0.48079163
000080 bb 75 2d 3f d0 37 0a 3f 60 d6 0c 3f 07 59 1c 3f
       0.6775777 0.53991413 0.5501461 0.61073345
000090 de 03 16 3f a8 cc 54 3f 10 1c 11 3f a6 75 06 3f
       0.5859965 0.8312478 0.56683445 0.5252327
0000a0 bc 50 1e 3f 94 f6 17 3f e5 d2 01 3f 81 e0 f2 3e
       0.6184194 0.59360623 0.50712425 0.47436908
0000b0 9e 93 16 3f 22 ff 02 3f 02 1b 0f 3f 46 ed 12 3f
       0.58818996 0.5117055 0.55900586 0.573933
0000c0 5d 3d 18 3f 94 5c fa 3e 24 b6 94 3f 5b 59 20 3f
       0.5946863 0.48898757 1.1618085 0.62636346
0000d0 46 0b 1b 3f cb 5e 20 3f dc 2b 21 3f 6d 06 20 3f
       0.60564077 0.6264464 0.6295755 0.62509805
0000e0 f4 8c 1b 3f bb 28 02 3f 73 ae 17 3f 0e 1c 24 3f
       0.6076195 0.508434 0.59250563 0.6410531
0000f0 06 ca 0b 3f 0b 42 1b 3f 7b 7f 00 3f 64 6c 24 3f
       0.5460514 0.6064765 0.5019452 0.6422789
000100 7d 17 19 3f 05 37 2c 3f 47 14 13 3f 41 1a 1c 3f
       0.59801465 0.67271453 0.57452816 0.6097756
000110 c8 30 1f 3f 52 38 35 3f fe 6a 15 3f 25 5f 17 3f
       0.6218381 0.7078906 0.5836638 0.59129554
000120 db c3 05 3f ec 6f 0b 3f 6a 41 1f 3f 5d 8b 05 3f
       0.52251977 0.54467654 0.6220919 0.52165776
000130 59 4f 10 3f 5b 67 18 3f 68 ce 17 3f e9 94 11 3f
       0.56371075 0.5953271 0.59299326 0.56867844
000140 5b 09 19 3f 9d 10 1a 3f 72 72 37 3f d3 49 50 3f
       0.597799 0.601816 0.71659005 0.81362647
000150 c8 62 08 3f 5c b6 18 3f a9 b9 1f 3f 33 3c 19 3f
       0.5327573 0.5965326 0.6239267 0.5985748
000160 fe 8f 14 3f cf 3a 23 3f 42 2e 29 3f 14 22 1d 3f
       0.58032215 0.6376161 0.6608621 0.61380124
000170 e6 5e 17 3f c0 ee 04 3f 2f 38 20 3f ac da 03 3f
       0.5912918 0.51926804 0.6258573 0.5150554
000180 84 8e 49 3f c8 0c f4 3e 6c e4 05 3f 3b bc 24 3f
       0.78733087 0.47666 0.5230167 0.64349717
000190 f4 03 04 3f d2 4b 1f 3f 7f f1 0a 3f 38 77 27 3f
       0.5156853 0.6222507 0.54274744 0.6541629
0001a0 c2 7e 32 3f 1b f6 36 3f af db 11 3f 54 d2 22 3f
       0.6972467 0.7146928 0.56975836 0.63602185
0001b0 e5 8f 21 3f 86 e4 05 3f 8b 7e 29 3f 45 3a 0a 3f
       0.6311019 0.52301824 0.66208714 0.5399516
0001c0 1e 12 01 3f 0c ba 08 3f 3a df 23 3f cd a0 4e 3f
       0.5041827 0.53408885 0.6401249 0.8071411
0001d0 b6 55 44 3f 8d 78 09 3f 90 38 0e 3f c9 5d 0b 3f
       0.76693285 0.5369957 0.5555506 0.5443998
0001e0 fe 3e fd 3e 90 36 fd 3e 90 6a 19 3f db b0 3c 3f
       0.49462122 0.4945569 0.59928226 0.7370736
0001f0 22 d7 2c 3f cf 3f 18 3f b2 42 36 3f d8 76 fa 3e
       0.67515767 0.59472364 0.7119552 0.48918796
000200 d4 4c 0e 3f f6 e9 0d 3f 45 53 15 3f bd 05 00 3f
       0.5558598 0.5543512 0.58330184 0.50008756
000210 c3 b9 1e 3f c8 91 30 3f 16 4b 18 3f 56 55 08 3f
       0.620022 0.68972445 0.5948957 0.5325521
000220 a8 8c 50 3f 72 38 24 3f e9 17 44 3f eb 2a 48 3f
       0.81464624 0.6414863 0.76598984 0.7819049
000230 44 70 20 3f 89 40 1f 3f fc 0b 6f 3f 62 51 05 3f
       0.62671304 0.6220785 0.9337766 0.52077305
000240 10 f9 19 3f 8e 9d 14 3f 4b b2 00 3f e7 c7 1b 3f
       0.60145664 0.5805291 0.50272053 0.608519
000250 62 ca 09 3f eb 3a 11 3f 39 56 23 3f 16 76 2b 3f
       0.53824437 0.56730527 0.6380344 0.6697706
000260 9e e0 13 3f 2a 1a 1f 3f ec dc 2f 3f c7 b0 41 3f
       0.57764614 0.621493 0.68696475 0.75660366
000270 60 cc 2d 3f a5 8b 0a 3f c1 88 1e 3f 54 06 02 3f
       0.67889977 0.5411933 0.6192742 0.50790906
000280 d0 aa 39 3f 61 f5 16 3f 5e 46 0b 3f 46 f7 15 3f
       0.72526264 0.5896817 0.54404247 0.58580434
000290 f6 fc 0a 3f cf 1c 0c 3f be 0b f1 3e 9c 69 07 3f
       0.5429224 0.5473146 0.4707927 0.5289552
0002a0 66 c7 28 3f f5 af 4d 3f 86 d9 32 3f 00 56 07 3f
       0.6592926 0.80346614 0.69863164 0.528656
0002b0 c7 3a 16 3f 87 d4 0f 3f db 22 88 3f bf f5 36 3f
       0.5868344 0.56183666 1.0635637 0.7146873
0002c0 91 8c 04 3f 85 ec 31 3f cb f5 0c 3f bf 56 0d 3f
       0.5177699 0.69501525 0.5506255 0.5521049
0002d0 6b ab 0d 3f 54 0d 07 3f be 77 0b 3f ae 8f 70 3f
       0.5533969 0.5275471 0.5447959 0.9396924
0002e0 6e 6c f3 3e 8e 23 f1 3e a1 03 34 3f 24 25 3f 3f
       0.47543663 0.4709744 0.7031804 0.7466605
0002f0 13 41 03 3f 66 47 84 3f 19 83 0f 3f 5c ff 16 3f
       0.5127117 1.0334289 0.56059414 0.589834
000300 34 13 11 3f 45 4d 23 3f 86 78 02 3f d6 e4 0b 3f
       0.56669927 0.6378978 0.50965154 0.5464605
000310 7e 1c 10 3f 10 c8 25 3f 0d 84 09 3f 9b 1d 21 3f
       0.56293476 0.64758396 0.5371712 0.629358
000320 58 8a 2e 3f 23 ef 18 3f 5b 50 0c 3f 6f 6f 24 3f
       0.68179846 0.59739894 0.5481011 0.64232534
000330 81 ce 06 3f f4 8e 17 3f 2f d4 08 3f 13 18 0c 3f
       0.5265885 0.59202504 0.53448766 0.54724234
000340 7a 32 15 3f 3f 26 30 3f 69 ff 11 3f 63 ac f8 3e
       0.58280146 0.6880836 0.5703035 0.4856902
000350 ab 50 0e 3f 21 f9 86 3f dc 5a 29 3f fe 8d 14 3f
       0.5559184 1.0544778 0.66154265 0.5802916
000360 ce e4 29 3f 48 63 20 3f 5e ef 11 3f e2 8c 09 3f
       0.66364753 0.6265149 0.5700587 0.53730595
000370 28 57 12 3f c6 b0 03 3f 5b c3 1f 3f 16 44 27 3f
       0.5716424 0.5144161 0.62407464 0.65338266
000380 68 86 11 3f bf 0f 2e 3f 6f 02 06 3f d7 a8 09 3f
       0.5684571 0.67992777 0.52347463 0.53773254
000390 23 3f 17 3f fc 77 30 3f 33 86 0e 3f b6 85 03 3f
       0.59080714 0.6893308 0.5567352 0.513759
0003a0 2d 3c 0e 3f 95 d1 16 3f 0b a0 fb 3e 10 9f 1d 3f
       0.5556057 0.58913547 0.4914554 0.61570835
0003b0 67 82 88 3f 53 f4 1c 3f 66 3c 08 3f c1 73 0d 3f
       1.0664796 0.6131031 0.5321716 0.5525475
0003c0 65 82 0f 3f 58 8f 5a 3f 28 f0 26 3f 75 f7 0a 3f
       0.5605834 0.85374975 0.652102 0.5428384
0003d0 8e 6d 1e 3f 94 6a 2b 3f d3 aa 0c 3f d2 c5 1e 3f
       0.6188592 0.669595 0.5494816 0.620206
0003e0 6b 12 08 3f fe 06 11 3f 25 ae 0b 3f 4d 2c 0d 3f
       0.53153104 0.56651294 0.545626 0.5514572
0003f0 c3 da 2e 3f cf a8 f5 3e 4c 47 0d 3f d6 53 18 3f
       0.68302554 0.47980353 0.55186915 0.59502923

bias f4 [256]
000000 50 13 56 3e ea e3 b7 be f9 6c 27 be c1 4a 64 be
       0.20905805 -0.35916072 -0.16350164 -0.22294141
000010 65 e8 2c be e2 74 09 bc 12 a3 c3 bd f7 3f 8d 3d
       -0.16885526 -0.008389683 -0.095525876 0.06896966
000020 8c 6e 4b bd 38 75 82 3b ea 05 4f bf 6c 36 00 be
       -0.049665973 0.0039812587 -0.808684 -0.1252076
000030 c2 78 93 be 20 f5 8e be e0 0e a3 3b 7b fe a9 be
       -0.28803068 -0.2792139 0.0049761385 -0.33201966
000040 fb e1 98 be a8 2f 94 be 16 05 fc bd 26 ea f9 be
       -0.2985991 -0.2894261 -0.123056576 -0.48811454
000050 67 bd f6 bc a1 55 dd be 6c 9b d4 be ca 0b 15 bf
       -0.030119611 -0.43229392 -0.41524827 -0.58221114
000060 75 44 c2 be aa b1 ff be 4a ec 94 be b0 e4 f0 ba
       -0.37942854 -0.49940234 -0.29086524 -0.0018378701
000070 e8 68 b3 bd 63 1f b9 bd f9 67 9a be 82 a0 a6 be
       -0.08760244 -0.0903919 -0.3015745 -0.32544333
000080 b7 c1 8d be 7e 42 b6 be 24 a4 c0 bd 73 a9 9d bd
       -0.27686855 -0.35597605 -0.09406307 -0.076983355
000090 58 2c 04 be 7f 55 60 be 05 b9 8d 3d e4 72 9b bd
       -0.12907541 -0.21907614 0.06920055 -0.07590273
0000a0 27 a7 e3 be 28 ac bf be ea 90 ee be b7 7c ab 3d
       -0.44463465 -0.37436032 -0.46594936 0.08373397
0000b0 3c 80 03 be bd 9a 8c be f8 63 7f be 34 84 7f be
       -0.12841886 -0.27461806 -0.24940479 -0.24952775
0000c0 e8 bb 9d 3c f0 ae 7f be fc 6f c9 bd 82 30 30 bf
       0.01925464 -0.24969077 -0.098358124 -0.6882402
0000d0 21 22 ef be 6b 1f b4 be 0a 1c c8 be e0 64 13 3b
       -0.46705726 -0.3518022 -0.39083892 0.0022490546
0000e0 5a a4 8a be 6e af 1a bf df 5c d6 be ae 82 1f bf
       -0.27078515 -0.60423934 -0.4186773 -0.62308776
0000f0 19 8c ce be ba 16 aa bc ac 6b 2d bd 5c 41 d4 bd
       -0.4034126 -0.02076279 -0.042339012 -0.10364029
000100 56 8b c4 be ca 98 bd be 48 7a 06 bf c0 b1 fd be
       -0.38387555 -0.3703063 -0.52530336 -0.49549675
000110 d6 15 3b be 2a 63 03 bf 71 70 39 be 75 90 82 be
       -0.18270048 -0.5132319 -0.18109299 -0.25500837
000120 df 16 91 bd b2 ce c7 be 12 fd 3e bd 98 5e 92 bd
       -0.070844404 -0.39024884 -0.046628065 -0.071469486
000130 db 44 69 be ba 06 ce be 13 70 ba be 72 4a b6 bd
       -0.22780173 -0.40239507 -0.3641363 -0.08900918
000140 a0 cc a0 be a8 52 a1 bc 82 82 b8 be e8 0c ce 3c
       -0.31406116 -0.019692734 -0.3603707 0.025152639
000150 9e c0 c5 be 73 12 9c bd 24 39 10 3e 96 25 a7 be
       -0.38623518 -0.076207064 0.14084297 -0.32645863
000160 9f 8c 28 3e ae 75 ec bd aa f3 98 be f9 ae 01 be
       0.16459893 -0.11545883 -0.298734 -0.12664403
000170 cf 93 9c 3d f6 58 90 be 91 f5 53 be fe 8c af bd
       0.0764538 -0.28192872 -0.20699145 -0.08571814
000180 91 dc 3f 3d fc c9 fc bd 84 b3 d5 be 6c 9c b1 be
       0.046841208 -0.12343213 -0.41738522 -0.34689653
000190 44 b0 a3 be d4 8b 2e 3e 32 35 40 bd 10 f0 e3 bd
       -0.31970417 0.17045528 -0.04692573 -0.11129773
0001a0 0e 4c 29 be d4 d8 02 3d 6a f3 a2 be 69 f0 ad 3d
       -0.16532919 0.031945065 -0.31826335 0.0849312
0001b0 3e 99 76 bd 8c bd 01 be 40 32 fb be 90 9b 8c bd
       -0.060204737 -0.12669963 -0.49061775 -0.06865609
0001c0 d9 17 e5 3d 94 92 ad be 94 f7 cf be d9 c7 c7 be
       0.11186189 -0.33900893 -0.40618575 -0.3901966
0001d0 4d 31 93 bd 11 bd 4e be c0 2c be be 96 3d d1 be
       -0.07187138 -0.2018931 -0.37143517 -0.408673
0001e0 21 9a f8 be f5 47 85 be 48 56 de bc 66 87 eb be
       -0.4855509 -0.2603146 -0.027140751 -0.46001738
0001f0 17 af 78 be 16 0e ff be dc 9d df be ca 9f 41 be
       -0.24285541 -0.49815434 -0.43675125 -0.18908611
000200 2e 61 bf be 9a 74 87 3d ce 23 03 bf 8b 5e 13 bd
       -0.3737883 0.06614037 -0.5122651 -0.035978835
000210 4f bc fe bd f6 b8 e8 be 19 db 30 be ad 2c 7b be
       -0.12438261 -0.45453614 -0.17271079 -0.24528761
000220 44 18 89 be d2 a9 7b 3d f7 fd fd bd a7 0e a3 be
       -0.26776326 0.06144125 -0.124019556 -0.31847116
000230 bc c8 d0 bd bc 25 9d be a1 7b 22 be 80 25 a5 be
       -0.10194537 -0.30692852 -0.15867473 -0.32255173
000240 a9 1a 07 bf 73 1b 9a be 66 a5 f4 be 05 a7 42 be
       -0.52775055 -0.30099067 -0.4778244 -0.19009025
000250 07 0e 28 bd e0 36 91 be d6 67 31 bf c8 56 f7 be
       -0.041029003 -0.2836218 -0.69299066 -0.48308396
000260 ec f1 d3 3c 9a 42 12 be 76 c4 86 3e 5a 64 bd be
       0.025872193 -0.14283219 0.26321763 -0.36990625
000270 14 38 32 3d f2 8f b3 be a6 8e e0 be f6 9b 6d be
       0.04351051 -0.3507076 -0.43858832 -0.23204026
000280 68 d1 60 be 58 18 95 be 8f 1f ea be d4 78 a2 be
       -0.21954882 -0.29120135 -0.45727202 -0.3173281
000290 c3 b3 74 be ca a5 35 3e 5c 35 c5 be 44 fa bb be
       -0.23896699 0.17739025 -0.38517272 -0.36714375
0002a0 14 b2 e9 be 21 85 a9 bd ee 1d 60 be ca d8 d5 3c
       -0.45643675 -0.082773454 -0.21886417 0.02610435
0002b0 b4 e1 49 be ea c6 59 be ae fe d7 be 1d 86 0f 3c
       -0.19715005 -0.21267286 -0.42186493 0.008760002
0002c0 16 c8 86 bd 7a 6a 5b be 67 22 32 3e ac 51 18 be
       -0.06581132 -0.21427336 0.17395936 -0.14874905
0002d0 73 2b a6 be 33 33 6b be f9 86 50 3e fe 31 02 bf
       -0.32455024 -0.2296875 0.20363988 -0.5085753
0002e0 f2 0f 75 bd 70 1a b7 3b 76 09 3d 3d d3 97 ec 3d
       -0.05982966 0.0055878684 0.0461516 0.11552396
0002f0 4a 19 d1 be b4 b3 e4 bd 8a a0 59 3e 95 e0 03 3e
       -0.40839607 -0.11167088 0.21252647 0.1287864
000300 2c 00 f2 bd c3 a3 00 bf bd 64 4b be cb 72 8a be
       -0.11816439 -0.5024988 -0.19862647 -0.27040705
000310 f9 2f ad be 5e 3b fe bd f0 a1 82 be 0c 23 bb be
       -0.33825663 -0.12413667 -0.25514174 -0.36550176
000320 dc 15 64 be 8f e6 7a be ee eb d9 bd 6e d3 55 be
       -0.22273964 -0.24502014 -0.10640703 -0.20881435
000330 44 3a db bd ac 02 b8 be bf 3c 9f bd f2 c0 7b be
       -0.10704473 -0.35939538 -0.07775258 -0.24585322
000340 8f 45 7a 3d b6 70 9e be ee d3 55 be df 96 4b be
       0.061101492 -0.30945367 -0.20881626 -0.19881772
000350 17 d4 87 be 24 65 dd bc 25 5a 07 3e 27 fd e9 be
       -0.26529 -0.027025767 0.13217981 -0.45700952
000360 c8 56 43 be 16 5d 5f be 14 91 b5 be c3 02 da bd
       -0.19076073 -0.21812853 -0.35462248 -0.10645058
000370 de 20 db bd e0 31 a9 be fc 0e 6f bd 33 58 ca be
       -0.10699628 -0.33045864 -0.0583639 -0.39520416
000380 88 a8 58 be 98 d1 2e be 90 af 29 bf e2 06 b6 bc
       -0.2115804 -0.17072141 -0.6628351 -0.022220079
000390 86 76 9e be 94 0d b3 be b0 62 1d be 58 52 04 be
       -0.309498 -0.34971297 -0.15369678 -0.12922037
0003a0 09 6d da 3c 43 b5 2c bf 97 88 0b be 3e 56 74 be
       0.02666332 -0.67464083 -0.13626324 -0.23861024
0003b0 53 96 57 bf 5c c1 5f bd 50 79 37 be 2f 87 f4 be
       -0.8421375 -0.05462776 -0.17917371 -0.47759387
0003c0 aa 46 6c be 5a fe 5b be 17 c8 fc be ec 12 00 be
       -0.23073831 -0.21483746 -0.49371406 -0.12507218
0003d0 32 cc d2 be a4 9c 1c bf 7c 47 3e 3d f8 d2 2d be
       -0.41171414 -0.61176515 0.04645489 -0.1697501
0003e0 ac 45 91 be 98 69 12 be e6 da 57 be c3 40 8f be
       -0.28373468 -0.14298093 -0.21079597 -0.27979097
0003f0 1d e4 16 bf 83 45 95 be 34 41 74 be d9 56 a4 be
       -0.58941823 -0.29154596 -0.23852998 -0.3209751

mean f4 [256]
000000 00 00 00 80 00 00 00 00 00 00 00 00 00 00 00 00
       -0.0 0.0 0.0 0.0
000010 00 00 00 80 00 00 00 00 00 00 00 80 00 00 00 80
       -0.0 0.0 -0.0 -0.0
000020 00 00 00 80 00 00 00 80 00 00 00 00 00 00 00 00
       -0.0 -0.0 0.0 0.0
000030 00 00 00 00 00 00 00 00 00 00 00 80 00 00 00 00
       0.0 0.0 -0.0 0.0
000040 00 00 00 00 00 00 00 00 00 00 00 80 00 00 00 00
       0.0 0.0 -0.0 0.0
000050 00 00 00 00 00 00 00 00 00 00 00 00 00 00 00 00
       0.0 0.0 0.0 0.0
000060 00 00 00 00 00 00 00 00 00 00 00 00 00 00 00 80
       0.0 0.0 0.0 -0.0
000070 00 00 00 00 00 00 00 00 00 00 00 00 00 00 00 00
       0.0 0.0 0.0 0.0
000080 00 00 00 00 00 00 00 00 00 00 00 00 00 00 00 00
       0.0 0.0 0.0 0.0
000090 00 00 00 00 00 00 00 80 00 00 00 80 00 00 00 00
       0.0 -0.0 -0.0 0.0
0000a0 00 00 00 00 00 00 00 00 00 00 00 00 00 00 00 80
       0.0 0.0 0.0 -0.0
0000b0 00 00 00 00 00 00 00 00 00 00 00 00 00 00 00 00
       0.0 0.0 0.0 0.0
0000c0 00 00 00 80 00 00 00 00 00 00 00 80 00 00 00 00
       -0.0 0.0 -0.0 0.0
0000d0 00 00 00 00 00 00 00 00 00 00 00 00 00 00 00 80
       0.0 0.0 0.0 -0.0
0000e0 00 00 00 00 00 00 00 00 00 00 00 00 00 00 00 00
       0.0 0.0 0.0 0.0
0000f0 00 00 00 00 00 00 00 00 00 00 00 80 00 00 00 80
       0.0 0.0 -0.0 -0.0
000100 00 00 00 00 00 00 00 00 00 00 00 00 00 00 00 00
       0.0 0.0 0.0 0.0
000110 00 00 00 00 00 00 00 00 00 00 00 00 00 00 00 00
       0.0 0.0 0.0 0.0
000120 00 00 00 80 00 00 00 00 00 00 00 80 00 00 00 80
       -0.0 0.0 -0.0 -0.0
000130 00 00 00 00 00 00 00 00 00 00 00 00 00 00 00 00
       0.0 0.0 0.0 0.0
000140 00 00 00 00 00 00 00 80 00 00 00 00 00 00 00 80
       0.0 -0.0 0.0 -0.0
000150 00 00 00 00 00 00 00 00 00 00 00 80 00 00 00 00
       0.0 0.0 -0.0 0.0
000160 00 00 00 80 00 00 00 00 00 00 00 00 00 00 00 00
       -0.0 0.0 0.0 0.0
000170 00 00 00 80 00 00 00 00 00 00 00 00 00 00 00 00
       -0.0 0.0 0.0 0.0
000180 00 00 00 80 00 00 00 00 00 00 00 00 00 00 00 00
       -0.0 0.0 0.0 0.0
000190 00 00 00 00 00 00 00 80 00 00 00 00 00 00 00 80
       0.0 -0.0 0.0 -0.0
0001a0 00 00 00 00 00 00 00 80 00 00 00 00 00 00 00 80
       0.0 -0.0 0.0 -0.0
0001b0 00 00 00 00 00 00 00 00 00 00 00 00 00 00 00 80
       0.0 0.0 0.0 -0.0
0001c0 00 00 00 80 00 00 00 00 00 00 00 00 00 00 00 00
       -0.0 0.0 0.0 0.0
0001d0 00 00 00 00 00 00 00 00 00 00 00 00 00 00 00 00
       0.0 0.0 0.0 0.0
0001e0 00 00 00 00 00 00 00 00 00 00 00 00 00 00 00 00
       0.0 0.0 0.0 0.0
0001f0 00 00 00 00 00 00 00 00 00 00 00 00 00 00 00 00
       0.0 0.0 0.0 0.0
000200 00 00 00 00 00 00 00 80 00 00 00 00 00 00 00 00
       0.0 -0.0 0.0 0.0
000210 00 00 00 00 00 00 00 00 00 00 00 80 00 00 00 00
       0.0 0.0 -0.0 0.0
000220 00 00 00 00 00 00 00 80 00 00 00 00 00 00 00 00
       0.0 -0.0 0.0 0.0
000230 00 00 00 80 00 00 00 00 00 00 00 80 00 00 00 00
       -0.0 0.0 -0.0 0.0
000240 00 00 00 00 00 00 00 00 00 00 00 00 00 00 00 00
       0.0 0.0 0.0 0.0
000250 00 00 00 00 00 00 00 00 00 00 00 00 00 00 00 00
       0.0 0.0 0.0 0.0
000260 00 00 00 80 00 00 00 00 00 00 00 80 00 00 00 00
       -0.0 0.0 -0.0 0.0
000270 00 00 00 80 00 00 00 00 00 00 00 00 00 00 00 00
       -0.0 0.0 0.0 0.0
000280 00 00 00 00 00 00 00 00 00 00 00 00 00 00 00 00
       0.0 0.0 0.0 0.0
000290 00 00 00 00 00 00 00 80 00 00 00 00 00 00 00 00
       0.0 -0.0 0.0 0.0
0002a0 00 00 00 00 00 00 00 00 00 00 00 00 00 00 00 00
       0.0 0.0 0.0 0.0
0002b0 00 00 00 00 00 00 00 00 00 00 00 80 00 00 00 80
       0.0 0.0 -0.0 -0.0
0002c0 00 00 00 00 00 00 00 00 00 00 00 80 00 00 00 00
       0.0 0.0 -0.0 0.0
0002d0 00 00 00 00 00 00 00 00 00 00 00 80 00 00 00 00
       0.0 0.0 -0.0 0.0
0002e0 00 00 00 00 00 00 00 00 00 00 00 00 00 00 00 80
       0.0 0.0 0.0 -0.0
0002f0 00 00 00 00 00 00 00 80 00 00 00 80 00 00 00 80
       0.0 -0.0 -0.0 -0.0
000300 00 00 00 00 00 00 00 00 00 00 00 00 00 00 00 00
       0.0 0.0 0.0 0.0
000310 00 00 00 00 00 00 00 00 00 00 00 00 00 00 00 00
       0.0 0.0 0.0 0.0
000320 00 00 00 00 00 00 00 00 00 00 00 00 00 00 00 00
       0.0 0.0 0.0 0.0
000330 00 00 00 00 00 00 00 00 00 00 00 00 00 00 00 00
       0.0 0.0 0.0 0.0
000340 00 00 00 80 00 00 00 00 00 00 00 00 00 00 00 00
       -0.0 0.0 0.0 0.0
000350 00 00 00 00 00 00 00 80 00 00 00 80 00 00 00 00
       0.0 -0.0 -0.0 0.0
000360 00 00 00 80 00 00 00 00 00 00 00 00 00 00 00 00
       -0.0 0.0 0.0 0.0
000370 00 00 00 00 00 00 00 00 00 00 00 80 00 00 00 00
       0.0 0.0 -0.0 0.0
000380 00 00 00 00 00 00 00 00 00 00 00 00 00 00 00 80
       0.0 0.0 0.0 -0.0
000390 00 00 00 00 00 00 00 00 00 00 00 00 00 00 00 00
       0.0 0.0 0.0 0.0
0003a0 00 00 00 00 00 00 00 00 00 00 00 00 00 00 00 00
       0.0 0.0 0.0 0.0
0003b0 00 00 00 00 00 00 00 00 00 00 00 00 00 00 00 00
       0.0 0.0 0.0 0.0
0003c0 00 00 00 00 00 00 00 00 00 00 00 00 00 00 00 00
       0.0 0.0 0.0 0.0
0003d0 00 00 00 00 00 00 00 00 00 00 00 80 00 00 00 00
       0.0 0.0 -0.0 0.0
0003e0 00 00 00 00 00 00 00 00 00 00 00 00 00 00 00 00
       0.0 0.0 0.0 0.0
0003f0 00 00 00 00 00 00 00 00 00 00 00 00 00 00 00 00
       0.0 0.0 0.0 0.0

var f4 [256]
000000 00 00 80 3f 00 00 80 3f 00 00 80 3f 00 00 80 3f
       1.0 1.0 1.0 1.0
000010 00 00 80 3f 00 00 80 3f 00 00 80 3f 00 00 80 3f
       1.0 1.0 1.0 1.0
000020 00 00 80 3f 00 00 80 3f 00 00 80 3f 00 00 80 3f
       1.0 1.0 1.0 1.0
000030 00 00 80 3f 00 00 80 3f 00 00 80 3f 00 00 80 3f
       1.0 1.0 1.0 1.0
000040 00 00 80 3f 00 00 80 3f 00 00 80 3f 00 00 80 3f
       1.0 1.0 1.0 1.0
000050 00 00 80 3f 00 00 80 3f 00 00 80 3f 00 00 80 3f
       1.0 1.0 1.0 1.0
000060 00 00 80 3f 00 00 80 3f 00 00 80 3f 00 00 80 3f
       1.0 1.0 1.0 1.0
000070 00 00 80 3f 00 00 80 3f 00 00 80 3f 00 00 80 3f
       1.0 1.0 1.0 1.0
000080 00 00 80 3f 00 00 80 3f 00 00 80 3f 00 00 80 3f
       1.0 1.0 1.0 1.0
000090 00 00 80 3f 00 00 80 3f 00 00 80 3f 00 00 80 3f
       1.0 1.0 1.0 1.0
0000a0 00 00 80 3f 00 00 80 3f 00 00 80 3f 00 00 80 3f
       1.0 1.0 1.0 1.0
0000b0 00 00 80 3f 00 00 80 3f 00 00 80 3f 00 00 80 3f
       1.0 1.0 1.0 1.0
0000c0 00 00 80 3f 00 00 80 3f 00 00 80 3f 00 00 80 3f
       1.0 1.0 1.0 1.0
0000d0 00 00 80 3f 00 00 80 3f 00 00 80 3f 00 00 80 3f
       1.0 1.0 1.0 1.0
0000e0 00 00 80 3f 00 00 80 3f 00 00 80 3f 00 00 80 3f
       1.0 1.0 1.0 1.0
0000f0 00 00 80 3f 00 00 80 3f 00 00 80 3f 00 00 80 3f
       1.0 1.0 1.0 1.0
000100 00 00 80 3f 00 00 80 3f 00 00 80 3f 00 00 80 3f
       1.0 1.0 1.0 1.0
000110 00 00 80 3f 00 00 80 3f 00 00 80 3f 00 00 80 3f
       1.0 1.0 1.0 1.0
000120 00 00 80 3f 00 00 80 3f 00 00 80 3f 00 00 80 3f
       1.0 1.0 1.0 1.0
000130 00 00 80 3f 00 00 80 3f 00 00 80 3f 00 00 80 3f
       1.0 1.0 1.0 1.0
000140 00 00 80 3f 00 00 80 3f 00 00 80 3f 00 00 80 3f
       1.0 1.0 1.0 1.0
000150 00 00 80 3f 00 00 80 3f 00 00 80 3f 00 00 80 3f
       1.0 1.0 1.0 1.0
000160 00 00 80 3f 00 00 80 3f 00 00 80 3f 00 00 80 3f
       1.0 1.0 1.0 1.0
000170 00 00 80 3f 00 00 80 3f 00 00 80 3f 00 00 80 3f
       1.0 1.0 1.0 1.0
000180 00 00 80 3f 00 00 80 3f 00 00 80 3f 00 00 80 3f
       1.0 1.0 1.0 1.0
000190 00 00 80 3f 00 00 80 3f 00 00 80 3f 00 00 80 3f
       1.0 1.0 1.0 1.0
0001a0 00 00 80 3f 00 00 80 3f 00 00 80 3f 00 00 80 3f
       1.0 1.0 1.0 1.0
0001b0 00 00 80 3f 00 00 80 3f 00 00 80 3f 00 00 80 3f
       1.0 1.0 1.0 1.0
0001c0 00 00 80 3f 00 00 80 3f 00 00 80 3f 00 00 80 3f
       1.0 1.0 1.0 1.0
0001d0 00 00 80 3f 00 00 80 3f 00 00 80 3f 00 00 80 3f
       1.0 1.0 1.0 1.0
0001e0 00 00 80 3f 00 00 80 3f 00 00 80 3f 00 00 80 3f
       1.0 1.0 1.0 1.0
0001f0 00 00 80 3f 00 00 80 3f 00 00 80 3f 00 00 80 3f
       1.0 1.0 1.0 1.0
000200 00 00 80 3f 00 00 80 3f 00 00 80 3f 00 00 80 3f
       1.0 1.0 1.0 1.0
000210 00 00 80 3f 00 00 80 3f 00 00 80 3f 00 00 80 3f
       1.0 1.0 1.0 1.0
000220 00 00 80 3f 00 00 80 3f 00 00 80 3f 00 00 80 3f
       1.0 1.0 1.0 1.0
000230 00 00 80 3f 00 00 80 3f 00 00 80 3f 00 00 80 3f
       1.0 1.0 1.0 1.0
000240 00 00 80 3f 00 00 80 3f 00 00 80 3f 00 00 80 3f
       1.0 1.0 1.0 1.0
000250 00 00 80 3f 00 00 80 3f 00 00 80 3f 00 00 80 3f
       1.0 1.0 1.0 1.0
000260 00 00 80 3f 00 00 80 3f 00 00 80 3f 00 00 80 3f
       1.0 1.0 1.0 1.0
000270 00 00 80 3f 00 00 80 3f 00 00 80 3f 00 00 80 3f
       1.0 1.0 1.0 1.0
000280 00 00 80 3f 00 00 80 3f 00 00 80 3f 00 00 80 3f
       1.0 1.0 1.0 1.0
000290 00 00 80 3f 00 00 80 3f 00 00 80 3f 00 00 80 3f
       1.0 1.0 1.0 1.0
0002a0 00 00 80 3f 00 00 80 3f 00 00 80 3f 00 00 80 3f
       1.0 1.0 1.0 1.0
0002b0 00 00 80 3f 00 00 80 3f 00 00 80 3f 00 00 80 3f
       1.0 1.0 1.0 1.0
0002c0 00 00 80 3f 00 00 80 3f 00 00 80 3f 00 00 80 3f
       1.0 1.0 1.0 1.0
0002d0 00 00 80 3f 00 00 80 3f 00 00 80 3f 00 00 80 3f
       1.0 1.0 1.0 1.0
0002e0 00 00 80 3f 00 00 80 3f 00 00 80 3f 00 00 80 3f
       1.0 1.0 1.0 1.0
0002f0 00 00 80 3f 00 00 80 3f 00 00 80 3f 00 00 80 3f
       1.0 1.0 1.0 1.0
000300 00 00 80 3f 00 00 80 3f 00 00 80 3f 00 00 80 3f
       1.0 1.0 1.0 1.0
000310 00 00 80 3f 00 00 80 3f 00 00 80 3f 00 00 80 3f
       1.0 1.0 1.0 1.0
000320 00 00 80 3f 00 00 80 3f 00 00 80 3f 00 00 80 3f
       1.0 1.0 1.0 1.0
000330 00 00 80 3f 00 00 80 3f 00 00 80 3f 00 00 80 3f
       1.0 1.0 1.0 1.0
000340 00 00 80 3f 00 00 80 3f 00 00 80 3f 00 00 80 3f
       1.0 1.0 1.0 1.0
000350 00 00 80 3f 00 00 80 3f 00 00 80 3f 00 00 80 3f
       1.0 1.0 1.0 1.0
000360 00 00 80 3f 00 00 80 3f 00 00 80 3f 00 00 80 3f
       1.0 1.0 1.0 1.0
000370 00 00 80 3f 00 00 80 3f 00 00 80 3f 00 00 80 3f
       1.0 1.0 1.0 1.0
000380 00 00 80 3f 00 00 80 3f 00 00 80 3f 00 00 80 3f
       1.0 1.0 1.0 1.0
000390 00 00 80 3f 00 00 80 3f 00 00 80 3f 00 00 80 3f
       1.0 1.0 1.0 1.0
0003a0 00 00 80 3f 00 00 80 3f 00 00 80 3f 00 00 80 3f
       1.0 1.0 1.0 1.0
0003b0 00 00 80 3f 00 00 80 3f 00 00 80 3f 00 00 80 3f
       1.0 1.0 1.0 1.0
0003c0 00 00 80 3f 00 00 80 3f 00 00 80 3f 00 00 80 3f
       1.0 1.0 1.0 1.0
0003d0 00 00 80 3f 00 00 80 3f 00 00 80 3f 00 00 80 3f
       1.0 1.0 1.0 1.0
0003e0 00 00 80 3f 00 00 80 3f 00 00 80 3f 00 00 80 3f
       1.0 1.0 1.0 1.0
0003f0 00 00 80 3f 00 00 80 3f 00 00 80 3f 00 00 80 3f
       1.0 1.0 1.0 1.0

dense_2/kernel:0 f4 [512, 256]
000000 0a cd 78 3b 69 40 42 bc a0 dd d9 bc 90 8d 2e 3b
       0.003796401 -0.011856177 -0.026594937 0.002663467
000010 09 ed 3b 3c 08 6f 50 bc e3 00 c7 3b f2 4c 30 bc
       0.011470088 -0.012721784 0.0060731038 -0.010760533
000020 79 62 8d bc 70 80 6a 3c c7 29 8e bc fb 44 4d 3c
       -0.01725887 0.014312848 -0.017353905 0.012528653
000030 80 2f 15 3c af fc 80 3b 9a b9 61 bc 0e 77 60 3b
       0.009105563 0.003936372 -0.013777161 0.003425065
000040 55 07 52 bc 02 76 a0 bb 6d f1 17 3c 18 c7 83 bc
       -0.012819131 -0.00489688 0.009273869 -0.016086146
000050 34 07 02 bb a1 52 28 bc 80 d1 e6 3a cc 67 17 bc
       -0.001984072 -0.0102736065 0.0017610043 -0.009241056
000060 a1 3c 69 bc 04 24 c9 bc ab 40 0d 3c 2e 24 84 bc
       -0.014235646 -0.024553306 0.008621375 -0.016130533
000070 69 c7 aa bc df ac 88 ba 6a 46 ba bb aa 6b cf bb
       -0.02084704 -0.0010427496 -0.0056846635 -0.006329973
000080 45 ef d5 bc 74 34 9c ba 85 be 80 39 7c 17 97 bc
       -0.02611507 -0.0011917488 0.0002455601 -0.018443815
000090 a9 e0 e2 bc d7 a7 bb bc e6 58 a1 bc ca d2 88 ba
       -0.027695017 -0.02290718 -0.01969571 -0.0010438797
0000a0 72 b6 c8 bb 43 36 66 bc 5d 39 6a bb 7c 8b d4 3b
       -0.006125265 -0.014051023 -0.0035739758 0.0064863544
0000b0 a4 66 a6 3c 48 32 ae 3c 12 2d ab ba 0a 39 03 bc
       0.020312615 0.02126421 -0.0013059697 -0.008009205
0000c0 bb c6 0c bc 91 51 80 3c 5b 28 91 3a 91 5a 4a bc
       -0.008592303 0.015663894 0.0011074649 -0.012350694
0000d0 d5 af f3 ba fe f9 90 bc 58 22 47 bc c3 7c 4d bc
       -0.0018591831 -0.01769733 -0.012154184 -0.012541953
0000e0 fa 2b 48 bc e8 f0 53 bc 5c 4c 21 bc e9 84 e8 bb
       -0.012217516 -0.0129358545 -0.009844866 -0.0070959223
0000f0 ec c1 bc bb ca f4 80 bc 22 e1 44 bc 85 6a 30 3b
       -0.005760422 -0.015741725 -0.0120165665 0.002691896
000100 cf 56 af bb 39 c2 9d 3b 50 b0 03 bc 9e 22 19 bc
       -0.0053509246 0.004814413 -0.008037642 -0.009346632
000110 fa a2 24 bc 99 75 76 bc 78 0b 06 bc a3 71 64 bb
       -0.010048622 -0.015042686 -0.008181445 -0.0034857772
000120 ba 89 c1 bc ad 46 2e 3c 17 11 0a bb a8 94 0e 3b
       -0.023625243 0.010636968 -0.0021067315 0.0021756086
000130 4f 70 01 bd ea e3 ce 3b c0 76 01 3c 13 56 af 3b
       -0.031601246 0.0063137906 0.007901847 0.005350837
000140 d9 14 6f bb 8f fe 3a 3b 89 9c f6 3b db dd f7 ba
       -0.0036480932 0.0028533076 0.0075259847 -0.0018910723
000150 b4 08 db bc 35 9e b0 bb 27 3c 6e bc b1 7f 57 3c
       -0.026737548 -0.0053899535 -0.014540709 0.013153003
000160 f0 ef bb bc 67 61 d9 ba c4 8c c3 ba ac c1 6d ba
       -0.02294156 -0.0016584814 -0.0014919271 -0.0009069692
000170 d8 25 15 bd 24 4c bf bc de 2e e4 3b 3a 63 8c bc
       -0.036413044 -0.023351736 0.006963595 -0.017137159
000180 d8 4c bc 3b 8d ec a8 bc 19 c7 b2 39 d9 2b 4e bc
       0.005746465 -0.020620609 0.00034099145 -0.012583696
000190 5d dc 22 b9 54 8b 4f 3b 20 f6 77 ba b0 9b b4 bb
       -0.00015531616 0.003166874 -0.0009458978 -0.0055117235
0001a0 44 65 35 bc 21 87 19 bb 3d 11 96 bc ae aa aa 3b
       -0.011071507 -0.002342649 -0.018318767 0.005208335
0001b0 9c e0 f4 bb b4 ca 91 bc ba f7 6c ba da db 16 bb
       -0.0074730646 -0.017796852 -0.00090395997 -0.0023019225
0001c0 00 0c bf bb 26 35 b3 bb 73 df 42 bc 59 6b 09 bc
       -0.005830288 -0.0054689823 -0.011894095 -0.00838741
0001d0 6a fe 56 39 c7 68 e1 bb c1 66 b4 ba 7d 82 37 3a
       0.00020503407 -0.0068789455 -0.0013763533 0.000700034
0001e0 a5 0a 87 bc 31 21 a4 bc 91 ea e7 bb cf 94 7f bc
       -0.016484568 -0.020035358 -0.007077523 -0.015599444
0001f0 8c 59 8d bb 99 a0 d7 3b 0e ed 8d bc 56 89 90 bc
       -0.0043136533 0.006580424 -0.01732495 -0.017643612
000200 ca db 89 bc b4 a7 2f 3b 29 e8 c2 3c c3 e2 84 bc
       -0.016828436 0.002680284 0.023792343 -0.01622141
000210 d8 7a c8 bb b8 ad e1 bb 21 27 03 bb dc 43 9e ba
       -0.0061181597 -0.006887164 -0.0020012336 -0.0012074667
000220 db 6e 90 3c 61 18 56 bc 33 d0 01 bb 3e 18 7f bc
       0.017630985 -0.013067336 -0.0019807934 -0.015569745
000230 b7 60 00 bc 13 3c 70 bc b9 4b 14 3c 2e ca 85 bc
       -0.007835559 -0.01466276 0.009051257 -0.016331758
000240 d5 42 de 3b a4 f4 8f bc 15 57 0b 3c 4e 80 9a bb
       0.0067828693 -0.017572708 0.008504649 -0.004715002
000250 3d 0c 3d 3b 5d 9d 0c bb 83 31 f0 ba d2 87 b7 bb
       0.0028846406 -0.00214561 -0.0018325303 -0.005600908
000260 73 bc 60 3b e2 26 7a bc 83 74 5c bc 8d b1 aa bc
       0.0034292012 -0.015268059 -0.013455513 -0.020836616
000270 2f a3 18 bc d0 65 a1 3b 11 5a 34 bc 64 71 c1 38
       -0.00931625 0.004925467 -0.011007802 9.224078e-05
000280 63 08 c4 3b 18 f2 88 3b fe 8b ad 3a 23 a2 96 bb
       0.005982445 0.0041792504 0.0013240573 -0.004596965
000290 ab 31 0d bc b9 4f c6 3c d6 d6 39 bc f9 61 8f bc
       -0.008617799 0.024207937 -0.011342725 -0.017502772
0002a0 05 f1 a2 bb cc 80 02 bd 61 4a f9 bb 0d e3 9b bc
       -0.0049725794 -0.03186111 -0.0076077436 -0.019029165
0002b0 bf 29 94 bb 2b 5e ef bb 95 ae bf ba 36 ec e8 bc
       -0.004521578 -0.007304927 -0.0014624173 -0.028432947
0002c0 54 61 bc bc b8 5f bb bc 9f 8e 86 bc 65 fe 88 bc
       -0.022995628 -0.02287279 -0.016425429 -0.016722867
0002d0 27 a6 19 bc 30 75 cd bc 02 f7 a5 bc 5e dc 60 bb
       -0.009377993 -0.025080293 -0.020259384 -0.0034311037
0002e0 21 ad b1 bc df 1b ba bb af 5a a8 ba bd c1 4b bc
       -0.021689 -0.005679592 -0.0012844409 -0.0124363275
0002f0 43 bd 89 38 96 74 05 bb 4e 0a 69 bc ba 33 39 39
       6.567922e-05 -0.002036368 -0.014223648 0.00017662244
000300 9c 95 46 bb 09 e0 a6 bb 1f 22 40 bc c1 02 9c bc
       -0.0030301576 -0.005092625 -0.011726885 -0.019044282
000310 39 9d 3a bc 40 5a 8f bc f4 f6 d6 bc 5c f1 f8 bb
       -0.011390024 -0.01749909 -0.026240803 -0.0075971317
000320 f9 d1 84 bb 6d 6f 64 bc c5 d7 8f bc 70 5d 32 bb
       -0.004053351 -0.013942582 -0.017558942 -0.0027216338
000330 b2 59 10 3a 94 d5 8f bb 7f 6c 9c bc 7c 05 63 3c
       0.00055065297 -0.004389474 -0.019094704 0.013856288
000340 a4 f1 bf 3a 61 a8 b9 bc 2d 5d be ba 57 fd 04 bc
       0.0014644158 -0.022663297 -0.0014523618 -0.008117042
000350 d9 b1 39 bc 8a 0b 03 bc 72 c6 2c 3b 76 da 42 bc
       -0.011333906 -0.007998357 0.00263634 -0.011892905
000360 ce f8 e7 bb fb 55 41 3c 4f 07 91 bc a7 1c 76 bc
       -0.0070792204 0.0118002845 -0.01770368 -0.01502148
000370 e9 ea e1 3c 5b 42 87 bc a3 53 06 bc ae bd 02 bc
       0.027577834 -0.016511133 -0.0081986515 -0.0079797935
000380 4e 97 8d bc 13 fb 2e bc 58 ae 31 bb 50 14 a6 3b
       -0.017284062 -0.010679978 -0.0027111974 0.0050683394
000390 24 a1 88 3c 12 f4 89 bc 7b a9 a6 3b b2 bc 62 3c
       0.0166784 -0.016840015 0.0050861216 0.013838934
0003a0 1d 07 e0 bb 0b 62 fa bc c2 c0 3e bc 6f 3a 75 bc
       -0.0068367855 -0.030564329 -0.011642637 -0.014967545
0003b0 06 4c fb bc 1f 3a 8c bc 47 ca ba bb a1 d1 ed bc
       -0.0306759 -0.017117558 -0.005700383 -0.029030623
0003c0 74 c5 34 bc d3 71 e9 39 aa fb 67 bc 55 db 0b 3c
       -0.011033405 0.0004452603 -0.0141591225 0.00853618
0003d0 26 34 86 bc 41 19 95 bc 29 e3 e8 bc 8c b1 50 bc
       -0.016382288 -0.018200519 -0.02842863 -0.012737643
0003e0 64 7f 28 bb d8 9a 97 3c a1 84 90 3c be a2 1f 3b
       -0.0025710696 0.018506452 0.017641367 0.0024358477
0003f0 54 e9 83 3c 3b 5d b6 bc e8 78 d7 3b a7 a9 46 bc
       0.01610247 -0.022261253 0.0065756924 -0.012125409

dense_2/bias:0 f4 [256]
000000 43 78 91 ba 6f 3a 9e ba 76 7b 91 3b 0d fd 92 b9
       -0.0011098463 -0.0012071858 0.0044397665 -0.00028035828
000010 50 f0 61 bb 48 00 a4 ba 15 3c b0 b9 39 80 c7 39
       -0.0034475513 -0.0012512291 -0.000336141 0.0003805177
000020 10 2c 37 ba 3c f2 93 b9 45 89 b1 3a be d0 b4 ba
       -0.0006987462 -0.00028218504 0.0013544938 -0.001379512
000030 51 57 b7 b9 ab 21 75 3a f5 c6 cc 39 e0 56 33 38
       -0.00034969536 0.0009351025 0.00039058147 4.2757834e-05
000040 88 85 5f b9 9f 78 f7 ba 96 3e 93 ba 4c f9 45 3b
       -0.00021316682 -0.0018880552 -0.0011233862 0.0030208407
000050 c0 a3 a6 3a 97 d2 20 bb 3a d9 f0 b9 64 49 12 3a
       0.0012713596 -0.0024539584 -0.00045938214 0.0005580394
000060 c5 6c a9 ba c8 b2 cc ba a7 20 b3 ba bd e1 9a 3b
       -0.0012926093 -0.0015617246 -0.0013666347 0.004726617
000070 93 1a d6 3a fd 7d 28 ba 43 5c ef 3a 8d 48 e0 ba
       0.0016334824 -0.0006427465 0.0018261749 -0.0017111466
000080 60 ed fa ba 1e c3 d6 b9 ab b1 88 ba 10 2b 11 37
       -0.001914423 -0.00040962634 -0.0010428926 8.6527e-06
000090 91 c7 5d ba cc 6a c0 3b 10 33 f3 ba 30 8d 4f ba
       -0.00084602187 0.005872106 -0.0018554647 -0.0007917462
0000a0 7a 4f 44 ba 4f 4a 37 3a 16 ca cb 3a cf 3b 60 3b
       -0.00074886496 0.0006991969 0.0015547897 0.0034215336
0000b0 5c 20 e2 b9 8d c7 6c bb 3d dc 7e 3a 0a c1 8b ba
       -0.0004313019 -0.0036129684 0.0009722149 -0.0010662389
0000c0 49 34 d3 39 72 04 49 3b df 09 05 3a af 15 84 ba
       0.00040284012 0.0030672816 0.0005075018 -0.0010077263
0000d0 ad 90 a0 37 92 b3 5d 3a 17 2b 0b 3b 73 e4 71 3b
       1.9140856e-05 0.0008457239 0.00212354 0.0036909848
0000e0 2a 11 8b 37 cc 7c 4f 3a 43 23 de ba 9a ef 23 3b
       1.6578084e-05 0.00079150195 -0.0016947765 0.002501464
0000f0 ff da fc 39 8a 3e 00 3b c7 33 0a 3b 53 9b a1 39
       0.0004822835 0.0019568526 0.002108799 0.0003082404
000100 d4 6e f1 ba f7 15 e9 b9 79 51 aa ba 5b ce a2 ba
       -0.001841987 -0.00044457588 -0.0012994251 -0.0012421118
000110 50 c3 ea 3a a1 2b 33 39 00 3d 4a b9 66 09 06 3b
       0.0017910991 0.00017087023 -0.00019286945 0.002045238
000120 ab 92 d1 ba da 04 6a 3a 36 87 af 3a 4e f1 4c b9
       -0.0015989145 0.00089271145 0.0013391736 -0.00019544849
000130 b0 df dd 3a 84 8e 94 39 85 06 98 39 22 74 85 3a
       0.0016927626 0.00028334942 0.00028996557 0.0010181705
000140 66 bb 8a ba 0d 39 93 3a 7f 3c fc 39 8c 96 6e 3a
       -0.0010584414 0.0011232212 0.0004811026 0.0009101413
000150 c1 e2 92 bb ba ec 45 3b 49 c1 2c ba db 21 0c 3a
       -0.0044825976 0.0030200914 -0.0006590081 0.0005345621
000160 d9 51 e5 b9 7b 98 1b bb 9f 5d ae 3a 58 57 36 3a
       -0.00043739265 -0.0023742008 0.0013303048 0.0006955764
000170 a7 be fd ba a3 50 09 3b c5 c9 92 3a 07 bb 00 3b
       -0.0019359187 0.0020952604 0.0011199048 0.0019642727
000180 da d7 a8 39 c5 af 01 3b 3d cd cb ba a6 3c eb 3a
       0.0003220428 0.0019788605 -0.0015548837 0.0017947152
000190 b6 78 87 3a 9c c8 93 3a 92 b1 7b ba 79 fe 54 b9
       0.0010335657 0.0011274996 -0.000960135 -0.00020312694
0001a0 8d ee b4 3a 70 13 88 ba 20 45 a5 ba 9a 88 65 38
       0.0013804004 -0.0010381769 -0.0012609102 5.4725075e-05
0001b0 d4 da 4d bb 04 d9 9c 3a 91 26 07 3a 89 b2 b1 ba
       -0.003141095 0.0011966531 0.0005155588 -0.0013557236
0001c0 5c 02 71 ba 88 a4 bf ba 61 ae 3c 3b d3 f8 f2 39
       -0.0009193772 -0.0014621178 0.0028790461 0.00046343225
0001d0 af 6a 03 bb bc 4a cf b9 60 e1 b3 3a a9 70 27 bb
       -0.0020052602 -0.00039537798 0.0013723783 -0.0025549328
0001e0 b9 62 6f 3b 37 c6 b3 3a 0b a1 68 3a fc 91 24 39
       0.003652735 0.0013715689 0.0008874095 0.00015694642
0001f0 9b e0 c3 b9 3a 6a 92 b9 c1 06 1d 3a 15 38 b4 ba
       -0.00037360642 -0.00027926435 0.0005990081 -0.0013749624
000200 ac 8c 53 3a 81 be dc ba 06 3b 34 3a 05 24 e7 3a
       0.0008069973 -0.0016841443 0.000687525 0.0017634636
000210 7e d0 ff 39 00 df 54 3a f9 21 68 ba 55 8c 20 bb
       0.0004879273 0.0008120388 -0.000885516 -0.0024497707
000220 4e e7 ab 39 ca 8e e8 39 d1 fd 23 bb e5 04 76 ba
       0.00032787997 0.00044356874 -0.0025023113 -0.00093848846
000230 78 11 89 39 f5 2d ff ba 9f 30 2b ba 49 ac 33 b7
       0.00026143692 -0.0019468652 -0.00065303774 -1.0709345e-05
000240 b0 1b af ba 98 a2 bd b9 41 38 73 ba 62 30 c7 ba
       -0.0013359692 -0.0003617003 -0.0009278097 -0.0015196914
000250 2f f3 0b 3b a2 fa 83 ba 2b 0b 1a bb 46 00 8d ba
       0.0021354666 -0.0010069201 -0.0023505192 -0.0010757528
000260 ff 31 b1 3a b4 63 3f 39 5d 52 3c 3b da 5f f2 b9
       0.0013518928 0.00018252322 0.0028735616 -0.00046229252
000270 2e ec ac 3a 18 9f 18 ba 8c 27 54 ba 6b dd 76 3a
       0.0013192946 -0.00058220467 -0.0008093051 0.0009417149
000280 09 83 8e 39 f9 dc 1e 3b 1d 80 90 3b 10 aa 2c bb
       0.0002718198 0.0024240597 0.0044098035 -0.0026346482
000290 2a fc 13 bb 49 a7 95 38 13 dc ae ba 37 d4 62 39
       -0.0022580721 7.136033e-05 -0.0013340734 0.00021632096
0002a0 9a e4 78 3a ea b3 44 3a 4c 8c 30 3b f8 2a 55 ba
       0.00094945135 0.0007503616 0.0026939092 -0.0008131708
0002b0 0b bd c6 3a 5c 16 86 3a 56 82 0b 3a a1 4e 83 3b
       0.001516254 0.0010230052 0.0005321851 0.004007176
0002c0 d4 58 77 3a 85 10 5b 39 c0 ba 09 bb fc 48 a9 3a
       0.00094355387 0.00020891622 -0.0021015853 0.0012915428
0002d0 47 3a da 39 cf 1d ef ba 1f 1a c9 3a 1d f0 e2 39
       0.0004162362 -0.0018243137 0.0015342868 0.00043284977
0002e0 9b 14 11 3b dc d4 a4 3a 0a e0 33 b8 d3 b7 8a ba
       0.0022137526 0.0012575644 -4.288558e-05 -0.0010583348
0002f0 8e 6c 07 bb 54 52 5b 38 b9 f0 34 ba af 34 f6 bb
       -0.002066407 5.2290343e-05 -0.00069023255 -0.0075136046
000300 07 7d 5a bb d2 dc 34 ba 05 b9 83 ba b5 67 29 bb
       -0.0033338682 -0.000689936 -0.0010049647 -0.0025849168
000310 fd ed fb 39 8b b0 8f ba f1 cf a0 3a a4 53 da 3a
       0.00048051766 -0.0010962648 0.0012269003 0.0016657007
000320 37 52 0d ba 28 e5 54 ba 60 46 0a bb 82 18 0c bb
       -0.0005390974 -0.0008121305 -0.0021099076 -0.0021376912
000330 4a 69 af 39 a0 1a 03 39 46 11 27 ba 07 73 b2 3a
       0.00033457048 0.00012503052 -0.00063731184 0.0013614603
000340 bd f9 ad 3a 2f 6e 7a ba 6c 1b 03 3a b2 68 32 bb
       0.001327328 -0.0009553162 0.00050013396 -0.0027223048
000350 39 a2 12 b9 4e fc 2a 3b 1c 36 88 ba 37 4f 08 ba
       -0.00013984078 0.0026090327 -0.0010392102 -0.0005199792
000360 a2 e5 95 b9 a7 2e 52 ba 39 ac 60 3a c5 ac 3a 3b
       -0.00028590584 -0.0008017816 0.0008570585 0.0028484326
000370 42 42 af 3a b4 50 3d bb 63 83 71 3a 9d b8 33 bb
       0.0013371187 -0.0028887214 0.00092129986 -0.002742327
000380 d5 ee 80 bb d3 38 2e ba c1 c6 82 ba 7a 59 3f bb
       -0.003934721 -0.0006646041 -0.0009977446 -0.002919762
000390 9c f1 11 b9 3e 03 0f bb eb 44 97 ba fd 47 8f 3b
       -0.00013918284 -0.0021822 -0.0011540925 0.0043725953
0003a0 4c f0 90 ba 5c 61 db ba cd 9a ea ba 58 31 90 3a
       -0.0011057942 -0.0016737389 -0.0017898917 0.0011001034
0003b0 99 9b e8 b9 ab b1 b5 39 79 c4 24 b9 81 e4 53 ba
       -0.00044366418 0.00034655383 -0.0001571345 -0.0008083061
0003c0 91 5b 2d ba 77 ac 68 3a 0a 59 73 ba 21 f8 11 ba
       -0.0006613071 0.0008875797 -0.0009282982 -0.0005568285
0003d0 7e 79 b0 39 42 a0 f6 3a d1 31 f0 39 a7 12 05 bb
       0.00033659855 0.0018816071 0.00045813483 -0.0020305307
0003e0 5c e3 44 3a 5d 06 33 3a c2 e2 69 bb bf 7f 15 ba
       0.0007510686 0.00068292563 -0.0035688137 -0.00057029346
0003f0 bb 35 1c bb fa bd 3a ba 9d fc fe b9 bf 42 29 3b
       -0.0023835737 -0.00071236456 -0.00048634867 0.0025827137
