data/DNN/Inlusive_amcatnlo_xyComponent_JetLepXY_50EP__diff_xy_2017_20220621-1425genMETweighted.onnx (onnx, 578076 bytes, 16 tensors)

StatefulPartitionedCall/sequential/dense_3/MatMul/ReadVariableOp:0 f4 [256, 2]
000000 e0 3e 94 3c f0 7f 54 3e 3a e1 d4 3c 1c c7 8e be
       0.018096387 0.2075193 0.025986303 -0.27886283
000010 81 7e 52 be c5 7f b3 3c b9 3d 48 be 90 c7 4f 3e
       -0.2055607 0.021911511 -0.19554795 0.20290971
000020 76 d2 7c 3d 05 fd 91 3e 30 14 6a 3e 69 30 a6 bd
       0.06172415 0.2851335 0.22859263 -0.08114702
000030 f3 9f 84 be b0 f7 c1 3d cb 4c 35 be e2 ec 4d bd
       -0.25903282 0.09471071 -0.17705075 -0.050274737
000040 5f 3b 89 3d 55 ed 2b be 5f 36 37 3e 18 0c 77 be
       0.06700777 -0.16789754 0.17891835 -0.24125707
000050 f4 31 9b bd ed e0 2a be 42 f4 1e 3e 0d 74 19 be
       -0.07577887 -0.16687365 0.15522864 -0.14985676
000060 08 a6 80 3d a8 b0 73 bd cb 3e b5 3d 75 17 83 be
       0.06281668 -0.059494644 0.088498674 -0.25603834
000070 fb 4f 6e be 9e d4 19 3d 45 cc c1 bd 9b 15 71 3e
       -0.23272698 0.037556283 -0.094627894 0.23543398
000080 1f 1c 73 3e 7a 39 82 3d 9e c7 68 3e 54 97 23 3e
       0.23741196 0.06358619 0.22732398 0.15975696
000090 bd 34 33 be 7e 40 ce bc 46 d4 07 bd 96 7b b7 bc
       -0.17500587 -0.025177237 -0.033161424 -0.022397798
0000a0 11 b3 63 3e 0a f4 72 be 5f ec 2e 3c 04 88 84 3d
       0.22236277 -0.23725906 0.010676472 0.064712554
0000b0 33 4c 04 be 1e d3 4e 3e b3 b7 45 be 5e cd 8f 3e
       -0.12919693 0.20197722 -0.19308357 0.2808637
0000c0 ce 9d 39 3e 28 14 4b 3e 6f db 89 3e 20 9c bc 3d
       0.18126604 0.19831908 0.26925227 0.09209466
0000d0 c1 49 95 3d 83 b4 db 3d 05 48 83 3d 16 ab 39 3e
       0.07289458 0.10727789 0.06410221 0.1813167
0000e0 10 4b db 3b 68 bb bd 3b 33 7b 9d bd ce 57 77 3e
       0.0066922978 0.005790163 -0.07689514 0.24154589
0000f0 1f 22 a8 be ce a7 9a bc da da 9e be 86 07 37 bd
       -0.32838532 -0.018878844 -0.31026345 -0.04468491
000100 56 fd 22 3e 86 f8 ea bd 18 2e 3c 3a 13 54 7a 3b
       0.15916952 -0.11473183 0.00071784994 0.0038197085
000110 8f 14 3b 3e a2 3e 50 3e 4e 73 90 bd 89 e3 44 3e
       0.18269561 0.20336393 -0.070532426 0.19227423
000120 32 1d 1c 3e 1c 0c e7 3b 45 5e 0f 3e 66 ce 02 3c
       0.15245512 0.007051004 0.14000805 0.00798378
000130 76 f7 4e be f0 04 7d 3d 26 7d 26 3e b1 fb 2c 3e
       -0.20211586 0.061772287 0.16258678 0.16892888
000140 14 70 9d 3e 28 24 71 bc 2a 68 8c be 18 8e 66 3d
       0.3074957 -0.014718093 -0.2742322 0.056287855
000150 82 fa 9d bb 6a 5c 81 3c 88 79 15 3b ab 50 1b 3e
       -0.0048211226 0.015791137 0.0022808034 0.15167491
000160 2a 6f ed 3d 21 3b 09 3d 1b 8f 0b be 95 44 15 3e
       0.115934685 0.033503655 -0.13628809 0.14576943
000170 fd 25 e6 bd da d6 b1 3d ca 61 66 be b3 da bc bd
       -0.112377144 0.08683558 -0.22498241 -0.09221401
000180 f0 b9 3a 3e 9e 6d 83 3d 8f c7 6e be 4a bc 41 3e
       0.18234992 0.06417392 -0.23318313 0.18919483
000190 60 be bf bd 39 09 33 be 4b 3e 85 be ed 2a 5a 3d
       -0.09362483 -0.17483987 -0.26024088 0.053263593
0001a0 56 1e b4 bd 04 3e 3c be 30 f0 b4 ba 25 d2 12 be
       -0.087948486 -0.18383032 -0.0013804492 -0.14337976
0001b0 89 a9 67 be 90 41 c1 3d d1 30 b4 bc f9 ba 98 be
       -0.22623266 0.09436333 -0.021995934 -0.2983015
0001c0 fa 03 4f bb 04 a5 41 be f7 a9 fa bd b7 f6 69 3e
       -0.0031588064 -0.18910605 -0.122394495 0.2284802
0001d0 5a 80 82 be 05 f7 68 3e 58 ca 2c be 18 51 01 3e
       -0.2548855 0.2275048 -0.16874063 0.12628591
0001e0 32 40 6e be 1a 22 14 3d e0 18 3b 3e e6 f5 26 be
       -0.23266676 0.036165334 0.18271208 -0.1630474
0001f0 e5 98 33 3e b5 45 e3 3c 80 46 98 3d f6 98 70 be
       0.17538793 0.0277432 0.07435322 -0.2349585
000200 4f bc c0 bd 07 0a 3e be 76 96 53 bd 1f d8 74 3e
       -0.09410917 -0.18558513 -0.051657163 0.23910569
000210 f5 41 b3 bd f2 49 92 be 4c e7 a4 3d 1a 32 25 3e
       -0.08752815 -0.2857204 0.08051929 0.16132393
000220 30 d7 77 3e 62 e8 ce 3d 50 36 b7 bd 0d e9 14 3e
       0.24203181 0.10102917 -0.08945906 0.14542027
000230 05 4f 08 be 67 d6 cd 3a 7f 81 70 bd 03 78 59 be
       -0.13311394 0.0015704156 -0.058717247 -0.21237187
000240 24 a0 c5 bd d8 d8 88 3e 0b 0c dd 3c ce b6 79 3e
       -0.09649685 0.2672794 0.026983282 0.2438614
000250 e0 0f 03 3d 8b 06 7c be 54 85 38 be a4 f8 c4 bd
       0.03199756 -0.24611871 -0.1801961 -0.09617737
000260 9a 1e 5a bc 95 fc 94 3e 26 0d d1 3d 6a 88 e8 3d
       -0.01331296 0.29098955 0.10207586 0.11354144
000270 9a 1a 12 be ef 8b cd bd a5 ef a9 3d 3e fb 8b 3e
       -0.1426796 -0.10036456 0.08297662 0.2734012
000280 d6 19 e3 3d 62 f9 93 be 5f 33 d7 bd 13 e2 0d be
       0.11088912 -0.289012 -0.10507845 -0.13855772
000290 c4 9f b4 3c 54 a7 8a be 83 98 5a be 76 8f 25 be
       0.022048838 -0.27080786 -0.21347241 -0.16168007
0002a0 b9 76 82 be 8c 92 3e be 58 b9 1f 3e 85 df 14 3e
       -0.25481203 -0.1861059 0.15598047 0.14538391
0002b0 94 a4 d0 3d 6a 7a 61 3e 9e 2b 5c be 72 54 68 3d
       0.10187641 0.22019354 -0.21501014 0.05672116
0002c0 e4 8f 22 3e 2c f0 0e 3e 03 9d 94 bd da 21 93 be
       0.15875202 0.13958806 -0.0725651 -0.28736764
0002d0 5f 1d a9 3d 48 52 0f be c4 ca 18 be 6c 0f 74 be
       0.08257555 -0.13996232 -0.14921099 -0.23834008
0002e0 d7 6b 1f be 16 09 99 3d 0b 0b 85 3e 70 70 d2 3d
       -0.15568481 0.07472436 0.25984988 0.10275352
0002f0 18 9b 49 be a4 21 43 3d bc d7 7f be d5 b3 ab 3c
       -0.1968807 0.047639504 -0.2498464 0.020959774
000300 7a a1 47 3d 44 ca 82 3e 7f 02 5e be d1 2b 04 be
       0.04873798 0.2554494 -0.2168064 -0.1290734
000310 7a e7 3f 3e 6f 4a 7c be 51 fd d1 3d 49 7b 45 3e
       0.18740645 -0.24637769 0.102533944 0.19285311
000320 55 e2 83 bd 8f ef 5a 3e 80 65 eb bd b7 b6 68 bd
       -0.06439654 0.21380447 -0.11493969 -0.056814875
000330 49 ae 1c 3e 08 7c 65 3d b8 c1 d7 bd 55 5e 40 3e
       0.1530086 0.05602649 -0.10534996 0.18785985
000340 1c 9a 06 3e 5f ed 8d be 6c ca ba bd 54 4e a8 be
       0.13144726 -0.27720162 -0.0912064 -0.3287226
000350 5f 7f 58 bb f4 a0 87 be 6b 58 ec 3d 08 e8 99 be
       -0.0033034903 -0.26489985 0.11540302 -0.30059838
000360 aa 6a 95 3e 9b 5a d0 bc 4a 7e dc bb 4a ea 7b be
       0.2918294 -0.025433829 -0.006728922 -0.24601093
000370 a9 8b fb bd d5 8e 11 3e e5 3b 8c 3e cf 2c 2d be
       -0.122824974 0.14214642 0.27389446 -0.16911624
000380 d7 88 ed bd de 25 91 be a5 2e 3d 3e 90 35 e1 3d
       -0.11598366 -0.28349203 0.18474825 0.10996544
000390 1f 6f 2d 3e 66 80 ff bc d5 89 2b 3e 2d 52 b2 bd
       0.1693692 -0.031189155 0.16751797 -0.0870708
0003a0 e7 ca f7 bc 78 72 4d be c5 f2 52 3e 9f 8c fd bd
       -0.030248119 -0.20063198 0.20600422 -0.12380337
0003b0 09 1a 79 3e 11 21 0f be b6 e8 59 be 08 17 0b 3e
       0.24326338 -0.13977458 -0.21280178 0.13583004
0003c0 0c 34 18 be 5a 0d 13 be af 80 e6 bd c3 2b 0e be
       -0.14863604 -0.14360562 -0.11255013 -0.13883881
0003d0 b1 17 d8 bd 7c d2 63 bd 67 63 e2 3d f1 97 7d be
       -0.10551394 -0.055620655 0.11054116 -0.24764992
0003e0 73 e9 18 3e 38 b3 17 be 2e 91 97 3e a1 0a c2 bd
       0.14932804 -0.1481446 0.2960295 -0.094746836
0003f0 ec bc ef 3d b6 fb 64 3e 9b 45 5f 3e ce dc 12 bd
       0.11705956 0.22361645 0.21803896 -0.035855107

StatefulPartitionedCall/sequential/dense_3/BiasAdd/ReadVariableOp:0 f4 [2]
000000 a2 13 d0 bd 0e f6 89 3d
       -0.10159995 0.06736384

StatefulPartitionedCall/sequential/dense_2/MatMul/ReadVariableOp:0 f4 [512, 256]
000000 a2 3c 1d bc 73 c6 af 3a 63 1f d6 3c f0 23 1e 3d
       -0.0095969755 0.0013410583 0.026138013 0.03860849
000010 5e e5 85 bc 27 3a b9 bb da 0e 1b 3d b1 0c 9f 3c
       -0.016344722 -0.0056526843 0.03785596 0.019415231
000020 38 46 ec bb b3 a2 0f bb 58 ca 05 3c 36 87 f0 bb
       -0.007210519 -0.0021917045 0.008165918 -0.007340337
000030 c0 a5 81 3b 8a 41 9f 3b 22 a0 41 3d f0 c7 59 3c
       0.0039565265 0.004860108 0.047271855 0.013292298
000040 02 31 d1 bc ca 42 b2 bc 70 f0 92 3c 7b 8f 0b 3c
       -0.025536064 -0.021760363 0.017936915 0.008518095
000050 0d 06 74 bc 1a 43 57 bb 6c cf cc 3c 0c ef c1 3c
       -0.014894021 -0.0032846392 0.02500125 0.023673557
000060 e0 58 2c bc 74 5e b3 bc bb 66 0f bc 7d 97 0f bc
       -0.010519236 -0.021895625 -0.00875252 -0.008764145
000070 13 56 99 ba 0f 50 84 3c 9e 94 03 3d e7 6e 0d 3d
       -0.0011698626 0.016151456 0.032124154 0.034529593
000080 72 52 da bb 26 bf d2 b9 06 47 e7 bc 1c dd 9f 3b
       -0.0066626603 -0.00040196738 -0.028232109 0.004878653
000090 f7 06 92 bc ee d7 6e bc 7d 57 06 3d 8d 41 0c bc
       -0.017825587 -0.014577849 0.03279828 -0.00856055
0000a0 ac 29 d6 bc 34 05 ee 3c 09 ea 89 3b 9b ce 03 bc
       -0.026142918 0.029055215 0.0042088074 -0.008044864
0000b0 20 91 d7 bb 07 5c 7c 3c d6 3c 84 3c d9 8d 68 3c
       -0.0065785795 0.0154028 0.01614229 0.014193975
0000c0 b7 d3 c0 bc 52 6c f9 3c 84 67 08 3c f5 6d 32 3d
       -0.023538454 0.030447159 0.008325461 0.043561894
0000d0 6a 32 d5 3b c4 05 5d bb 3f 12 0d 3d 0c bb 51 bb
       0.006506254 -0.003372536 0.03444123 -0.0032002358
0000e0 20 4c 31 3c f2 f4 83 3c 14 a1 2b 3d 29 a6 f4 3c
       0.010821372 0.01610801 0.041901663 0.029864388
0000f0 71 ca 24 3d 28 39 cb bb 56 a5 19 bc b6 bc 2e bb
       0.040232126 -0.006201882 -0.009377798 -0.0026662773
000100 a4 b0 97 bb a5 c2 c0 bb 77 69 94 3c 39 4d d9 bb
       -0.0046292115 -0.0058825784 0.018116696 -0.00663152
000110 bf e0 86 bc d1 d5 81 3c 65 16 b2 3c e8 8f dc 3b
       -0.01646459 0.015849026 0.021739194 0.006731022
000120 e5 e0 9e 3c 44 31 59 3b 4a ac 4a 3c 9a 52 e7 3c
       0.019394347 0.0033140937 0.0123701785 0.02823763
000130 00 40 b5 3b 33 46 55 bc ae ad 80 3c d0 08 ec bb
       0.005531311 -0.013017225 0.015707817 -0.007203199
000140 4e d8 45 3c c9 06 40 3b 59 de 34 3c b7 d6 14 3c
       0.012075497 0.002930092 0.01103934 0.009084395
000150 c1 6c cf 3c f1 ca 96 bc 16 81 10 bc ad 2b b7 3c
       0.025320413 -0.018407317 -0.008819839 0.022359693
000160 9a aa 64 bc 8f 17 58 3c e3 c0 b9 ba 85 a2 34 3b
       -0.01395669 0.013189211 -0.0014171865 0.002756269
000170 c3 ad aa 3c 9f 2e d6 bc de ff ad 3c 98 dd 6d 3c
       0.02083481 -0.026145278 0.021240171 0.014518164
000180 e2 1e 4c bc 6e 2b fe 3c 1b bd 1a 3c e3 d6 9e ba
       -0.012458535 0.031026568 0.0094445 -0.0012118485
000190 8e 66 97 3c 5c c6 b9 3c bf 6e 84 bc bd f1 e9 b9
       0.01848152 0.022677593 -0.01616609 -0.00044621332
0001a0 13 49 0c 3b bf ca d2 3b 28 2b 11 3b 1e 6d 40 bc
       0.002140586 0.0064328606 0.0022150967 -0.011744766
0001b0 5a 17 f9 bc db 1a 26 bc a0 da e8 3c 27 8f a3 bc
       -0.030406643 -0.010138239 0.028424561 -0.019965721
0001c0 c1 3b 07 3c 8b cc 8f bc 59 5c b3 bc 6d c7 98 bb
       0.008253993 -0.017553588 -0.02189462 -0.0046624453
0001d0 4d fb 2e 3c 69 6a 88 bc 1f 5f 94 bc bd 99 f3 3c
       0.010680032 -0.016652303 -0.018111764 0.029736394
0001e0 b5 3b 42 3c 0e 1a 3b 3c b1 25 ab 3c 1c ac 17 3c
       0.011855056 0.011419786 0.020891996 0.009257343
0001f0 b6 8b 6d 3b be 3c b8 bc a7 ab 18 bc a5 35 74 bc
       0.0036246604 -0.022489902 -0.009318269 -0.014905368
000200 c3 9c 9e bc fd 65 43 3c 7d 81 a1 ba 78 11 1b 3d
       -0.01936186 0.011926171 -0.0012321916 0.037858456
000210 b0 98 cc 3c 53 ea 0b 3d dd bc 33 bb a5 b0 80 bb
       0.02497515 0.034159016 -0.0027425804 -0.0039273077
000220 0f 15 6e 3b 8f e9 47 3c 71 cc 15 bc d5 6e 80 3c
       0.003632847 0.012201681 -0.009142981 0.015677849
000230 14 82 3a bc c7 cf 7f 3c 0e 3a d9 3c 14 76 83 3c
       -0.011383552 0.015613503 0.02651694 0.016047515
000240 fc 7a 9c bb 54 b9 6d 3c c0 63 28 3c 32 6d cb bb
       -0.004775403 0.014509518 0.0102776885 -0.0062080855
000250 7d 03 df ba 21 49 37 3b d5 21 b5 bc 22 bc 0c 3d
       -0.0017014589 0.0027967172 -0.022110859 0.034359105
000260 82 f5 74 bc 95 16 2c bc cf 66 01 3c 24 fc 7f ba
       -0.014951112 -0.010503431 0.007898047 -0.000976505
000270 1b 93 d1 bb 93 9e c2 3c 0e 0d 8a ba a0 49 5b 3c
       -0.00639571 0.023757255 -0.0010532455 0.013384253
000280 4d 57 51 bc b2 95 ef 3c 2d 80 0c 3d a1 e2 59 3c
       -0.012777162 0.029246185 0.034301925 0.013298661
000290 d2 cf 04 3d 40 8d 0d 3d 9d fe f0 3a 46 56 85 bc
       0.032424755 0.034558535 0.0018386428 -0.01627649
0002a0 78 f1 14 bc 43 28 97 3c 5f 99 01 3c f4 45 c8 3c
       -0.009090774 0.018451815 0.007910102 0.024447419
0002b0 9d fc bb bc ac c6 aa bb b7 d7 19 3d 09 4b cb 3c
       -0.022947604 -0.005211672 0.037559237 0.024816053
0002c0 da 5d c1 bb 10 d0 c1 3c ac a6 d3 3c 44 20 28 ba
       -0.0059010806 0.023658782 0.025836311 -0.00064134994
0002d0 7a e3 d3 3c 45 83 35 bc 2b 29 7c bc 33 86 d7 bb
       0.025865305 -0.01107866 -0.015390675 -0.006577277
0002e0 4f 90 00 bc 79 12 0f bc 20 37 37 3b ec 16 4e 3c
       -0.007846906 -0.008732432 0.002795644 0.012578707
0002f0 c4 54 d0 bb c9 99 df bc 8f d4 fe bb b4 f5 22 bc
       -0.006357761 -0.02729501 -0.007776804 -0.0099462755
000300 3b 91 22 3c 98 c8 1c 3d f6 28 ad 3c 73 5d bc bc
       0.009922321 0.03827724 0.021137696 -0.022993779
000310 47 37 de bb 2c 78 a1 b9 34 aa 18 3c db 84 09 bd
       -0.006781492 -0.00030797848 0.009317923 -0.033573966
000320 1b da 8e bc 89 56 d1 3c a6 b6 92 3c 9b 32 b9 3c
       -0.017437985 0.025553958 0.01790936 0.022607138
000330 28 f5 46 3b 8b 31 69 3c 94 84 44 3c 8c 97 8e 3c
       0.0030358527 0.014233003 0.0119945 0.017406248
000340 15 1d 11 3d d9 0c b6 3c 88 85 9c 3c 76 da 83 3c
       0.035428125 0.022222923 0.019106641 0.016095381
000350 65 27 32 3c 34 a9 33 bc 9e dc 9d bc 2c 3a af bc
       0.01087365 -0.010965634 -0.019270238 -0.021390043
000360 89 20 ca bc e6 a4 ea ba b5 65 24 bb 6b 58 1c 3d
       -0.024673717 -0.0017901927 -0.0025085036 0.03817026
000370 c0 e1 1f b9 27 11 23 3c a9 c7 d2 3c 8a 2a bb 3c
       -0.0001524752 0.00995282 0.025729971 0.022847433
000380 7e 54 2c 3c 20 f5 5a bc b3 9f c8 3c 86 23 f3 3c
       0.010518191 -0.013364106 0.024490213 0.029680025
000390 4d ee b1 bb 5e d9 08 3c 47 d6 24 3c c6 38 10 3b
       -0.005430019 0.008352606 0.010060853 0.0022006496
0003a0 f5 9e ce 3c 68 35 83 3c dd e8 70 3c 30 68 00 3d
       0.025222281 0.016016677 0.014703956 0.03134936
0003b0 eb 0b 7e bc 0a 97 56 3c b0 af f6 3b 04 6e ff bc
       -0.015505771 0.013097534 0.007528268 -0.03118039
0003c0 cb 98 20 3a 10 7f cc bc 01 32 74 bb 9f a6 00 3d
       0.00061262836 -0.024962932 -0.003726125 0.031408902
0003d0 ab e2 41 3a 16 3c 5e 3c 35 b1 7e 3c f4 d8 85 3c
       0.0007396142 0.01356413 0.015545179 0.016338803
0003e0 7d f9 e4 3c 3b 2e 00 3d 12 01 dd 3b d1 05 92 bc
       0.027950997 0.03129409 0.0067445124 -0.01782504
0003f0 6a 16 2d bb 47 75 d0 bc b6 c5 2d bc f4 ec b5 3c
       -0.0026411065 -0.025446547 -0.01060622 0.022207715

StatefulPartitionedCall/sequential/dense_2/BiasAdd/ReadVariableOp:0 f4 [256]
000000 58 7f d9 3b 28 07 95 ba 08 76 76 bb e9 05 1a 3b
       0.006637495 -0.001136993 -0.0037606973 0.0023502058
000010 8e 84 bb b8 a5 44 98 bb 7d ef 93 bb f3 bd 80 3a
       -8.941545e-05 -0.004646855 -0.004514633 0.0009822234
000020 1e 86 aa 3b 6e 70 92 ba 14 80 38 bb 6d a9 1a bb
       0.0052039763 -0.0011172423 -0.0028152512 -0.002359952
000030 d0 7e e1 3a d0 e1 51 b9 cc 29 be 39 1a c0 6d 3b
       0.0017203931 -0.00020015915 0.00036270765 0.0036277832
000040 1a 59 3e bb 48 7c f7 39 61 62 d9 bb 4a 53 dc 3a
       -0.0029044808 0.00047204108 -0.006634042 0.001680949
000050 98 b6 41 bb 52 81 f4 ba 3a 81 9a bb 12 e1 6e 3b
       -0.0029558297 -0.0018654263 -0.004715112 0.003645007
000060 92 77 72 3b 24 e2 22 3b 70 1b 99 3a ed dd 88 bb
       0.003699754 0.0024854029 0.0011681151 -0.0041768462
000070 05 36 7f ba e7 98 21 3a 80 4b 06 3a 80 97 d3 3a
       -0.00097355276 0.0006164447 0.0005122945 0.0016143173
000080 14 fa 83 3b 02 b7 65 3b c5 40 34 bb bd 48 86 3b
       0.0040276144 0.0035051708 -0.0027504426 0.0040980265
000090 b0 96 3d b7 33 b4 88 b9 3d 16 90 bb 80 ab 8d 3a
       -1.13003625e-05 -0.000260742 -0.0043971823 0.0010808557
0000a0 99 df e4 bb 18 87 31 3b a7 2c 2e b9 02 78 da 3a
       -0.0069846627 0.0027088579 -0.00016610567 0.0016667845
0000b0 37 3d 64 3b 2a d4 b9 3b a2 7a 08 3b 75 47 2a 3b
       0.0034826526 0.005671044 0.0020825048 0.0025982533
0000c0 ec df 2f b9 be 83 f5 bb a9 db 60 ba 90 03 c8 39
       -0.00016772718 -0.0074925115 -0.0008577654 0.00038149627
0000d0 d9 7d 1e ba db 1e b3 b9 a8 03 b8 3b 3b fd 68 ba
       -0.00060459744 -0.0003416453 0.0056156702 -0.0008887832
0000e0 f8 e1 c3 3a 14 7b ab ba 19 bc aa bb 36 c2 21 3b
       0.0014944663 -0.0013082945 -0.0052104113 0.002468241
0000f0 75 85 3a ba 80 fa 79 b4 5d bd 16 3a 87 5d 9b 3a
       -0.00071152236 -2.3281063e-07 0.0005750263 0.0011853435
000100 49 0c ca ba 79 d4 8a bb 97 ac 84 bb d8 0b 05 bb
       -0.0015415038 -0.0042367545 -0.0040488946 -0.002030125
000110 4e 88 68 bb c6 f9 0e 39 bb 16 7f b9 47 20 af b9
       -0.0035481635 0.00013635223 -0.00024327163 -0.0003340265
000120 bc 40 0a bb cf 66 21 3b cd 50 cc 3b 9c 9b e2 b8
       -0.0021095714 0.002462793 0.006235218 -0.00010805504
000130 e6 59 83 3a 09 b6 25 ba a5 82 b1 bb d2 2c 70 bb
       0.0010021299 -0.0006321376 -0.0054171854 -0.0036647809
000140 cf 71 01 ba 2b 1e 1b bb 1f 58 60 3a 8e c5 ea ba
       -0.0004937918 -0.0023669105 0.0008558053 -0.0017911659
000150 35 ab c5 ba df 8f 0b 39 b6 67 c8 3b 4a b3 09 3c
       -0.0015080931 0.00013309669 0.006115879 0.008404562
000160 e8 a1 97 ba 32 0c be 3b c5 ad 59 bb 37 8f 3b bb
       -0.0011568638 0.0057997936 -0.0033215147 -0.0028619298
000170 79 e2 97 39 76 fa f7 3a 62 2e aa 39 1d b4 68 3b
       0.000289697 0.0018919248 0.00032459485 0.0035507747
000180 ab b3 74 3a 9f 8e 50 bb 78 5d 2d 3a ec 40 7d ba
       0.0009334634 -0.003182329 0.0006613354 -0.0009660858
000190 06 13 8b bb ce ff f5 3a 0f 61 00 3a 75 bf 97 ba
       -0.004244211 0.0018768252 0.00048972754 -0.0011577444
0001a0 ff 58 8a 3a 58 c9 83 ba f0 0f 8c 39 ce 78 51 3a
       0.0010555087 -0.0010054512 0.00026714755 0.00079907186
0001b0 fd ea af 3b 26 0d 22 ba 6b 0c 17 3b d9 28 ea b9
       0.005368589 -0.0006181769 0.0023048173 -0.00044662392
0001c0 dd 3f 8a 3b a3 e1 29 b9 2d 99 1d ba 05 cd 6a 3a
       0.004219039 -0.00016201152 -0.00060118997 0.0008956942
0001d0 c3 9b bb 39 75 b2 10 3a b5 a6 7a bb 8a ae 37 39
       0.0003578347 0.0005519756 -0.0038246338 0.00017517261
0001e0 94 3f 5d 3a 69 63 4a 3b 34 e8 f7 b8 f4 a7 0b 3a
       0.0008439955 0.0030882007 -0.00011821129 0.0005327456
0001f0 f7 b4 cd b8 ac ef 82 ba 19 a9 be bb ae c8 40 bb
       -9.808869e-05 -0.0009989641 -0.005818498 -0.002941649
000200 cd 88 23 ba bc 87 0a 3b 17 11 c3 39 ef d1 75 3b
       -0.00062383414 0.0021138033 0.0003720603 0.0037509163
000210 87 d9 aa 3b 56 59 b9 ba 6f 64 da ba c3 0f f6 3a
       0.0052139196 -0.0014141004 -0.0016662012 0.0018773008
000220 7f 00 88 ba 0a 7b 08 ba ea 97 2f ba 86 d2 4d 3b
       -0.0010376124 -0.00052063225 -0.0006698357 0.0031406
000230 0f 7e 25 3a 63 9c 7d 3a a3 46 d9 3a 3f bf 44 bb
       0.00063130347 0.00096744875 0.0016576838 -0.0030021218
000240 e2 64 56 3b 86 ec 29 3a b0 67 07 3a be 52 7a bb
       0.003271394 0.0006482083 0.0005165292 -0.003819629
000250 fb 4f 2a bb eb 19 4a 3a cf 42 d8 3a 8f e5 c7 3a
       -0.0025987613 0.00077095506 0.0016499403 0.0015250909
000260 60 a5 b5 3b 06 54 27 3a 80 b8 c7 3b 0a 03 05 ba
       0.005543396 0.0006383065 0.006094992 -0.0005074
000270 b8 d8 61 ba cc f9 83 3a ab bf 02 3b 92 3b 53 bb
       -0.00086153625 0.0010068952 0.0019950669 -0.0032231552
000280 7d 3d 84 bb 1a 31 1f 3b dc 17 83 bb 8d e7 82 bb
       -0.0040356503 0.0024290741 -0.004000647 -0.003994888
000290 2f 60 44 3b d2 a5 19 bb c1 1f 97 3b d8 64 8f 3a
       0.0029964556 -0.0023444784 0.0046119397 0.0010940088
0002a0 a0 03 6d bb 5a 3e a9 3b 46 ec e6 b8 d0 a2 a1 3b
       -0.003616549 0.0051649036 -0.00011011264 0.004932739
0002b0 7e 10 44 3c ea 61 03 3b 2b 73 1b ba ee 2e 06 3c
       0.011966823 0.0020047375 -0.0005929942 0.0081899
0002c0 69 2e c0 bb 28 04 2e bb d8 7c 05 bb 3a 9f 94 ba
       -0.0058649075 -0.002655277 -0.0020368602 -0.0011338957
0002d0 61 c7 a4 bb 7f 60 2d 3b f9 e0 36 3b 2d 4b 89 3a
       -0.0050286506 0.0026455221 0.002790509 0.0010474675
0002e0 56 a4 b6 bb 38 ea 31 bb f8 16 85 ba 57 fb 06 ba
       -0.0055737896 -0.0027147662 -0.001015394 -0.0005149147
0002f0 ac cf 93 3a 86 7a bb 38 01 9c d8 3a 52 1b 4d 3a
       0.0011277101 8.9396766e-05 0.0016525985 0.00078242004
000300 59 4d 98 3a 1f 0f 15 3b cb 3c 3d 39 b4 b7 08 bb
       0.0011619731 0.0022744609 0.00018047092 -0.0020861449
000310 b2 ef 54 3b 41 76 6f 3a d0 4f 59 bb bf cb 0b 3c
       0.0032491502 0.00091347477 -0.0033159144 0.008532464
000320 b6 e7 32 3b 3f 34 37 3b 78 e7 0f ba 33 36 ce 3a
       0.0027298755 0.0027954725 -0.00054895086 0.0015732705
000330 ee 81 12 bb d1 81 c4 ba 79 96 14 bb 6c 13 31 3b
       -0.0022355276 -0.0014992302 -0.0022672697 0.0027019633
000340 3e 72 31 ba 52 d3 8d bb 2f 89 41 b9 dc 4b b0 ba
       -0.00067690376 -0.00432817 -0.00018457019 -0.0013450342
000350 c2 a1 94 bb 13 2d 98 ba 2c 78 b1 3b aa b4 df ba
       -0.0045358846 -0.0011610113 0.005415937 -0.0017067392
000360 21 a7 c6 bb 31 56 34 ba 19 89 42 3b c5 16 88 ba
       -0.006062404 -0.00068792986 0.0029683767 -0.0010382762
000370 23 b7 01 ba e6 93 b2 b9 a6 d3 8b 3b 24 b5 04 3a
       -0.0004948249 -0.00034061 0.004267174 0.00050623924
000380 4d a5 2f 39 61 ae f0 ba 32 39 a0 ba 0d 21 48 bc
       0.0001675088 -0.0018362516 -0.0012224077 -0.012214911
000390 5d b6 3a 3a f2 66 c4 37 97 86 5b ba 83 ba 01 ba
       0.0007122511 2.3412958e-05 -0.00083742425 -0.0004948752
0003a0 2f 84 1d 3b 80 2e 82 3b b1 5c 22 3b 85 73 eb 3b
       0.0024035086 0.0039728284 0.0024774487 0.007185402
0003b0 2f e8 49 bb 00 37 90 bb 04 48 93 bb 7f 60 55 3b
       -0.0030808558 -0.0044010878 -0.004494669 0.0032558737
0003c0 18 34 45 bb 9b f8 10 bb ca d6 98 ba 23 db 50 3a
       -0.0030090865 -0.0022120837 -0.0011660692 0.0007967224
0003d0 23 7f b5 bb bd f6 84 3b 66 b7 e3 3a b7 4a db 3a
       -0.0055388375 0.004057734 0.0017373383 0.0016730641
0003e0 4e 42 11 3b 23 1a a3 3b b4 5b 21 3b 4b d9 cc 3b
       0.0022164765 0.004977481 0.002462131 0.0062514893
0003f0 3c b8 c5 bb 26 72 30 b9 17 2f 1f 3b 3e 22 ab ba
       -0.0060339253 -0.00016827192 0.0024289542 -0.001305647

StatefulPartitionedCall/sequential/dense_1/MatMul/ReadVariableOp:0 f4 [17, 512]
000000 cf 32 7d 3b c9 8c c3 bc 38 09 80 bb 4c b8 af 3d
       0.003863502 -0.023870843 -0.003907349 0.08580074
000010 19 87 ce 3c 8a f2 00 bd 6e bc 86 bc 1e 56 2b bb
       0.025210904 -0.031481303 -0.016447272 -0.002614386
000020 c5 3b af 3d 66 95 7b 3b c5 57 fc bc ae 40 64 bd
       0.08556322 0.003838861 -0.03080357 -0.055725746
000030 83 ea b5 3b db e1 9c 3c 89 72 bf bc 3a a7 81 bc
       0.0055516376 0.019150665 -0.023370044 -0.01582681
000040 54 c7 18 3d 7e 2c 84 3c 4e 71 84 3b 45 00 58 3d
       0.03729947 0.016134497 0.0040418273 0.052734632
000050 66 36 45 3d 75 e6 a4 3c 53 5e 3c bc f9 a2 b2 bb
       0.04814758 0.020129422 -0.011497098 -0.0054515568
000060 1b df a1 3d d8 ab f2 bb 45 5f 0c bc 73 f1 bb 3c
       0.07903882 -0.0074057393 -0.008567636 0.02294228
000070 45 5d 0a 3d 57 50 b4 bc 6b f9 1f 3d 96 be d7 bb
       0.033780355 -0.022010965 0.039056223 -0.006583999
000080 21 56 02 3d c8 b4 c3 3c 72 c6 c0 bc f3 e5 f2 3c
       0.03182042 0.023889914 -0.023532126 0.029650664
000090 15 a0 7a bc 52 e0 1c 3c af 4e 16 3c 0f df 71 bd
       -0.015296956 0.0095749665 0.009174033 -0.059050616
0000a0 e1 c2 61 3d 4a b6 04 bd 63 6e 92 bc f9 7d e4 bc
       0.05511749 -0.032400407 -0.017874902 -0.0278921
0000b0 45 48 ed 3c 10 ea 36 3c 63 e0 64 bc a0 a3 86 bd
       0.028965125 0.011164203 -0.013969514 -0.06574178
0000c0 bb 7e 10 3d 89 72 cd 3b 3b 78 a5 3d c5 79 23 bc
       0.03527711 0.006269757 0.08079573 -0.009977763
0000d0 bd b0 fc 3c 1f ba d4 bb 2c 1a 51 3d be 3c 75 bc
       0.030845994 -0.006491914 0.05105035 -0.014968095
0000e0 c2 92 1d bd ab bf 63 bd b9 6f d0 3b f0 3c 5d bd
       -0.038470037 -0.05560271 0.0063609746 -0.054013193
0000f0 6f c5 69 bc c6 1e 73 3a 4a 07 e0 bc 0e 03 97 bc
       -0.014268263 0.00092743 -0.027347226 -0.018434074
000100 1e ce 09 bb 1a 4e 84 3d 75 d2 19 ba 05 fd c3 bc
       -0.0021027396 0.06460209 -0.00058678474 -0.02392436
000110 a0 17 84 bc 14 90 c4 3d 3f 28 5c bd 26 14 d1 bc
       -0.016124547 0.09597793 -0.05374932 -0.025522303
000120 ac 0c 45 3d 7f af 9a 3c f2 8b 2f 3d 97 ef 01 bd
       0.048107788 0.018882511 0.04285807 -0.03172263
000130 34 e5 60 3d 02 06 87 bd 11 7e 9b bc 2f 7d c2 3c
       0.054906085 -0.06592943 -0.018981012 0.023741333
000140 8a 84 ae 3c 43 d3 d7 bc 00 70 4f 3d ce 28 3f bd
       0.021303434 -0.026345855 0.05064392 -0.046669774
000150 76 41 2c bd a0 47 23 3d d9 57 71 3d 99 2b c2 3d
       -0.042054616 0.03986323 0.05892167 0.09480972
000160 b9 7f 8e bb c2 2f 4b bc 42 14 16 3d fd 5d c3 bc
       -0.004348722 -0.012401523 0.036640413 -0.023848528
000170 5d ae e5 bc b6 8c f2 bc d6 51 25 bd fc b6 9b bc
       -0.028037244 -0.029608112 -0.040361248 -0.019008152
000180 21 aa 22 3d eb 35 89 3c 1c 56 88 bc 84 f9 f9 bc
       0.03971303 0.016749343 -0.016642623 -0.030514486
000190 56 bb ef bc fa 55 09 bd eb 77 84 3c 71 7f 3b 3d
       -0.029264133 -0.03352926 0.016170463 0.045775834
0001a0 2b bd 83 3d f4 eb b8 3a ce 44 b4 bc 7e 95 0e bb
       0.06432565 0.0014108405 -0.022005465 -0.0021756585
0001b0 4d ae 4e 3b 05 3b eb ba ef 30 5e 3d d6 47 28 bd
       0.0031536997 -0.0017946666 0.054245885 -0.041084133
0001c0 db 75 d0 3b 41 69 9f 3d c8 0a 9b bc 3b 00 8d 3d
       0.0063617057 0.077837475 -0.01892604 0.068848096
0001d0 2a db 86 3d 82 73 37 bd b1 c6 7c 3d 5f bc 96 3d
       0.06584771 -0.04478789 0.061712924 0.07360148
0001e0 52 85 16 3d df a8 18 bd 98 40 1d bd 9a 13 77 bd
       0.036748238 -0.037270423 -0.03839168 -0.060321428
0001f0 88 0f 74 3d de 04 80 3c cb a7 89 3d 23 de a8 bc
       0.059585124 0.01562732 0.06721457 -0.020613736
000200 32 af 9d bc ba b2 80 bc 29 2f 95 3c af d7 5c 3d
       -0.019248579 -0.015710223 0.018210964 0.05391663
000210 a4 81 22 3d 67 dd 97 3c d0 d7 4b 3d 23 f6 fc 3b
       0.039674416 0.01853819 0.04976636 0.0077197715
000220 2d a4 10 bd 7a b9 65 bd 05 11 13 bc c1 bf c1 3d
       -0.03531282 -0.056085087 -0.008976226 0.09460402
000230 a9 8c 6b 3d 56 fc 1d bd ca 2b 30 bc 92 36 49 3d
       0.05750719 -0.038570724 -0.010752628 0.049124308
000240 ca 72 ba 3d 50 cc de bd 00 d8 e1 bc 85 6b 94 3c
       0.091039255 -0.10878813 -0.027568817 0.018117676
000250 ea fc 29 bc 7e 36 45 bc d6 bf 78 3d 88 fc 80 bc
       -0.010375241 -0.012036918 0.060729824 -0.015745416
000260 48 12 3c 3d b3 5c 48 3d 6f 25 d8 bd ff fd 09 bd
       0.04591587 0.04891653 -0.10554015 -0.033689495
000270 f9 57 1d 3c 1e b3 0d 3d 5c 70 45 3d f9 e8 92 3c
       0.009603494 0.034594648 0.048202857 0.017933356
000280 4b 05 64 3c 2b 7c 0b bc 3b 69 bb 3c 16 9c 53 bc
       0.013917278 -0.008513491 0.022877326 -0.012915632
000290 e2 73 e4 bc e6 07 60 bd fd db 5f bb 69 c7 9b bc
       -0.027887288 -0.054695033 -0.0034158223 -0.019015985
0002a0 d8 d1 54 3d b5 87 a4 3d 03 92 59 bc 7a 0d 3b 3d
       0.051957935 0.080336966 -0.013279441 0.04566715
0002b0 72 6f 6a 3d 2d 57 a1 3d fd 64 25 bb f8 53 3b 3d
       0.05723519 0.078779556 -0.0025237196 0.045734376
0002c0 60 f2 15 3d f3 26 f7 3b 4a d3 30 bd f7 a4 c2 3c
       0.0366081 0.007542485 -0.04317025 0.023760302
0002d0 d8 ae a7 bc d2 f7 5a bd b7 8a 22 3d 50 5e 62 bc
       -0.020469114 -0.053458996 0.03968307 -0.013816431
0002e0 1b 8d 1b 3b 10 a3 9e bd 99 cd 25 bc 27 dc 86 bd
       0.0023735228 -0.077459455 -0.010119819 -0.065849595
0002f0 ef 9f 71 3d 19 9f 00 bd 6b e1 84 3c be e3 50 bd
       0.058990415 -0.031401727 0.016220769 -0.050998442
000300 d5 38 0b 3e 7a c6 a6 ba 6f 10 96 bc 31 ef 99 3b
       0.13595898 -0.0012723946 -0.018318383 0.0046977033
000310 65 36 7e 3d 16 7a 4b bd fd 53 87 3c 4b d0 59 3d
       0.062063593 -0.049676977 0.01651954 0.05317716
000320 6a 0c bf 3c 68 5b 2e bd dd f0 79 bc 43 f5 68 bd
       0.02332135 -0.04256764 -0.01525518 -0.056874525
000330 d7 f5 6e 3c a3 78 21 bd dd c0 75 3c 24 ba ed b8
       0.01458498 -0.03942169 0.0149995955 -0.00011335712
000340 24 74 20 bd 55 e7 26 bb da e8 a1 3c 04 e0 6a bc
       -0.03917326 -0.0025467474 0.019764353 -0.014335636
000350 e2 9f 33 bd a0 29 c4 bc 9e f8 cb 37 8d 9d e9 bb
       -0.043853648 -0.02394563 2.4315257e-05 -0.007129377
000360 65 1e 61 3c c6 55 0a 3c 13 02 47 bc cc c1 c2 bd
       0.013740157 0.008443302 -0.012146491 -0.0950962
000370 73 f8 bd 3b 4c 49 5d bd e8 6c 3c bc 09 6b 3a 3c
       0.0057974397 -0.05402498 -0.011500575 0.011378058
000380 dd ef 01 bc c7 d4 ca 3d 4a 15 93 3c 0f d0 5c 3d
       -0.007930723 0.09903865 0.017954487 0.053909358
000390 b2 04 ac 3c 3b 0c ee 3d ce b5 b9 3d ec 81 94 3a
       0.020998333 0.116234265 0.090678796 0.0011330224
0003a0 67 41 b2 3b de a6 3c 3e f3 04 66 3d 18 4e e3 3c
       0.0054399255 0.1842303 0.056157064 0.027747199
0003b0 07 25 8b 3b 70 c5 01 3d 48 04 99 3c ae 25 0c 3c
       0.0042463574 0.03168243 0.0186788 0.008553905
0003c0 21 ff e1 3c 9d 70 3f bd 8f 52 4b 3c 6c 05 7b 3b
       0.027587475 -0.046738256 0.01240982 0.0038302792
0003d0 ab 68 95 3d 9c a3 05 3d d0 11 13 b9 00 60 9e 3b
       0.072953545 0.032626733 -0.00014025648 0.0048332214
0003e0 60 ec 25 3c 8d 84 8a 3c 3e e0 94 3c 94 3f 1f bd
       0.010127157 0.016908908 0.018173333 -0.038878992
0003f0 80 c6 30 3d 8c e6 9e bc 2e 37 6e 3c 35 6f e2 3c
       0.043158054 -0.019397043 0.014539523 0.027640918

StatefulPartitionedCall/sequential/dense_1/BiasAdd/ReadVariableOp:0 f4 [512]
000000 6c 06 99 ba 21 31 6f 39 24 2c 25 3b a6 bc 13 bc
       -0.0011674888 0.00022811118 0.0025203312 -0.009017145
000010 63 3b 13 bd 74 16 1f 3c 53 65 45 3c 17 22 69 3c
       -0.035945307 0.009709943 0.012048083 0.014229319
000020 d9 ec 9b 3b c4 54 52 3c 89 90 7a bb ba 32 c8 3c
       0.004758459 0.0128375925 -0.0038233122 0.02443825
000030 b5 ac 11 3c 2d 54 a8 3b 76 dd e3 b9 ee ac d2 3a
       0.008891274 0.0051369877 -0.00043461815 0.0016073266
000040 d7 26 9c 3c e9 36 32 bb ca 7c 66 3c 58 0e 8b 3c
       0.019061489 -0.0027193374 0.014067838 0.016974613
000050 5e 19 53 3c 6a fd 8a 3b ce d4 e1 3b 4e c5 80 bb
       0.012884466 0.004241635 0.0068918234 -0.0039297706
000060 14 99 a5 ba 53 77 31 bc 78 5e 53 3c 0e 9e cf 3c
       -0.0012634122 -0.010831672 0.012900941 0.025343921
000070 1e aa 65 3c 58 b3 54 3c b9 cd 70 bc 73 ff 47 3c
       0.01401761 0.012982212 -0.014697486 0.0122069
000080 ef 96 bc 3b 28 ed e4 ba eb 27 55 3b 28 62 5e 3c
       0.0057552974 -0.0017465698 0.0032525014 0.013573207
000090 86 d5 3b 3c 9f a8 38 bc 6a 1c 24 3b 8a 6b 49 3a
       0.011464482 -0.011270671 0.002504135 0.0007683566
0000a0 19 c8 c1 bb 44 30 75 bc b3 5f 33 3c 7a e6 a2 bc
       -0.005913746 -0.014965121 0.010948109 -0.01988529
0000b0 f7 b9 07 bc c5 93 0d 3b 94 7f 93 bc 06 07 30 3c
       -0.008284084 0.002160297 -0.01800517 0.010743862
0000c0 72 c3 4f bc dd e9 c1 bc 7d 3a 06 bb 83 ba 1c 3c
       -0.012680875 -0.023671085 -0.002048164 0.009565952
0000d0 b0 ea 0d bd 7b 99 66 bb ab 7f 39 bc 34 6e c5 ba
       -0.034647644 -0.0035186696 -0.011321942 -0.001506275
0000e0 40 09 df bb fc aa 0e 3a a5 fc b8 3c 19 cd 74 bb
       -0.0068065226 0.0005442349 0.022581408 -0.0037353693
0000f0 eb b8 e8 3b b1 f8 e4 ba 27 2e e5 39 63 89 51 3c
       0.007102122 -0.0017469135 0.0004371267 0.012789103
000100 15 a9 26 bb da f6 e3 bb 81 67 8d bb 07 5e 46 3a
       -0.002543037 -0.0069569172 -0.004315317 0.0007567112
000110 ae 9c 8f ba f9 00 5b bc ec a1 92 3b 97 e2 69 ba
       -0.0010956728 -0.013366931 0.004474869 -0.0008922009
000120 7b bf c2 3b 0a 4b a8 3c 1b d5 b6 b6 9a ee a3 3c
       0.0059432364 0.020543594 -5.4488314e-06 0.020011235
000130 38 3d 4a 3d 9e 56 08 3b 04 62 b7 3c a9 0b 08 3a
       0.04937479 0.002080358 0.022385605 0.0005189726
000140 bb e4 cc 3b 96 af 34 3a 1c f2 1b 3d e0 57 15 bc
       0.0062528527 0.00068926194 0.03807269 -0.009115189
000150 99 d2 68 3b a8 87 34 bc 78 73 6d 38 59 aa 4c bc
       0.0035525917 -0.011018671 5.6612742e-05 -0.012491786
000160 0e 5c f6 ba 4e 6b a4 3a 45 7f bb 3b 25 37 c4 3c
       -0.0018795745 0.0012544186 0.005721959 0.023952076
000170 72 c3 a3 bc c7 d8 03 3d 3b c2 23 3c 03 96 81 3b
       -0.019990657 0.032189157 0.009995039 0.0039546504
000180 72 8a 57 3c 82 a2 2f 3b 52 07 59 b9 ac f9 4a bc
       0.0131555665 0.0026799743 -0.0002069746 -0.012388628
000190 52 93 2b 3c 50 ee 1e bc d9 3d 31 bb 33 ee b3 bb
       0.010472136 -0.009700373 -0.002704492 -0.005491042
0001a0 b1 96 99 3c c7 1c 3d 3b e0 21 58 3c f2 cf 82 3b
       0.018748613 0.0028856264 0.01319167 0.003992074
0001b0 50 5e 06 bb f3 56 95 ba 2f be 8d bc b6 b6 f3 3a
       -0.0020502992 -0.0011393711 -0.0173026 0.0018593881
0001c0 14 ec 2c 3b b2 27 ba bc 2a 31 43 3a d2 b9 bf b9
       0.002638583 -0.022724006 0.00074459857 -0.00036568806
0001d0 ab ee 64 3c 1f 4f 1d b9 57 82 29 3c 19 2f 2c 3b
       0.0139729185 -0.00015002162 0.010346017 0.002627319
0001e0 02 24 eb 3a 53 9d 0a bb b5 3f b0 bc 94 6f bb ba
       0.0017939808 -0.0021150901 -0.021514753 -0.0014300221
0001f0 eb 0b 6d bb 26 99 07 3c aa 4d ad bc df 75 c0 3c
       -0.0036170434 0.0082762595 -0.021155197 0.023493705
000200 29 19 00 3b 62 8b 4f 3c dd 2b ae 3b 64 88 83 3c
       0.0019546247 0.012667509 0.0053152875 0.016056247
000210 4b 64 81 3b ff e6 fb 3b da 9d 8a bb 81 fd 37 3b
       0.0039487234 0.007687449 -0.004230243 0.0028074684
000220 2f f7 42 3b 83 3e 36 3c 88 85 65 3b 4e 7b e4 3b
       0.0029749384 0.011123302 0.0035022218 0.006972707
000230 34 54 44 3a 04 8d 74 3c 23 d0 0a 3c 44 b6 11 bc
       0.0007489354 0.014926199 0.008472475 -0.008893553
000240 4e 4c 43 3c 30 0d 91 3c 73 a6 97 3b 6a f2 5c 3c
       0.011920048 0.017706484 0.0046279966 0.01348553
000250 30 16 7a 3b 63 2e af 3c e1 54 47 bc 01 df 92 3c
       0.0038160197 0.021384424 -0.012166233 0.017928602
000260 15 6d 39 bc b8 37 15 bc ba dd 78 3b 8b 6f 88 bb
       -0.011317511 -0.009107523 0.0037973956 -0.0041636876
000270 25 8e a5 3a 98 11 09 3b 6e 93 88 bc 22 90 a0 3b
       0.0012630863 0.0020915028 -0.016671862 0.0048999945
000280 f5 6d b6 bc 8e 5d 26 39 2c 4e 66 3b ea 5b d5 bb
       -0.022269228 0.00015865845 0.003514181 -0.006511201
000290 76 34 97 3b 7b 46 87 3c 81 66 cf b8 74 a6 ab b9
       0.004614408 0.0165131 -9.889622e-05 -0.0003273968
0002a0 91 26 89 bc 23 db 00 3c a5 9c 32 bc e1 e4 9d bb
       -0.016742023 0.007864746 -0.010901605 -0.0048185443
0002b0 4c 38 15 3c 77 9a a6 bb 0c aa 92 bb a0 cd 19 bc
       0.0091076605 -0.0050843316 -0.0044758376 -0.009387404
0002c0 04 bc 57 3c ce 8c af bb ca ab 7c 3a c5 b9 5a 3c
       0.013167385 -0.0053573614 0.00096386357 0.013349955
0002d0 3d f1 99 bb 52 5e 09 bb 54 35 40 3c a3 85 c9 3b
       -0.0046979473 -0.002096076 0.011731464 0.006149964
0002e0 51 57 48 bb e8 57 98 3b 4b 30 23 bc 59 ec 4c bc
       -0.0030569623 0.004649151 -0.009960244 -0.012507522
0002f0 80 8f 69 bc 33 b7 80 bc 42 53 bf 3b ad 26 a2 bb
       -0.0142554045 -0.015712356 0.0058387825 -0.004948458
000300 fd b1 03 bc f4 4e 84 3b 93 06 64 3c 14 31 c0 bb
       -0.008038041 0.0040377323 0.013917583 -0.0058652256
000310 cc 5b 92 3b 5d 5b ac ba 58 a3 9c bc b8 e2 83 bb
       0.0044665094 -0.0013149787 -0.019120857 -0.0040248297
000320 56 c8 15 bc ad 33 e1 3b b5 5a b0 bc b9 d7 c5 3b
       -0.009142002 0.0068726153 -0.021527627 0.006037679
000330 0f 09 5d bb 3b 0b d3 3b 54 85 9d bb 3b 37 1c 39
       -0.0033727323 0.0064405478 -0.0048071537 0.00014897894
000340 20 d2 5e bc 60 71 70 3c 13 02 07 bb 34 f8 bf 39
       -0.013599902 0.014675468 -0.0020600602 0.00036615285
000350 1c 7b 20 3c 07 48 0b 3c c5 2b 92 3b c3 80 78 ba
       0.009794977 0.008501059 0.004460784 -0.0009479636
000360 e9 dd ef 3b f5 21 26 bc b5 06 05 bd 59 83 0a bb
       0.007320155 -0.010139932 -0.0324771 -0.0021135418
000370 5f 5e cd bb 0b d3 e1 ba d5 5e 4b 3b f9 a9 45 ba
       -0.0062673534 -0.0017229033 0.0031031866 -0.00075402815
000380 0e a6 fc 3b 4e a1 e2 bb e1 c0 f2 bb 45 2f 67 3b
       0.007710225 -0.0069162017 -0.007408247 0.0035275978
000390 4d d9 d7 3b f6 cf d0 bb e4 ec 9c bc 39 58 00 bb
       0.0065871836 -0.006372447 -0.019155927 -0.0019583835
0003a0 3a ff e5 3b f6 0b 49 3c fb 5d cb bb 5d 2f e9 ba
       0.007018951 0.012270918 -0.0062062717 -0.0017790605
0003b0 7d 21 c6 3b d7 56 fd b9 5b 4a 93 3c e4 e8 4e bc
       0.0060464726 -0.0004832062 0.017979791 -0.012628768
0003c0 66 3e ee 39 26 4f 00 bc bf a2 c2 ba 24 a2 99 bc
       0.00045441388 -0.00783137 -0.0014849528 -0.018754072
0003d0 24 2b 11 bc a7 f0 5f bc e3 92 39 3a 5d 87 b0 3b
       -0.008860383 -0.013668216 0.0007079078 0.0053872303
0003e0 31 e7 b7 b9 61 49 c1 3b 65 f7 84 3b 17 b4 de 3c
       -0.0003507673 0.00589864 0.004057812 0.027185483
0003f0 66 76 b6 3c d3 83 38 3c bd 68 34 bc 57 87 59 3a
       0.022273254 0.011261898 -0.0110113 0.000829806

StatefulPartitionedCall/sequential/dense/MatMul/ReadVariableOp:0 f4 [17, 17]
000000 68 43 48 3c 5a 75 81 be 83 a8 08 3f 9d c3 be aa
       0.012223102 -0.25284845 0.5338213 -3.3886514e-13
000010 cb d9 fe 3e c3 68 e5 3e 7f 89 f8 3e 4e 38 d8 be
       0.49775538 0.4480649 0.485424 -0.42230457
000020 e1 fd 39 3e c9 03 46 3e f5 99 f4 3e 14 b5 7d af
       0.18163253 0.19337381 0.4777371 -2.3074548e-10
000030 6f 66 32 3e 05 25 23 be a9 0e 2e 3e 45 17 b2 3e
       0.17421888 -0.1593209 0.1699778 0.34783378
000040 d4 c8 14 3a 4d 87 cc be 9a 78 50 3e 54 39 a3 3e
       0.00056756777 -0.39946976 0.20358506 0.31879675
000050 08 f0 e8 2a 7b ba 8c be 37 b1 46 3e fb 12 1d 3e
       4.1378034e-13 -0.27486023 0.1940354 0.15339272
000060 5c 2d b6 bc fa fa 05 3f 04 0d e7 be d2 a6 1f bd
       -0.022238426 0.52336085 -0.45127118 -0.03897745
000070 d2 c2 79 2e 30 b9 e9 be 45 45 c8 be b6 7f aa be
       5.678908e-11 -0.456491 -0.39115348 -0.3330056
000080 d7 7f a3 be f9 19 f3 3e 81 30 3d 3d 45 ca 2c 3e
       -0.31933472 0.47480753 0.046188835 0.16874035
000090 50 90 d9 be 1f 0e 90 aa 9a e4 ef be bf c5 b0 be
       -0.42492914 -2.5589337e-13 -0.46854097 -0.34525868
0000a0 ef 3d e9 be 8a 2a c2 3e c5 37 84 be d0 f9 b0 be
       -0.45555064 0.3792308 -0.258238 -0.34565592
0000b0 c9 9c 9e be 93 c1 72 af 81 b0 86 be f9 39 6d 3e
       -0.30978993 -2.2078543e-10 -0.26306537 0.23166646
0000c0 50 7e c9 bc 20 5f bc be f1 ce 86 bd 6c b6 b4 3e
       -0.024596363 -0.36791325 -0.0658244 0.35295427
0000d0 c5 38 19 be 09 1b 72 be 2f e7 fb 2a 04 d5 af 3e
       -0.14963062 -0.23643126 4.4746973e-13 0.34342206
0000e0 36 fc cb bc 40 e9 64 be 78 2d 15 3e 28 61 bd be
       -0.024900537 -0.22354603 0.14568126 -0.36988187
0000f0 43 42 85 3e 86 0b f8 bd 4d 72 97 2e 5f 96 8f 3e
       0.26027116 -0.12111573 6.886989e-11 0.28044412
000100 e0 24 e3 3e 3d cd aa 3e b9 b0 95 3e f3 52 01 bf
       0.4436407 0.3335971 0.2923639 -0.50517195
000110 d2 45 0c 3e 04 5f 94 be 7a d3 9b 3e e3 fe 87 2a
       0.1369851 -0.2897874 0.3043478 2.415768e-13
000120 e7 09 dc 3d 6a 8a ad 3c 5b 0a 47 3d ed ef 55 be
       0.10744076 0.021184165 0.04859386 -0.20892306
000130 a4 37 46 be e4 3b a6 be 50 71 97 3e a4 7c ea 2e
       -0.19357163 -0.32467568 0.29578638 1.06632286e-10
000140 83 b5 36 be 23 fc 5e bd f2 9d d9 3d 74 1e 2b 3e
       -0.17842679 -0.054439675 0.10625829 0.16710836
000150 a7 6f 24 be 1e c1 19 be 9d 4a a7 bb 1f e6 0a 3e
       -0.16058217 -0.15015075 -0.00510533 0.13564347
000160 b6 02 8b aa 19 7b 48 3e 10 01 b9 3c a5 19 3a be
       -2.469324e-13 0.19578208 0.022583514 -0.18173845
000170 11 c8 d1 3d 52 a1 ae 3e 36 af 93 be 56 db df bd
       0.10243238 0.34107453 -0.28844613 -0.10930507
000180 37 c7 38 ad 30 e5 9a be 1f 30 31 3e f7 b1 b2 3d
       -1.0503424e-11 -0.3025298 0.17303513 0.0872535
000190 c7 d6 36 be d7 e0 c7 bd 53 de 65 be d2 64 30 bc
       -0.17855369 -0.09759682 -0.22448091 -0.010766225
0001a0 a2 c6 95 3d 26 35 26 aa 8d 78 ee bd 5c b2 27 3e
       0.07313277 -1.4762201e-13 -0.11644087 0.16376632
0001b0 b3 ab 21 be b2 20 8c 3e 2e 10 40 bb be 1d 91 3b
       -0.15788154 0.27368695 -0.002930652 0.0044285944
0001c0 bf 08 77 3e 7a df a2 ad 17 5f 4c bd d2 8b 15 be
       0.2412443 -1.8516511e-11 -0.049895372 -0.14604118
0001d0 1e a0 1e 3e fa f2 79 3e e6 f7 52 be e5 10 a8 bd
       0.15490767 0.24409094 -0.20602378 -0.082063474
0001e0 a1 04 81 3d b2 00 38 be 1d 48 fb 29 2f ed a0 bd
       0.06299711 -0.17969015 1.1159149e-13 -0.07857739
0001f0 74 60 0d 3e 02 3d 2a 3e 39 7c 68 3d 30 3c 4e 3e
       0.13806325 0.16624835 0.056759093 0.20140147
000200 b7 76 4d 3d 12 11 0c bd 88 89 28 2e 5d 35 10 bd
       0.050162043 -0.034195967 3.832093e-11 -0.03520714
000210 0c 6a b8 3e e2 c5 32 3e 31 7b 6f bd 7d 78 ed bc
       0.36018407 0.17458299 -0.058467094 -0.028988117
000220 c5 85 49 3e 89 0d 17 bd ae 3d 83 be c0 76 51 aa
       0.19679935 -0.036878143 -0.25632995 -1.8604129e-13
000230 17 6d c1 3d 41 94 9d bc 43 5c 83 3d f2 ea 4c bb
       0.09444635 -0.019235732 0.06414082 -0.0031267968
000240 df e6 a0 3e a5 63 86 be 91 e2 50 be f0 41 e1 ad
       0.3142614 -0.26247898 -0.20398928 -2.560882e-11
000250 f8 de b6 3e d4 33 72 3d cd 45 a8 be 03 4c 2c be
       0.35716987 0.05913146 -0.32865754 -0.16825871
000260 e6 1d 0c be 35 f1 33 3e 6d e9 b6 bd cf 22 24 3e
       -0.1368328 0.17572482 -0.08931241 0.16028903
000270 d8 0c a0 29 c2 c2 3c 3e 61 51 bb bd 2f 28 87 be
       7.1076554e-14 0.18433669 -0.09146381 -0.26397845
000280 fa 30 88 3e d0 b7 98 3e 42 68 88 bd ca 1b 96 3c
       0.26599866 0.29827738 -0.066605106 0.018323798
000290 8b 59 0e ad 2f ca 67 be d1 19 09 3e 50 07 2e 3d
       -8.091648e-12 -0.2263572 0.13388754 0.042487442
0002a0 1a 3c c7 bd f5 00 98 bd e2 d6 94 3c 9f ad a5 be
       -0.0972826 -0.074220575 0.01816887 -0.32359025
0002b0 41 4a c0 3d 73 94 f3 a9 2c eb 93 3d 80 59 d4 3e
       0.09389163 -1.08171196e-13 0.0722259 0.41474533
0002c0 3f 90 86 3d 96 e1 8c be 6f 72 9a bd 39 47 13 be
       0.065704815 -0.27515858 -0.07541358 -0.14382638
0002d0 40 21 a5 bd d1 a6 95 ac bc 36 1c be 6f a4 50 3d
       -0.080629826 -4.253355e-12 -0.15255255 0.050938066
0002e0 28 9c 12 3e 66 65 1c 3d 82 17 2f be 3a c1 8a 3e
       0.14317381 0.03818264 -0.17098811 0.27100545
0002f0 73 0c a8 3e 04 96 fa b7 72 ee d4 a9 83 2a 20 bc
       0.32821998 -2.9872179e-05 -9.456055e-14 -0.009775761
000300 08 80 ec bd a8 64 c4 3d bf 82 41 3e ec 66 06 be
       -0.115478575 0.09589511 0.18897532 -0.13125199
000310 45 28 8b bb f6 4a 94 be 9e be cb ac f7 11 e0 3b
       -0.004246744 -0.2896344 -5.7907698e-12 0.006838079
000320 9a b9 d6 bd bc 52 81 3d 4d 17 00 3e 6c 91 02 be
       -0.104846194 0.063146085 0.12508889 -0.12750787
000330 06 2b 43 be 26 c6 28 ba 96 9b d7 bd c8 d9 d9 a9
       -0.19059381 -0.0006438218 -0.105277225 -9.674515e-14
000340 0e 26 91 3e 6b 55 b4 3d c3 59 05 be 3a 7f 68 bd
       0.28349346 0.08805355 -0.13022523 -0.056761958
000350 d8 fd b8 bd 9a 8c bf 3d 73 01 b4 bb 18 b3 7a ad
       -0.09032792 0.093529895 -0.005493337 -1.42506215e-11
000360 50 c4 45 be 12 1a d6 bd 56 d1 9d bc cb 42 3b be
       -0.19313169 -0.10454191 -0.019264858 -0.18287198
000370 45 08 4e 3d 93 8f 5d 3d 97 c4 90 3e 88 ea cd 3b
       0.050300855 0.054092 0.28274986 0.006284062
000380 38 39 15 aa 87 6a 1f be cd 89 2e 3e 98 d8 c9 3d
       -1.325371e-13 -0.1556798 0.17044754 0.09855765
000390 2e 99 09 be 28 c9 1e be 05 f6 5f 3e b4 13 70 3e
       -0.1343734 -0.15506423 0.21871193 0.23445016
0003a0 ea a8 f2 ad 8f 61 5f be 7b ea 1a 3e f6 7f 14 3e
       -2.7587228e-11 -0.2181456 0.1512851 0.14501938
0003b0 3e bc 99 3e bc 7b 77 3e 0b 41 0c bc 51 75 c7 bd
       0.3002643 0.24168295 -0.008560429 -0.09739173
0003c0 c1 b4 64 3e 6b 5a 62 a9 ba b8 cc 3d 75 1e 86 be
       0.22334577 -5.0260506e-14 0.09996171 -0.26195112
0003d0 6d ae 23 3e b8 c9 5f 3d 3d e9 6a be 7a 0a 90 3e
       0.15984507 0.054635733 -0.22940536 0.28132993
0003e0 0e c7 8f bd 8c 09 42 ad a0 f5 45 be c3 dd 39 3d
       -0.070203885 -1.1029743e-11 -0.1933198 0.045377504
0003f0 88 c2 b9 be 4a d5 22 be 88 f4 77 bd 53 13 29 3e
       -0.36281228 -0.15901676 -0.060535938 0.16511278

StatefulPartitionedCall/sequential/dense/BiasAdd/ReadVariableOp:0 f4 [17]
000000 fc ce a6 bd 27 83 60 bd 68 4d ed ba 23 11 b0 bb
       -0.08144948 -0.054812577 -0.0018104734 -0.0053731366
000010 fd 79 bf 3d d9 2f a8 bd 76 65 55 3a d5 f7 17 bd
       0.09349439 -0.08212251 0.0008140424 -0.037101585
000020 54 38 e3 3d 4e 01 8b 3c ca 0b 23 bc 7d f9 d2 3b
       0.11094728 0.016968396 -0.009951541 0.0064384327
000030 62 82 92 3c 51 37 a5 bd 7c 8b c1 3d 0d f5 b4 3d
       0.017884437 -0.080671914 0.09450433 0.08835802
000040 d0 b0 1b bd
       -0.03801042
