data/DNN/Inlusive_noMetCut_genMETweight500enlarge_amcatnlo_xyComponent_JetLepXY_50EP__diff_xy_2017_20230403-1000genMETweighted.onnx (onnx, 580407 bytes, 24 tensors)

dense_3/kernel:0 f4 [256, 2]
00000000: 9d98 27be a795 a93e 25ef fa3d 478c 2a3b
00000010: abb4 6dbe 40d7 033d f74f 5f3e 78e0 96bc
00000020: abac 8cbd e5e2 823e 6b23 063e ade4 4fbe
00000030: ee44 c63d 8405 373e 5a4b 1e3c 90dc a0be
00000040: f2ea 4fbe 49c3 a9bd aeeb 6bbc 20f5 d33d
00000050: b9b6 603e 3432 2d3d 08a1 203e a7e1 26be
00000060: 3d12 343d 9a2e 06be 6bb5 19be 618e 60bd
00000070: b1f9 7cbe 2e59 02bd fb22 003e 78e2 d2bd
00000080: ee06 103e 1e1c 32bc 1fbc 823c ba05 39be
00000090: 4bc6 153e e1bd 0b3e 54bc aeb9 0bc7 80be
000000a0: 4b7c da3d ff27 de3c 0155 5abd 8ac2 0cbe
000000b0: 7fc3 71be d354 dbbd 0969 a1bc 1b58 23be
000000c0: a269 44be 6b32 9b3d 650c 173e 9c2b 953e
000000d0: 1d61 f3bd 0b70 0fbe 4665 4b3e 3c86 a63d
000000e0: 64a3 5d3e 8b14 fa3d ad30 1dbe 9d29 11be
000000f0: c0af 72be 4d0c 6abd 4f17 6b3e 0335 94be
00000100: ff0f 003e 0327 3c3e 5966 d3bb f897 4b3e
00000110: 11f7 453c 3726 88be 05be 57be e8d7 18be
00000120: 05c8 3b3e 011e 273e 5d31 65bc 5d63 243d
00000130: 3103 373d db6d 42be 5526 59be d5c5 e2bd
00000140: 0c01 663e 6708 86be 88c9 ff3c 65ff 803e
00000150: ad44 52be 9c8d fabd e9fa 6a3e 474e 233e
00000160: 45b0 1f3e ad82 57bb 9b16 e83d 47a7 98bd
00000170: b6b5 70bd 4048 2bbc 208f 6dbc d9aa 7b3e
00000180: a0fe 89bb cbf3 8239 c661 a1bd 462a 5fbd
00000190: 2325 a9bc ffb7 6bbe 3769 7ebe f971 943d
000001a0: 7705 68be 1a64 90bd b4b7 17bd 4ae1 443e
000001b0: 979e eebc 1de0 f53d d423 d23d d1e7 e83d
000001c0: b873 e63c 8b91 203d 41c7 21bc 6e03 173a
000001d0: f70a 40bb 43b2 0f3e d0cc 3c3d fb04 223e
000001e0: 6d61 143e 5788 8dbd 3897 033e 990c 57be
000001f0: e536 dbbd 49bb 673e fde1 cbbd f76c 5bbe
00000200: cd6c e0bc 1e45 233e 4467 2fbe cf4c e53d
00000210: 60ff ba3c b0d7 263e 9d10 86bd 951a c33d
00000220: d188 0bbd 04cf 43bc 58a6 1ebd 0d63 89be
00000230: b545 aabd 6ab3 1f3e bc7e aabd 2068 983c
00000240: 99ea 163c f3a8 893d a46f 873c c577 053d
00000250: 34aa 15be 7d73 d1bd 97ec 4339 9b6a ee3d
00000260: e4a6 ccbd c54d b9bd 793d 80bd 2c98 1a3e
00000270: 8cb8 123e 580b 50bd 6e23 003e daaa 153e
00000280: aa8a 923d bb69 493e b857 8d3c 75aa 2ebe
00000290: 6fa7 bdbc 3676 72be 76b1 2b3e bf95 20be
000002a0: 0e0f 203e 8d4b 0ebe f2eb 89bd 863e b23d
000002b0: c0be af3d 7ab8 24be b0c6 5abe db11 92bd
000002c0: 9510 823d 0d34 113e 04db d63d 7475 643d
000002d0: 2856 8fbe 9a59 0bbe e4d7 15be deda 423e
000002e0: 7553 4d3c 1e3d 24bb 5f87 e83d 9513 323e
000002f0: b538 4abe 2784 89be 00f6 57bd efd7 133d
00000300: a75e 553e 1ce6 62bd 41bd 243e 5172 1c3e
00000310: 5c4a 653e 6fc0 403d 22e5 53be 5b1f 29bd
00000320: 2f60 8dbb e894 38be 35e6 103e d45d 183e
00000330: 47e9 693c 8478 553e 4e8a e0bd f6f8 25bd
00000340: 0b4d a4bd ed3a c3ba 8be8 873e 084b b83d
00000350: 2cfe 7dbe cca4 20bd 138f bbbd 7587 633e
00000360: ee6f 133e 7917 103c 47e1 b5bd 4ed2 a63d
00000370: 413c 3e3e b431 73be 24bc 8a3e 38de 83be
00000380: 7078 153e ed3d dbbd 65ee 6b3e b32e 393d
00000390: d5b6 84bd 2e51 2b3e 1629 993e 1990 883d
000003a0: 5ade 18be 23bc 2b3e 0418 c03d eb0a 1f3e
000003b0: 945a 833e 8189 dd3a 5846 90bd deab 883e
000003c0: 343c 04be 0844 41bd aa6b 53bd d954 4b3e
000003d0: f599 90be 2ca0 ca3b d1c2 0f3e 77c9 6b3c
000003e0: 10eb 0f3e 7fb3 5b3e 4471 91bd 9072 fe3c
000003f0: 3b0c 963e 4cc2 303c cf1e 3ebe 2a0a 4e3e
-0.16366811 0.33121988 0.122526444 0.0026023553 -0.2321345 0.0321877 0.21807848 -0.018417582
-0.06868871 0.25563732 0.13099448 -0.20302077 0.09681116 0.17873198 0.00966152 -0.31418276
-0.20304468 -0.08289201 -0.014399452 0.10349488 0.21944703 0.042284206 0.15686429 -0.16297017
0.043962706 -0.13103715 -0.15010612 -0.054823283 -0.24704625 -0.03182333 0.12513344 -0.10297102
0.14065143 -0.0108709615 0.015958844 -0.18068591 0.14626424 0.13646652 -0.00033328182 -0.25151858
0.10668238 0.027118681 -0.053303722 -0.13746086 -0.23609732 -0.10709538 -0.019703405 -0.15951578
-0.1918092 0.07577976 0.14750822 0.29134834 -0.11883757 -0.14007585 0.19862852 0.08131072
0.2164436 0.122109495 -0.153506 -0.1417603 -0.23699856 -0.057140637 0.2295811 -0.28946695
0.12506102 0.18374257 -0.00645141 0.1988219 0.012082831 -0.26591656 -0.2106858 -0.14926112
0.1833802 0.1632004 -0.01398882 0.040133823 0.044680778 -0.18987219 -0.21206029 -0.1107289
0.22461337 -0.26178285 0.031224027 0.2519485 -0.2053401 -0.12234041 0.22947277 0.15947829
0.15594585 -0.0032884285 0.11332437 -0.074537806 -0.058767043 -0.010454237 -0.014499456 0.24576892
-0.004211262 0.00024977172 -0.07879977 -0.054483674 -0.020647591 -0.23019408 -0.24844824 0.07248301
-0.22658335 -0.07050343 -0.037040427 0.19226566 -0.029128356 0.12005637 0.1026074 0.113723405
0.02813135 0.0392013 -0.009874166 0.0005760704 -0.002930341 0.14032845 0.046093762 0.15822212
0.1449029 -0.069107704 0.12850654 -0.210009 -0.1070383 0.22630037 -0.09955213 -0.21428286
-0.02739563 0.15944335 -0.17129236 0.11196291 0.02282685 0.16293216 -0.065461375 0.095265545
-0.034066025 -0.011951212 -0.038732857 -0.26833382 -0.08314077 0.15595785 -0.08324954 0.018604338
0.009211206 0.06721678 0.016532727 0.032584924 -0.14615709 -0.10227106 0.00018684786 0.11641427
-0.09992769 -0.090480365 -0.06261725 0.15097111 0.14328212 -0.05079207 0.12513515 0.14615956
0.07155354 0.19669239 0.017253742 -0.17057212 -0.023151128 -0.23677906 0.16766915 -0.15682124
0.15630743 -0.13896008 -0.06734456 0.08703332 0.085813046 -0.16085997 -0.21364856 -0.07132312
0.06350819 0.14180012 0.10490993 0.055776075 -0.2799542 -0.13608399 -0.14633137 0.19028804
0.012532105 -0.0025060843 0.11353945 0.17390282 -0.19748195 -0.26858637 -0.05272484 0.036094602
0.20836888 -0.05539523 0.1608782 0.15277983 0.22391647 0.04705852 -0.20692876 -0.04128967
-0.0043144445 -0.18025553 0.14150317 0.14879543 0.014276809 0.20846754 -0.109638795 -0.04052063
-0.08022507 -0.0014894881 0.26544604 0.08998686 -0.2480399 -0.039219663 -0.091581486 0.22219642
0.14398167 0.008794659 -0.08880859 0.08145581 0.18577673 -0.23749429 0.27096665 -0.25755477
0.14596725 -0.10705171 0.23040159 0.04521055 -0.06480185 0.16730186 0.2991416 0.066681094
-0.1492857 0.16770987 0.093795806 0.15531509 0.25655043 0.0016901941 -0.07044667 0.26693624
-0.1291359 -0.04718402 -0.05161635 0.19856586 -0.2824246 0.0061836448 0.1403916 0.014391295
0.14054513 0.21455191 -0.07101682 0.031060487 0.29306206 0.0107885115 -0.1856644 0.20121065

dense_3/bias:0 f4 [2]
00000000: ce6e 823c 0d3c ebbc
0.015921976 -0.028715158

scale f4 [256]
00000000: 3b30 893e 15e1 f03e 81f1 a83e 83fd ad3e
00000010: 5cf4 9e3e 2a3e a33e f2ee 943e 7fcc 9b3e
00000020: 59b1 a63e dbbb c33e 763b a43e 6617 ae3e
00000030: c3b1 a03e a70d a83e fdc0 8b3e b265 cc3e
00000040: d205 d73e f975 f93e 6c4a a63e 9022 b23e
00000050: 257e c63e 1312 c23e 2559 953e c52a c63e
00000060: e469 993e f3e4 923e cfd9 d53e e6a4 b93e
00000070: b715 9d3e 96bd c43e 9d27 e73e d2b6 a43e
00000080: 8159 ca3e f23c d43e c80c a73e 66a3 a73e
00000090: bc6e c43e 8a06 003f f2e7 d43e 32c5 b63e
000000a0: 8666 be3e f56b 8e3e 765e 993e e1f8 a63e
000000b0: f933 d03e 3e5d be3e 2167 d33e 0e0c 9f3e
000000c0: 9c6d 293f fec8 fe3e 7eb5 043f f569 d03e
000000d0: 12a7 9a3e 7210 973e 0aba a03e 27e3 033f
000000e0: 6bba 0a3f e32b 993f e032 cc3e ebdd bd3e
000000f0: a3dc bb3e e793 ed3e fd67 a33e 0e62 ad3e
00000100: af3e aa3e 0861 a43e 50b6 b53e b256 c63e
00000110: 1a60 0c3f 7dc9 f73e 40cd c93e 1bb8 113f
00000120: ac6a cd3e e2e7 1d3f cb54 b83e 6401 b13e
00000130: 149e ab3e 14e1 b13e c54e b33e 0cd9 c73e
00000140: cee6 bf3e dd24 c03e e4b9 ab3e 3df1 a23e
00000150: 049f a13e cd69 ba3e 85a2 b13e 2f34 d43e
00000160: 017e 973e b766 f63e c943 893e cbab a13e
00000170: e3ea 373f 0e1c a53e 0c81 a73e 9486 d83e
00000180: 67f6 b93e af47 a23e 2854 ae3e 6b95 b23e
00000190: 4e52 9c3e f28d b53e 0d9f 9d3e 6512 c23e
000001a0: b2d6 c33e c843 c73e 2915 a13e 6c0c 883e
000001b0: 9083 cf3e d9f5 983e 0dd9 973e 6307 a63e
000001c0: c504 b33e 07c2 b63e a84f ac3e 0bf7 f33e
000001d0: 1fa1 b43e fe68 b83e b89b ca3e dff8 f13e
000001e0: 5e85 9f3e 2fb4 af3e 2625 853e 3830 ba3e
000001f0: 135e b23e 67f3 c63e 0583 a63e b8a7 e23e
00000200: 2bc2 8a3e a495 7b3f c102 b03e ea12 b43e
00000210: e9cc cb3e 6d25 b23e 6eac 8f3e bf35 a53e
00000220: 4e6f bc3e 0736 d83e 105f b23e 58c4 983e
00000230: b6b6 a33e 6ec7 3f3f 5137 9b3e c5d6 b93e
00000240: 47a1 f03e 5dcc 973e 3b36 c33e 498e f93e
00000250: be9b e03e 7360 c33e 3688 e33e b3bd 233f
00000260: 2c6b b83e 1438 cf3e 7bce ce3e 79be 973e
00000270: 1512 ab3e 9d37 f83e 15db 8e3e 3876 d13e
00000280: 049f bc3e 6a9c c33e db3a d93e 7f87 c93e
00000290: ce9c a63e 4923 f53e b620 b03e ad61 c73e
000002a0: 3cc2 b93e cd2c b13e 0e09 cf3e 7eda cf3e
000002b0: 8df9 dc3e 0734 c53e a212 d53e e7db ea3e
000002c0: 40c4 c73e 9456 043f 14ae f13e 7ea9 a93e
000002d0: e13e 853e 4e50 c23e 03ea d03e c0e3 c03e
000002e0: 01c8 923e 33e0 253f 3b29 9c3e 2ca0 b83e
000002f0: ef13 f33e 52b8 993e 9759 a83f 031c c23e
00000300: 28e6 aa3e e2a5 bf3e dc32 c83e 043c ab3e
00000310: 6b59 f33e 4173 ac3e 5386 9f3e 0260 0a3f
00000320: 6887 de3e 8586 c63e 0f28 e43e f05b ba3e
00000330: acbd a43e 706c 9e3e f726 993e 9885 993e
00000340: 1ed7 cf3e d49d ab3e e589 063f 4c59 ae3e
00000350: d8cd e53e 53d6 973e c29b c73e bd04 973e
00000360: 7710 0f3f 5aaf b83e 2cb8 a83e 665e b03e
00000370: 9f66 983e 7e40 a33e 50f9 ab3e 22d5 e93e
00000380: 95be 0d3f 069a a13e 31d9 893e 2ca9 e73e
00000390: 351f af3e f4aa b03e c901 b43e 5deb ad3e
000003a0: e1ba 9a3e 9aa5 963e a970 d43e adf1 e13e
000003b0: 59a1 cf3e 5b7a d33e bedf ad3e 9a9b e73e
000003c0: 6e10 2e3f 1335 d53e d18e ca3e 821d b13e
000003d0: 296b bb3e 40c0 a83e 027f b13e dcba a93e
000003e0: 7377 833e c6a7 963e da6d c93e 1af3 ae3e
000003f0: 7365 a53e 6452 9f3e 8373 b43e cdbf af3e
0.2679461 0.47046724 0.32996753 0.33982477 0.31045806 0.31883365 0.2908855 0.30429456
0.3255718 0.3822926 0.32076615 0.34002227 0.3138562 0.32822916 0.27295676 0.39921337
0.41996628 0.48722818 0.32478654 0.34791994 0.38768116 0.37904415 0.29169574 0.38704506
0.299636 0.286903 0.41767737 0.3625862 0.3068063 0.38425893 0.4514741 0.3217073
0.3952141 0.41452748 0.3262694 0.3274185 0.38365734 0.5000998 0.4158321 0.35697323
0.37187594 0.2781674 0.2995488 0.32611755 0.40664652 0.37180513 0.4128962 0.31063884
0.66182876 0.4976272 0.51839435 0.4070584 0.3020559 0.29504734 0.31391937 0.5151848
0.541907 1.1966518 0.39882565 0.37083372 0.3669177 0.46401903 0.31915274 0.33863872
0.3325095 0.3210528 0.35490656 0.38738018 0.5483414 0.4839591 0.39414406 0.5692155
0.40120447 0.6168195 0.36002192 0.34571373 0.33519042 0.34742033 0.35021034 0.3903278
0.37480778 0.37528124 0.3354026 0.31824675 0.31566632 0.36408845 0.34694305 0.41446063
0.2958832 0.4812524 0.26809528 0.3157638 0.71842784 0.32247967 0.32715642 0.42290175
0.36320803 0.31695315 0.3404858 0.34879622 0.30531543 0.35459858 0.3078541 0.3790466
0.38249737 0.389189 0.31461456 0.26571977 0.40530062 0.29875067 0.29657784 0.3242751
0.34964576 0.35694906 0.33654523 0.47649416 0.35279176 0.36017603 0.3957193 0.47260186
0.3115644 0.34317157 0.26004905 0.36364913 0.34837398 0.38857576 0.32521835 0.44268584
0.27101263 0.9827521 0.343771 0.3517068 0.39804772 0.3479418 0.2806124 0.32267568
0.3680367 0.4222872 0.34838152 0.29837298 0.31975335 0.7491368 0.3031564 0.3629667
0.46998045 0.29648104 0.38127312 0.48741367 0.43868822 0.38159522 0.44439858 0.63961333
0.36019266 0.40472472 0.40391907 0.29637507 0.33412233 0.4847993 0.2790152 0.40910506
0.3684007 0.38205272 0.42427716 0.39361188 0.32541507 0.47878483 0.34399956 0.38941708
0.36281002 0.34604493 0.40436596 0.40596384 0.43159142 0.38516256 0.41615778 0.45870897
0.39016914 0.5169461 0.47203124 0.33137125 0.26024535 0.37951893 0.40803537 0.3767376
0.28668216 0.64795226 0.30500206 0.360597 0.47476146 0.30023438 1.3152341 0.37911996
0.3337872 0.37431246 0.39101303 0.33444226 0.47529158 0.33681682 0.3115717 0.54052746
0.43462682 0.38774505 0.44561812 0.36398268 0.32175958 0.30942106 0.2991254 0.29984736
0.4059381 0.3351885 0.5255416 0.34052503 0.4488361 0.29655704 0.3898602 0.29495803
0.558845 0.36071283 0.32953012 0.3444702 0.29765794 0.3188514 0.33588648 0.4567042
0.5536893 0.31562823 0.26923516 0.45246255 0.34203497 0.34505427 0.35157612 0.3396863
0.30220702 0.2942322 0.41492203 0.44129696 0.40552786 0.41304287 0.33959764 0.45235902
0.6799382 0.41642055 0.39562085 0.34592825 0.36605194 0.32959175 0.34667212 0.33150375
0.2567707 0.29424876 0.39341623 0.34169847 0.32303962 0.31117547 0.35244378 0.3432602

bias f4 [256]
00000000: 3a03 8cbe a697 9ebe 30ea f3be fe4f 4ebd
00000010: 44da e8be 7246 d1bd 300e f3bd 0894 15be
00000020: 11d1 14be 001f e3bb 6e50 23bc d4d6 53be
00000030: 508e 7fbe b1f2 d93d f497 153e 21c7 1fbf
00000040: 67ad 78bf 1bd3 fdbe 844d e6bb 0fa8 c8be
00000050: 3b9a e8bd 1c94 36be f0e8 b5bd 347c cdbe
00000060: 1050 813e 8bb3 07bf 7b7d 6dbe b122 c3bc
00000070: accb 40be 53e5 0dbe f8aa 013c f24f 0bbf
00000080: dc47 a1be aef8 8abf 5533 9ebe 5a14 1e3d
00000090: 4fdd 88bd 9e06 35bf 6473 adbe 522e 13bf
000000a0: 72ea ecbe bc67 bdbe dcf7 743e ed6d 91be
000000b0: aaa6 40be 0080 12bc 1270 94bd e7dd 3dbf
000000c0: 6c80 05bd 3632 27bf d036 62bf 7ada 45bf
000000d0: 5fa7 9cbd 6ef8 b4be a2ff 09be 9ed6 edbe
000000e0: 90cb a1be 628c 64be aa76 2ebf 2aa7 96be
000000f0: c8a8 3dbe 5db3 1fbf 3b0b 45bd 8eb1 56be
00000100: d625 dfbd aa00 38bf a003 08bf 5dfe 04bf
00000110: f08e ae3c c1ef d9be e887 5bbf 86c8 aebe
00000120: e2c4 5fbe d822 06be 94e1 7b3d bd21 f9be
00000130: 4028 44bc a4c3 e1be 2c7c 15be fa8c 63be
00000140: f4bc 84be 4b9e b3bd 285e 72be a0d3 98be
00000150: 8e9a 3a3d e111 c0be f838 b1be 7466 9dbe
00000160: 5c0b 7ebd 49cc 45be d28f 023e 0e05 bcbe
00000170: a409 213d 49dd 46be 4cca 383d a41f b6be
00000180: a983 13bf 1474 87be d957 debd a067 ffbd
00000190: b9ee 6abe 4e47 383e 7c06 e6be 2ba3 fabe
000001a0: 9bd2 09be 80f7 4a3e 24da 8e3e 3925 02bf
000001b0: 2894 ef3c 79d7 96bd 704f a5be b8c1 20bf
000001c0: 06ec 81be a34c 45be 746a 22bf ed71 53bf
000001d0: 1d16 53bf ab91 95be a1c2 48bf 770f 97bf
000001e0: e90a 48bd 97c0 f9be 1865 06be dbe6 8fbe
000001f0: c417 a3be aede cdbe 6c8c dcbd 6e92 03bf
00000200: 853b 00bf 58b5 bfbe 92ea 2dbd 605f e03c
00000210: 75eb abbd 2093 c4be ca07 40bd c001 38bb
00000220: 4c3e c0be 925a 93be d430 c2be 9a93 51be
00000230: 51e8 d6be 7bbe e2be 7f5f a7be 893a debd
00000240: ec4b c4be 1b6a 103d e87f e7be 7456 99be
00000250: 4574 17be 157a 5cbf a872 ecbe 1696 acbe
00000260: 0b91 33be 4dc2 92be 96de 89be 2738 cfbd
00000270: 6778 b4be b860 49be fa47 bdbe ec05 19bd
00000280: eeaa afbd acc8 00be a5cf be3d ecba 96bd
00000290: 0d75 cfbe 556c 8dbe 4a3a 4cbe 2f24 adbe
000002a0: 6444 9dbd 0530 8bbe f9f6 9ebd 90dd bcbe
000002b0: c4be de3d e8f0 cfbc 8160 4dbe 52d8 74be
000002c0: 62cc 0ebf 4694 42be 3962 81be 7073 0bbe
000002d0: e5de 813e 587c d0be 1043 d2be 22eb 4f3c
000002e0: 2120 e5be 2760 bdbe e50a 26bf b0a5 133e
000002f0: 02c9 1abe 09d4 aabe ee9a fd3e 2cc3 04bf
00000300: 9758 63bf aaa5 0abe a2fe a6be 328c 02be
00000310: 02ea 4bbf 049b 49be a162 88be 921d 4ebf
00000320: 6272 d2be 60bb dcbe 7e6e a9be e7f1 e6bd
00000330: 700c d7bd 13f2 1fbe 4ea6 0bbd b665 093e
00000340: ac68 0fbe d82a 6abe ba6c 05be 4e46 20be
00000350: a89f 23bd 341b 93be 3b46 82be 40f5 08bf
00000360: 8ea6 eabd 5a0f 73be 3855 74be f6aa 1abe
00000370: a518 7fbd e35b 803e 7940 03be d2a3 a0be
00000380: 1863 6abe da75 32be 6dcb 19be 23b1 94be
00000390: dfbd dbbe fa88 e0bd be6a 4abe 9f53 59be
000003a0: 8445 b6bd 9b12 ccbd 7095 0abf a491 4abf
000003b0: 20d9 d0be 56d9 88be 7c6b dabe 49a5 d1bd
000003c0: e290 c6be a76d 14bf 8e8d 30be 66bb 9ebe
000003d0: 3669 13be 7060 df3d 622d 57bf 4da1 09be
000003e0: ef3d 1fbe cec8 04bf fe8b 46bd 1f4e bcbd
000003f0: e6e8 76bf b69b 0dbf 65d8 02be 1183 19bf
-0.27346212 -0.30975074 -0.47639608 -0.050369255 -0.45479023 -0.102185145 -0.118679404 -0.1460725
-0.14532878 -0.0069311857 -0.009967906 -0.20687419 -0.24956632 0.10641993 0.14608747 -0.6241322
-0.9713959 -0.49575123 -0.0070282836 -0.3919072 -0.11357542 -0.17829937 -0.0888232 -0.40133822
0.25256395 -0.53008336 -0.23192398 -0.023820253 -0.18827695 -0.13857011 0.007914297 -0.5441886
-0.31500137 -1.0857141 -0.30898538 0.038593628 -0.06682836 -0.7071322 -0.338771 -0.57492554
-0.46272618 -0.36993206 0.23922676 -0.2840418 -0.18813577 -0.00894165 -0.07247938 -0.7416672
-0.032593176 -0.6531099 -0.8836489 -0.77286494 -0.07649111 -0.35345787 -0.13476422 -0.46452802
-0.31600618 -0.22319177 -0.68149817 -0.2942441 -0.18521416 -0.6238306 -0.048106413 -0.20966169
-0.108958885 -0.71876013 -0.5313053 -0.5195063 0.021308392 -0.4256573 -0.8575425 -0.34137362
-0.21852449 -0.1309923 0.061494425 -0.48658553 -0.011972487 -0.44094574 -0.14598149 -0.22221747
-0.2592541 -0.08770426 -0.2366873 -0.29848957 0.04555755 -0.3751364 -0.34613776 -0.30742228
-0.062022552 -0.1931621 0.12750176 -0.36722606 0.039315835 -0.19420351 0.0451148 -0.35571015
-0.5762277 -0.26455748 -0.10856599 -0.12470937 -0.22942628 0.1799595 -0.44926822 -0.48952612
-0.13459246 0.19820976 0.27900803 -0.5083805 0.029245451 -0.07365317 -0.32287169 -0.6279559
-0.25375384 -0.19267516 -0.63443685 -0.8259571 -0.8245562 -0.29212698 -0.7842198 -1.1801594
-0.04883853 -0.48779747 -0.13124502 -0.28105816 -0.3185407 -0.40208954 -0.10768971 -0.5139531
-0.5009082 -0.37443042 -0.04246003 0.027389228 -0.08394519 -0.38393497 -0.04688243 -0.0028077215
-0.3754753 -0.28780037 -0.37927878 -0.20466462 -0.41974118 -0.4428595 -0.32690045 -0.108510084
-0.38339174 0.03525744 -0.45214772 -0.2994877 -0.14790447 -0.8612378 -0.46181226 -0.33708256
-0.17535798 -0.28663865 -0.26927632 -0.10118132 -0.3524811 -0.19665802 -0.36968976 -0.037359163
-0.08577524 -0.1257655 0.09316949 -0.07359871 -0.4051899 -0.27621713 -0.1994411 -0.33816668
-0.0767906 -0.27185073 -0.0776195 -0.3688779 0.108762294 -0.025383428 -0.20056345 -0.23910645
-0.55780613 -0.19001874 -0.2527025 -0.13618255 0.25365368 -0.40719867 -0.4106679 0.012690337
-0.44751075 -0.3698742 -0.64860374 0.14418674 -0.15115741 -0.33364895 0.49532264 -0.5186031
-0.8880705 -0.13539758 -0.32616144 -0.12748793 -0.7965394 -0.1968804 -0.26637748 -0.8051387
-0.41102892 -0.43111706 -0.3309211 -0.11276608 -0.10500419 -0.15619688 -0.034094147 0.13417706
-0.14004773 -0.22867906 -0.13029757 -0.15651819 -0.039947182 -0.28731692 -0.25444207 -0.5349922
-0.11457549 -0.23736325 -0.23860633 -0.15104279 -0.062279362 0.25070104 -0.12817563 -0.31374985
-0.22889364 -0.1742777 -0.15019007 -0.29041395 -0.42918298 -0.10963626 -0.19767281 -0.21223305
-0.08899978 -0.09964486 -0.54134274 -0.7912848 -0.40790653 -0.26728314 -0.4266013 -0.10236604
-0.38782412 -0.57979816 -0.17241499 -0.3100235 -0.14395604 0.10907066 -0.84053624 -0.13440438
-0.1555097 -0.51868904 -0.04847335 -0.09194588 -0.96449125 -0.5531572 -0.1277786 -0.59965616

mean f4 [256]
00000000: 0000 0000 0000 0000 0000 0000 0000 0000
00000010: 0000 0000 0000 0000 0000 0000 0000 0000
00000020: 0000 0000 0000 0080 0000 0000 0000 0000
00000030: 0000 0000 0000 0000 0000 0000 0000 0000
00000040: 0000 0000 0000 0000 0000 0000 0000 0000
00000050: 0000 0000 0000 0000 0000 0000 0000 0000
00000060: 0000 0080 0000 0000 0000 0000 0000 0080
00000070: 0000 0000 0000 0000 0000 0000 0000 0000
00000080: 0000 0000 0000 0000 0000 0000 0000 0000
00000090: 0000 0000 0000 0000 0000 0000 0000 0000
000000a0: 0000 0000 0000 0000 0000 0080 0000 0000
000000b0: 0000 0000 0000 0080 0000 0000 0000 0000
000000c0: 0000 0080 0000 0000 0000 0000 0000 0000
000000d0: 0000 0000 0000 0000 0000 0000 0000 0000
000000e0: 0000 0000 0000 0080 0000 0000 0000 0000
000000f0: 0000 0000 0000 0000 0000 0000 0000 0000
00000100: 0000 0000 0000 0000 0000 0000 0000 0000
00000110: 0000 0080 0000 0000 0000 0000 0000 0000
00000120: 0000 0000 0000 0080 0000 0080 0000 0000
00000130: 0000 0080 0000 0000 0000 0000 0000 0000
00000140: 0000 0000 0000 0000 0000 0000 0000 0000
00000150: 0000 0080 0000 0000 0000 0000 0000 0000
00000160: 0000 0000 0000 0000 0000 0080 0000 0000
00000170: 0000 0080 0000 0000 0000 0000 0000 0000
00000180: 0000 0000 0000 0000 0000 0000 0000 0000
00000190: 0000 0000 0000 0080 0000 0000 0000 0000
000001a0: 0000 0000 0000 0080 0000 0080 0000 0000
000001b0: 0000 0080 0000 0000 0000 0000 0000 0000
000001c0: 0000 0000 0000 0000 0000 0000 0000 0000
000001d0: 0000 0000 0000 0000 0000 0000 0000 0000
000001e0: 0000 0080 0000 0000 0000 0000 0000 0000
000001f0: 0000 0000 0000 0000 0000 0000 0000 0000
00000200: 0000 0000 0000 0000 0000 0000 0000 0080
00000210: 0000 0000 0000 0000 0000 0000 0000 0000
00000220: 0000 0000 0000 0000 0000 0000 0000 0000
00000230: 0000 0000 0000 0000 0000 0000 0000 0000
00000240: 0000 0000 0000 0000 0000 0000 0000 0000
00000250: 0000 0000 0000 0000 0000 0000 0000 0080
00000260: 0000 0000 0000 0000 0000 0000 0000 0000
00000270: 0000 0000 0000 0080 0000 0000 0000 0080
00000280: 0000 0000 0000 0000 0000 0080 0000 0000
00000290: 0000 0000 0000 0000 0000 0000 0000 0000
000002a0: 0000 0080 0000 0000 0000 0000 0000 0000
000002b0: 0000 0080 0000 0000 0000 0000 0000 0000
000002c0: 0000 0000 0000 0000 0000 0000 0000 0000
000002d0: 0000 0080 0000 0000 0000 0000 0000 0080
000002e0: 0000 0000 0000 0000 0000 0000 0000 0080
000002f0: 0000 0000 0000 0000 0000 0080 0000 0000
00000300: 0000 0000 0000 0000 0000 0000 0000 0000
00000310: 0000 0000 0000 0000 0000 0000 0000 0000
00000320: 0000 0000 0000 0000 0000 0000 0000 0000
00000330: 0000 0000 0000 0000 0000 0000 0000 0080
00000340: 0000 0000 0000 0000 0000 0080 0000 0000
00000350: 0000 0000 0000 0000 0000 0000 0000 0000
00000360: 0000 0000 0000 0000 0000 0000 0000 0000
00000370: 0000 0000 0000 0080 0000 0000 0000 0000
00000380: 0000 0000 0000 0000 0000 0000 0000 0000
00000390: 0000 0000 0000 0000 0000 0000 0000 0000
000003a0: 0000 0000 0000 0080 0000 0000 0000 0000
000003b0: 0000 0000 0000 0000 0000 0000 0000 0080
000003c0: 0000 0000 0000 0000 0000 0000 0000 0000
000003d0: 0000 0000 0000 0080 0000 0000 0000 0000
000003e0: 0000 0000 0000 0000 0000 0000 0000 0000
000003f0: 0000 0000 0000 0000 0000 0080 0000 0000
0.0 0.0 0.0 0.0 0.0 0.0 0.0 0.0
0.0 -0.0 0.0 0.0 0.0 0.0 0.0 0.0
0.0 0.0 0.0 0.0 0.0 0.0 0.0 0.0
-0.0 0.0 0.0 -0.0 0.0 0.0 0.0 0.0
0.0 0.0 0.0 0.0 0.0 0.0 0.0 0.0
0.0 0.0 -0.0 0.0 0.0 -0.0 0.0 0.0
-0.0 0.0 0.0 0.0 0.0 0.0 0.0 0.0
0.0 -0.0 0.0 0.0 0.0 0.0 0.0 0.0
0.0 0.0 0.0 0.0 -0.0 0.0 0.0 0.0
0.0 -0.0 -0.0 0.0 -0.0 0.0 0.0 0.0
0.0 0.0 0.0 0.0 -0.0 0.0 0.0 0.0
0.0 0.0 -0.0 0.0 -0.0 0.0 0.0 0.0
0.0 0.0 0.0 0.0 0.0 -0.0 0.0 0.0
0.0 -0.0 -0.0 0.0 -0.0 0.0 0.0 0.0
0.0 0.0 0.0 0.0 0.0 0.0 0.0 0.0
-0.0 0.0 0.0 0.0 0.0 0.0 0.0 0.0
0.0 0.0 0.0 -0.0 0.0 0.0 0.0 0.0
0.0 0.0 0.0 0.0 0.0 0.0 0.0 0.0
0.0 0.0 0.0 0.0 0.0 0.0 0.0 -0.0
0.0 0.0 0.0 0.0 0.0 -0.0 0.0 -0.0
0.0 0.0 -0.0 0.0 0.0 0.0 0.0 0.0
-0.0 0.0 0.0 0.0 -0.0 0.0 0.0 0.0
0.0 0.0 0.0 0.0 -0.0 0.0 0.0 -0.0
0.0 0.0 0.0 -0.0 0.0 0.0 -0.0 0.0
0.0 0.0 0.0 0.0 0.0 0.0 0.0 0.0
0.0 0.0 0.0 0.0 0.0 0.0 0.0 -0.0
0.0 0.0 -0.0 0.0 0.0 0.0 0.0 0.0
0.0 0.0 0.0 0.0 0.0 -0.0 0.0 0.0
0.0 0.0 0.0 0.0 0.0 0.0 0.0 0.0
0.0 -0.0 0.0 0.0 0.0 0.0 0.0 -0.0
0.0 0.0 0.0 0.0 0.0 -0.0 0.0 0.0
0.0 0.0 0.0 0.0 0.0 0.0 -0.0 0.0

var f4 [256]
00000000: 0000 803f 0000 803f 0000 803f 0000 803f
00000010: 0000 803f 0000 803f 0000 803f 0000 803f
00000020: 0000 803f 0000 803f 0000 803f 0000 803f
00000030: 0000 803f 0000 803f 0000 803f 0000 803f
00000040: 0000 803f 0000 803f 0000 803f 0000 803f
00000050: 0000 803f 0000 803f 0000 803f 0000 803f
00000060: 0000 803f 0000 803f 0000 803f 0000 803f
00000070: 0000 803f 0000 803f 0000 803f 0000 803f
00000080: 0000 803f 0000 803f 0000 803f 0000 803f
00000090: 0000 803f 0000 803f 0000 803f 0000 803f
000000a0: 0000 803f 0000 803f 0000 803f 0000 803f
000000b0: 0000 803f 0000 803f 0000 803f 0000 803f
000000c0: 0000 803f 0000 803f 0000 803f 0000 803f
000000d0: 0000 803f 0000 803f 0000 803f 0000 803f
000000e0: 0000 803f 0000 803f 0000 803f 0000 803f
000000f0: 0000 803f 0000 803f 0000 803f 0000 803f
00000100: 0000 803f 0000 803f 0000 803f 0000 803f
00000110: 0000 803f 0000 803f 0000 803f 0000 803f
00000120: 0000 803f 0000 803f 0000 803f 0000 803f
00000130: 0000 803f 0000 803f 0000 803f 0000 803f
00000140: 0000 803f 0000 803f 0000 803f 0000 803f
00000150: 0000 803f 0000 803f 0000 803f 0000 803f
00000160: 0000 803f 0000 803f 0000 803f 0000 803f
00000170: 0000 803f 0000 803f 0000 803f 0000 803f
00000180: 0000 803f 0000 803f 0000 803f 0000 803f
00000190: 0000 803f 0000 803f 0000 803f 0000 803f
000001a0: 0000 803f 0000 803f 0000 803f 0000 803f
000001b0: 0000 803f 0000 803f 0000 803f 0000 803f
000001c0: 0000 803f 0000 803f 0000 803f 0000 803f
000001d0: 0000 803f 0000 803f 0000 803f 0000 803f
000001e0: 0000 803f 0000 803f 0000 803f 0000 803f
000001f0: 0000 803f 0000 803f 0000 803f 0000 803f
00000200: 0000 803f 0000 803f 0000 803f 0000 803f
00000210: 0000 803f 0000 803f 0000 803f 0000 803f
00000220: 0000 803f 0000 803f 0000 803f 0000 803f
00000230: 0000 803f 0000 803f 0000 803f 0000 803f
00000240: 0000 803f 0000 803f 0000 803f 0000 803f
00000250: 0000 803f 0000 803f 0000 803f 0000 803f
00000260: 0000 803f 0000 803f 0000 803f 0000 803f
00000270: 0000 803f 0000 803f 0000 803f 0000 803f
00000280: 0000 803f 0000 803f 0000 803f 0000 803f
00000290: 0000 803f 0000 803f 0000 803f 0000 803f
000002a0: 0000 803f 0000 803f 0000 803f 0000 803f
000002b0: 0000 803f 0000 803f 0000 803f 0000 803f
000002c0: 0000 803f 0000 803f 0000 803f 0000 803f
000002d0: 0000 803f 0000 803f 0000 803f 0000 803f
000002e0: 0000 803f 0000 803f 0000 803f 0000 803f
000002f0: 0000 803f 0000 803f 0000 803f 0000 803f
00000300: 0000 803f 0000 803f 0000 803f 0000 803f
00000310: 0000 803f 0000 803f 0000 803f 0000 803f
00000320: 0000 803f 0000 803f 0000 803f 0000 803f
00000330: 0000 803f 0000 803f 0000 803f 0000 803f
00000340: 0000 803f 0000 803f 0000 803f 0000 803f
00000350: 0000 803f 0000 803f 0000 803f 0000 803f
00000360: 0000 803f 0000 803f 0000 803f 0000 803f
00000370: 0000 803f 0000 803f 0000 803f 0000 803f
00000380: 0000 803f 0000 803f 0000 803f 0000 803f
00000390: 0000 803f 0000 803f 0000 803f 0000 803f
000003a0: 0000 803f 0000 803f 0000 803f 0000 803f
000003b0: 0000 803f 0000 803f 0000 803f 0000 803f
000003c0: 0000 803f 0000 803f 0000 803f 0000 803f
000003d0: 0000 803f 0000 803f 0000 803f 0000 803f
000003e0: 0000 803f 0000 803f 0000 803f 0000 803f
000003f0: 0000 803f 0000 803f 0000 803f 0000 803f
1.0 1.0 1.0 1.0 1.0 1.0 1.0 1.0
1.0 1.0 1.0 1.0 1.0 1.0 1.0 1.0
1.0 1.0 1.0 1.0 1.0 1.0 1.0 1.0
1.0 1.0 1.0 1.0 1.0 1.0 1.0 1.0
1.0 1.0 1.0 1.0 1.0 1.0 1.0 1.0
1.0 1.0 1.0 1.0 1.0 1.0 1.0 1.0
1.0 1.0 1.0 1.0 1.0 1.0 1.0 1.0
1.0 1.0 1.0 1.0 1.0 1.0 1.0 1.0
1.0 1.0 1.0 1.0 1.0 1.0 1.0 1.0
1.0 1.0 1.0 1.0 1.0 1.0 1.0 1.0
1.0 1.0 1.0 1.0 1.0 1.0 1.0 1.0
1.0 1.0 1.0 1.0 1.0 1.0 1.0 1.0
1.0 1.0 1.0 1.0 1.0 1.0 1.0 1.0
1.0 1.0 1.0 1.0 1.0 1.0 1.0 1.0
1.0 1.0 1.0 1.0 1.0 1.0 1.0 1.0
1.0 1.0 1.0 1.0 1.0 1.0 1.0 1.0
1.0 1.0 1.0 1.0 1.0 1.0 1.0 1.0
1.0 1.0 1.0 1.0 1.0 1.0 1.0 1.0
1.0 1.0 1.0 1.0 1.0 1.0 1.0 1.0
1.0 1.0 1.0 1.0 1.0 1.0 1.0 1.0
1.0 1.0 1.0 1.0 1.0 1.0 1.0 1.0
1.0 1.0 1.0 1.0 1.0 1.0 1.0 1.0
1.0 1.0 1.0 1.0 1.0 1.0 1.0 1.0
1.0 1.0 1.0 1.0 1.0 1.0 1.0 1.0
1.0 1.0 1.0 1.0 1.0 1.0 1.0 1.0
1.0 1.0 1.0 1.0 1.0 1.0 1.0 1.0
1.0 1.0 1.0 1.0 1.0 1.0 1.0 1.0
1.0 1.0 1.0 1.0 1.0 1.0 1.0 1.0
1.0 1.0 1.0 1.0 1.0 1.0 1.0 1.0
1.0 1.0 1.0 1.0 1.0 1.0 1.0 1.0
1.0 1.0 1.0 1.0 1.0 1.0 1.0 1.0
1.0 1.0 1.0 1.0 1.0 1.0 1.0 1.0

dense_2/kernel:0 f4 [512, 256]
00000000: df6f 6bbc 0c00 263c 5f5a 86bb d8e1 1bbc
00000010: 5eb2 14bd 3dfd c6bc 4514 cebc 0a98 26bd
00000020: 8902 333b 0431 94bc af0a c33c 8621 303d
00000030: a5b9 bb3b d069 c4bb 8e13 b33c dc85 193d
00000040: 07b6 6b3c 0aea 6fbb 1288 8dbc fdd2 b1bb
00000050: f4f0 b13c 4828 453c e0ae 0dbd f630 d7bb
00000060: 06a7 03bc dc40 15bd 905c 50bb 1e42 a0ba
00000070: 3bcf afbc 7ae6 37bd 0633 e33c 292c 193d
00000080: 7d78 403d 1a43 56bc 25e2 013d 3c0b b43b
00000090: c1be 6fbc 1069 bdbb fd27 31bc bb7f 383b
000000a0: 5279 283d feca bcbc 9445 47bd 16f8 983c
000000b0: 5876 333b 52a5 863c b9ba 0ebd acff 1bbd
000000c0: 6d5f f1bb 6c75 59bc adaa b1bc 0df6 f23b
000000d0: ef45 f4ba 61f8 10bd b50f 1ebd 03c3 b73c
000000e0: 7a72 05bc 55f0 cb3b ec2f 4fbc c0b4 22bd
000000f0: 6207 2abc f4e2 8bbc 6a9e 41bd 78b3 943b
00000100: 0373 6dbc 0495 123d 96c0 8c3b 1c74 ddbc
00000110: b2e9 83bc 492b cbbb 38c9 03bd b817 77bc
00000120: df25 27bc d1bb 543b 1140 dbbc 7d53 61bc
00000130: f8cb 1bbc c63d fcbc e876 813c 2113 99bb
00000140: 5ae4 41bc 6345 8b3c 312f 3b3b fb1e 8fbb
00000150: 4d27 ff3b 6e13 94b7 4c4b 5d3d 9ab3 50bc
00000160: 6d7c 34bc bc8c ddbb e49a 4dbc b976 1cbd
00000170: a91e 6dbb 43ac c5bc 46e2 92bb ea48 a6bc
00000180: 8bf6 863c b826 9abc d9b6 28bc cd9e dcbc
00000190: c8f1 033d 3e6e 813c 866a e1bc 903f a0bc
000001a0: e072 993b 7383 19bd e40e 143b b99c 1dbd
000001b0: 28c2 b53b a49e a03b d31d 213c f337 6e3c
000001c0: 4fe1 48bb bfdf d8bb 190b a1bc f9fa 883b
000001d0: de2a a4bc 6495 bc3b 1c58 bc3c 5d54 41bc
000001e0: a1a3 72bc 88a6 5cbc 506f 133a da43 ba3c
000001f0: f808 143b 692d 5bbb d23e f33a b791 9fbc
00000200: 050b 6cbc 97aa e83b 3ebb 553d 6370 02bc
00000210: 2fb5 093c 3e0c 093d 7e82 8f3c bf74 2dbc
00000220: 6347 4abc 28a9 873c d69f 5a3c 43ad d6bc
00000230: d198 223b 4d81 54bc f00e 37bc 4c8c b33a
00000240: 6adf a7bc 19ef d5bc a944 0ebd 9648 02bc
00000250: b808 5abc e305 f33c be13 3fbc 580d 543b
00000260: 6dd3 993c d006 1f3d d4c0 f0bb c8cb a03c
00000270: 3377 f33c af40 593c 7252 58bc 712b 1b3d
00000280: b0c4 103d 8cf8 dfbc 5652 9b3c a806 79bb
00000290: 43c5 483b 8973 9b3c 6cce 76bb 62e7 a8bc
000002a0: 6ae9 26bd 42ef 3f3c cf64 acbb 0f43 f13b
000002b0: 0b46 333c a4f9 d2ba 4f1e bfbb 3408 b03a
000002c0: b570 8cba 68c1 b2bc 7726 66ba 2882 a8bb
000002d0: 11b6 b9bc 4cbf 243d 9975 0dbc 4266 e43b
000002e0: ee19 ee3a d2e8 993c 3c41 39bc fc93 9bbc
000002f0: 74de 6fbc 0e8f fbbc 2d3f 893b e610 803c
00000300: f2ea 173a 398c 11bc 718b 7cbc 47cd 863b
00000310: 9fd7 0d3d 4f2d 13bd 11aa 8dbc d94b 9dbc
00000320: 3481 16bb 2828 b6bc ed7e 223d cde1 08bc
00000330: 925f 9bbc 11bc 33bc aa3f 003d f238 a3bc
00000340: ba95 56bc e9f3 463c d9bd 883c 0dff c2bb
00000350: 4d79 473d 3294 3ebc bcaf 4b3c 8440 23bd
00000360: 55b1 dfbc 7d66 e4bc b8ed c5bc 3054 0dbd
00000370: 9e05 d1bb 3442 29bb 3caa 233d 9691 733c
00000380: 01dd 1fbc df43 d03b fcff 03bd f83d b3bc
00000390: 482d 68bb b600 293d ed97 a0bc 4957 1e3c
000003a0: eee7 7dbd e9ae 14bc 90c4 9fbc e909 26bd
000003b0: 75ae 64bc 7982 1dbc d107 e6bc 5955 c0bb
000003c0: 304c 923c cbc6 f73c 8151 cfbc 65db 913c
000003d0: fe0d 653d c65f afbc 5220 0bbd 1dc8 a3bc
000003e0: 6576 44bd 9655 71bb eb52 d4ba 3eaa 57bb
000003f0: 4b9d 4dbc 4db5 05bc 6254 a5bb f1a8 353b
-0.014369934 0.010131847 -0.0041001285 -0.009514295 -0.036302917 -0.024290675 -0.02515615 -0.04067234
0.0027314743 -0.018089779 0.023808805 0.04300072 0.0057289177 -0.005994059 0.02185991 0.037481174
0.01438666 -0.0036608004 -0.017276797 -0.005426763 0.02172134 0.01203353 -0.034590602 -0.006567116
-0.008035427 -0.036438808 -0.0031793453 -0.0012226736 -0.02146112 -0.044897534 0.02773429 0.03739563
0.046989907 -0.013077522 0.03170981 0.0054945033 -0.014632882 -0.0057803467 -0.010812757 0.0028152305
0.041131325 -0.023046013 -0.04865034 0.018672984 0.002738377 0.016436253 -0.03484604 -0.038085625
-0.007366112 -0.013272624 -0.02168783 0.0074145854 -0.0018636564 -0.035393123 -0.0385892 0.022431856
-0.008144969 0.006223718 -0.012645703 -0.039723158 -0.010377737 -0.017075993 -0.047270216 0.004537996
-0.014492753 0.035786644 0.004295419 -0.027032904 -0.016102646 -0.0062002284 -0.03217432 -0.015081339
-0.0102019 0.003246058 -0.026763948 -0.013752815 -0.009509079 -0.030791175 0.01580377 -0.00467147
-0.011834228 0.01700086 0.0028562064 -0.004367707 0.0077866674 -1.7652023e-05 0.054026887 -0.012738133
-0.011015994 -0.0067611616 -0.012549136 -0.03819916 -0.0036181605 -0.024129992 -0.0044825403 -0.02029844
0.016474983 -0.01881729 -0.0102975005 -0.02693119 0.032213002 0.015799638 -0.027516615 -0.019561559
0.0046828836 -0.037478875 0.0022591883 -0.03847954 0.005546827 0.004901724 0.009833771 0.0145397065
-0.0030651873 -0.0066184695 -0.019658612 0.004180309 -0.020039972 0.0057551134 0.022991233 -0.011799899
-0.01480952 -0.0134674385 0.0005624192 0.022737432 0.0022588354 -0.0033443815 0.0018558151 -0.019478662
-0.014406924 0.007100414 0.05218052 -0.007961365 0.008405014 0.03345894 0.017518278 -0.0105869165
-0.0123461215 0.016560152 0.013343772 -0.026205665 0.0024810324 -0.012970281 -0.011172995 0.0013698428
-0.020492274 -0.026114987 -0.03473345 -0.007951876 -0.013307743 0.029665893 -0.011662422 0.0032356586
0.018777573 0.038824856 -0.0073472057 0.01962842 0.029719925 0.013260051 -0.01320325 0.037883226
0.035343826 -0.027340196 0.01896016 -0.0037998352 0.0030635155 0.01897599 -0.0037659658 -0.020618144
-0.040749945 0.011714758 -0.0052610408 0.0073627303 0.0109419925 -0.0016096127 -0.0058324705 0.0013430179
-0.0010714742 -0.021820739 -0.00087795354 -0.005142469 -0.022669824 0.040221497 -0.0086339945 0.006970198
0.0018165687 0.018787775 -0.011307057 -0.018991463 -0.014640439 -0.030707862 0.0041884393 0.015633058
0.00057952025 -0.008883529 -0.015414105 0.0041138264 0.03462946 -0.03593188 -0.017293008 -0.019201206
-0.0022965195 -0.022235945 0.039671827 -0.008354616 -0.01896647 -0.0109701315 0.031310715 -0.019924615
-0.013097221 0.012143114 0.016692089 -0.0059508146 0.048699666 -0.011632012 0.012432035 -0.03985645
-0.027306238 -0.027880901 -0.024161205 -0.034504116 -0.0063788434 -0.0025826814 0.03995727 0.014866253
-0.009757281 0.006355747 -0.032226548 -0.021880135 -0.003542738 0.041260444 -0.019603694 0.009664365
-0.061988764 -0.009074905 -0.019502908 -0.040536795 -0.013957609 -0.009613627 -0.028079899 -0.0058695492
0.017858595 0.030246159 -0.025307419 0.01780481 0.055921547 -0.021407973 -0.03396637 -0.019992882
-0.047964472 -0.0036824695 -0.0016199028 -0.0032907869 -0.012549709 -0.008160901 -0.0050454596 0.0027719105

dense_2/bias:0 f4 [256]
00000000: fc5d ccba 0b67 373b 4699 09bb 60b9 d83a
00000010: 77e4 353b 841e 21bc ee41 523b 1ddf da3a
00000020: fa9c 5d3b 7ca7 34bb 97e3 90bb 5eb0 99bb
00000030: a281 ef3a 5c69 323b e6c0 bfbb ae1b 353b
00000040: af58 41bb 6ee6 8238 7cf7 0cbc eeef b73b
00000050: beee d439 eb0a 75bb 4984 b13b 6db0 2cbb
00000060: f142 8aba 0635 513b 06e7 b7ba 7d0c abba
00000070: 3f53 613a cbb4 693a 7d0f 83bb cda5 d03a
00000080: c631 fc3a 8800 26bb 4374 9038 97d4 2c3b
00000090: 7582 293b 3932 1f3b d38a 6dbb df5c 163a
000000a0: 8cee 6fbb 6584 87ba 0b55 653b 6f69 22bb
000000b0: ae5e f1ba edc3 b4ba 7862 b0b9 1363 e0ba
000000c0: b8ca a2ba 51c6 edba 2e13 733b fcbd b03b
000000d0: e322 483b 206a 983b 88b5 8e3b 8bef 2f3b
000000e0: 681c 443b ae9a f838 0168 4bba 25e6 39ba
000000f0: f119 43bb c0c5 67ba 022c 82bb 5554 9c3b
00000100: f665 0bbb 198b 97b9 b1fd 8cbb 96a4 f1ba
00000110: 618d 5439 d467 13bc d892 58bb ed8b 01b9
00000120: 13b8 6c39 4d51 ee3a 9e39 3838 11af 0bbb
00000130: 0ad8 bdbb 6f87 393b e4b9 263b 61f1 aaba
00000140: 26a3 5b3b 3193 7cbb d736 beba 458c 533a
00000150: 59dd d639 dc3c 9a39 cbd4 da3a a8be 07bb
00000160: 3cd5 1f3b 21e0 a5bb d83a 85ba 03c1 5cba
00000170: 22c7 81b6 90b9 163b 533f 20bc 653c 62bb
00000180: 4523 6fba ac2a 7bbb 32dd 45bb 8e58 11bb
00000190: e5f3 1bbb 4d57 67ba 0bd8 6ebb 41ca fe38
000001a0: 7b03 78b9 ac52 07bc b342 bdbb 24d2 073b
000001b0: 6068 f8ba 7fee 173a e691 1b3c 7c3f a7bb
000001c0: ff15 4d3a b565 c9ba a2c0 593b ebbd 0fbb
000001d0: 603c ceba 3712 4039 13a6 c4bb bdb0 cb3b
000001e0: f32f 763b 4750 57bb 26f8 8a39 1868 80bb
000001f0: 6362 80b9 b5c9 b33a 2930 4c3a b75f 8dba
00000200: ccec c039 f9ec 16ba b8bf 633b 9949 cab9
00000210: 62af 98b8 9c6e b0ba 04dd 503b d2b9 94ba
00000220: 47f1 f7b9 112c 723b 60b2 d1bb cf57 8fbb
00000230: 60ab 1939 f014 8cb8 5101 1f3b 695e 7f3b
00000240: 4342 e139 6695 4c3b b653 6a3b 3045 f0b9
00000250: a645 e13b 5593 863b 3663 b23a c795 81b8
00000260: 232b 063b 1e55 543b d4e7 2f3b aae5 c5bb
00000270: b4fd 7b3b 8806 4539 f9ac e73b 68cd 8bbb
00000280: 4ad4 6b3b f692 083b 62bd a7bb fc32 0b3a
00000290: fe18 f8bb d589 3f3b 5bd5 73bb 1abe a5bb
000002a0: f1db 363b 31a3 3fba ea83 c3ba 4add 7a3b
000002b0: 335c b3ba d706 093a 466f 923b ca5b e5b9
000002c0: 3ba7 c13a 3401 88b7 02dc b83a d0a2 13b9
000002d0: bfbe c0bb 390b a83a a4bf 2fbb afc6 623a
000002e0: 1bce 8cba 56a4 0dba 3ce6 973a ae0c 633b
000002f0: 47c2 0b38 ac07 aeba 1346 84ba f104 893b
00000300: 6b10 88ba 00b1 6dbb cebc 853a b0b1 44b9
00000310: 9237 1f3b 9572 5f3b 1bac 9dba 528d c739
00000320: bb88 873b 5bb0 09bb 6fcc 533a 6d97 53bb
00000330: 0c66 ca3b 0a96 bab9 72fc ba39 f882 6cbb
00000340: 02eb 813a 52bb de39 06a5 0eba b298 00bc
00000350: fd93 b33b d4a4 1f3a 7f45 aab9 74cc 763b
00000360: c0db babb 9339 a1bb a084 07bb 7cee 1cbb
00000370: 71d5 ac3a 7a7a ba3a 3500 783b 384c e9ba
00000380: f804 8a3a 76f7 333a 6af1 c73b b653 0fbb
00000390: 39ca 6c3b 1205 56bb 8e2e a7ba 04d6 933b
000003a0: dbac ed3a 8a1d 013b 7e7b cd38 dbe0 e6b7
000003b0: 807d b53a 489c 95b9 219b a4ba c46c 513a
000003c0: f1b7 82ba ea50 85bb e3cb 4f39 51a4 603a
000003d0: c330 9d3b 6a32 1dbb 3f83 4ebb cba9 423b
000003e0: bbcc cbbb 0fac 5abb 2472 aa3b 86ec bc39
000003f0: db8d c6bb 17e9 28bb ccc5 153b fa63 04ba
-0.0015591974 0.0027985002 -0.00209959 0.0016534738 0.0027754584 -0.009833936 0.0032082754 0.0016698573
0.003381549 -0.0027565649 -0.004421662 -0.004690214 0.0018272887 0.0027223444 -0.0058518527 0.0027634907
-0.0029502322 6.241804e-05 -0.008603927 0.0056133186 0.00040613668 -0.003739054 0.005417381 -0.0026350275
-0.0010548515 0.0031922474 -0.0014030642 -0.0013049986 0.00085954735 0.0008915185 -0.003999649 0.0015918553
0.0019240908 -0.0025329906 6.8881105e-05 0.002637183 0.0025865112 0.002429141 -0.0036246076 0.0005735885
-0.003661069 -0.0010339139 0.0034993317 -0.0024782082 -0.0018415058 -0.0013791301 -0.000336427 -0.001711937
-0.0012420034 -0.0018140768 0.003709029 0.0053937417 0.0030538372 0.004651323 0.0043551363 0.002684566
0.0029924158 0.00011854373 -0.0007759333 -0.0007091484 -0.00297701 -0.0008841418 -0.0039725313 0.0047707953
-0.002127049 -0.000289046 -0.0043027033 -0.0018435891 0.00020270563 -0.0089969225 -0.003304651 -0.00012354525
0.00022575287 0.0018182189 4.392268e-05 -0.0021314065 -0.005793576 0.0028309484 0.002544039 -0.0013041907
0.0033513992 -0.0038539881 -0.0014512193 0.0008069913 0.00040982178 0.00029418513 0.0016695497 -0.0020713005
0.0024388572 -0.0050621186 -0.0010164632 -0.0008421095 -3.8676817e-06 0.0022998787 -0.009780723 -0.0034520861
-0.0009122382 -0.0038324995 -0.0030191657 -0.0022178027 -0.0023796496 -0.00088249595 -0.003644469 0.000121493365
-0.0002365242 -0.008259457 -0.0057757734 0.0020724619 -0.0018952005 0.00057957316 0.009495234 -0.0051040035
0.0007823407 -0.0015365394 0.003322639 -0.0021933268 -0.0015734546 0.00018317332 -0.006001243 0.006216137
0.00375652 -0.0032854246 0.00026506296 -0.003918659 -0.00024487366 0.001371673 0.0007789159 -0.0010785972
0.0003679752 -0.00057573576 0.0034751724 -0.00038583277 -7.2805924e-05 -0.0013460699 0.0031870017 -0.0011346883
-0.00047291277 0.0036952535 -0.006399438 -0.0043744813 0.00014655059 -6.67962e-05 0.002426226 0.0038966185
0.00042964713 0.0031216978 0.0035755462 -0.00045827916 0.006874758 0.004106919 0.001360989 -6.1790975e-05
0.0020472489 0.0032399367 0.0026841061 -0.006039341 0.003845078 0.00018789817 0.0070701805 -0.0042664297
0.0035984688 0.0020839549 -0.0051190117 0.00053100265 -0.0075713387 0.0029226441 -0.0037206027 -0.0050580623
0.0027902091 -0.0007310389 -0.0014916633 0.0038278871 -0.0013684094 0.00052271545 0.0044688312 -0.00043746672
0.001477457 -1.6213024e-05 0.0014103653 -0.00014079665 -0.0058821137 0.0012820727 -0.0026817108 0.0008650822
-0.0010742577 -0.0005403211 0.0011589001 0.003464501 3.3321117e-05 -0.0013277433 -0.0010091685 0.0041814973
-0.001038087 -0.003626883 0.0010203363 -0.0001875821 0.0024294597 0.0034095396 -0.0012029441 0.0003806153
0.0041361726 -0.0021009657 0.0008079474 -0.0032286302 0.0061767157 -0.00035588472 0.0003566477 -0.0036088806
0.0009911957 0.00042482704 -0.00054414605 -0.007848905 0.005480288 0.000608993 -0.00032476705 0.0037658485
-0.005702466 -0.0049201935 -0.0020678416 -0.0023945859 0.0013186169 0.0014227175 0.003784192 -0.0017799204
0.0010530045 0.00068651827 0.006101777 -0.0021869964 0.0036131276 -0.003265683 -0.0012754963 0.0045115966
0.001813318 0.0019701445 9.798164e-05 -2.7522843e-05 0.0013846606 -0.00028535933 -0.0012558439 0.00079889246
-0.0009973032 -0.0040684836 0.00019817012 0.0008569407 0.0047970726 -0.0023986348 -0.0031511334 0.0029703255
-0.006219474 -0.0033366715 0.005201595 0.00036034378 -0.006059391 -0.0025773698 0.0022853492 -0.0005050298

scale1 f4 [512]
00000000: 2782 1740 60ec 1c40 67f3 f23f 4624 1d40
00000010: 2f1f 1e40 2415 3740 d1c3 e93f 75c0 2f40
00000020: dce6 1b40 a781 1c40 963d 2f40 d992 1940
00000030: ffe8 1740 7bca 2740 4be0 4840 c32b 2040
00000040: c8b2 3740 0241 1940 8bf2 1640 dab3 1040
00000050: 8a45 4940 075a 2e40 d6c2 2140 031d 0a40
00000060: 9f0d 4d40 7252 4a40 09db 1340 7068 0040
00000070: 63d5 2f40 a9ad 0840 7d52 5340 507c 3e40
00000080: f20d f63f 315f 0e40 132f 0f40 126f e93f
00000090: 4733 2340 e53e 2940 3ceb 4f40 fb21 2d40
000000a0: 4135 2d40 d553 1b40 a26c 5a40 48ce 0140
000000b0: 95d4 0840 167b 3b40 2dfe 3a40 59ac 0e40
000000c0: 1f50 2a40 aaca 2040 7555 0c40 4430 2340
000000d0: 43a0 2340 16eb 1840 8387 0f40 91cc 2e40
000000e0: 0b73 f63f 7eae 0840 98df 1240 f456 0c40
000000f0: c584 0740 88b0 1340 8e21 2b40 d764 2440
00000100: 89dd 1d40 89e6 f93f 47fe 1b40 4b2f 2540
00000110: b284 4440 d47a 0140 222f 2140 f0db 2f40
00000120: e333 1f40 d239 3240 90db 3240 4c8d 2540
00000130: 5245 2440 9008 2940 ac96 1040 f6bc 4540
00000140: 9050 1b40 0dc1 3e40 695c 0840 62c5 0c40
00000150: e35e 0a40 2e6c f53f 3d04 2340 4650 1640
00000160: 4880 2940 a990 1140 7a62 2e40 d912 3240
00000170: cecf 1440 7bca 1d40 8cc8 2a40 ae74 0440
00000180: 2bf0 1040 1618 4840 f1bd fb3f f7a1 f93f
00000190: c1a3 0540 5c8c 3140 376e 0f40 0afa 3240
000001a0: cbdb 2640 8986 3b40 4384 1740 6cf8 1240
000001b0: 6beb 1d40 ed19 0e40 5806 5940 8475 2040
000001c0: d44c 1040 50ae 1e40 6b8f 2f40 e78c f83f
000001d0: b7ae 2840 83bb 2040 194a 3940 4af9 2d40
000001e0: 25ad 2940 6a62 0f40 f0fa 2d40 5a95 5140
000001f0: 79a1 2340 2b0e fb3f 2cd8 2140 ed30 de3f
00000200: 6834 1640 6394 0d40 79fc 4440 a85f fd3f
00000210: 97c2 3340 ab3d 1440 6227 2740 2233 3440
00000220: 9a45 1f40 a690 0e40 66b6 1140 2547 1440
00000230: 7bc6 2140 82a9 0040 6602 5940 5cf6 4d40
00000240: 07c0 3f40 af5f 2240 55b5 0440 5365 1640
00000250: fa04 2c40 27b2 4840 b3a7 0740 1144 1a40
00000260: 6dcd 4640 a01a 2740 743c 1b40 1911 2640
00000270: 2365 3c40 9668 0240 056b 2440 1051 1e40
00000280: ef1f 1940 1d0d f33f cc4a 3b40 a81c 3340
00000290: 07dd 1540 f537 2040 0a1e 0740 8ed8 0240
000002a0: 5199 1440 ef35 0040 0ffe 1b40 81fe 1840
000002b0: e2fc fa3f a8fd 1d40 0460 2140 b5d3 4940
000002c0: 1a68 0240 e20b 2f40 cece 0740 685c 0e40
000002d0: a170 2140 ad7b 0840 cc7b 2340 2b61 1440
000002e0: 4a1a 1840 4c92 4540 f269 3a40 ae8f 3c40
000002f0: 5072 1440 f142 4540 9352 0940 8fb6 0840
00000300: 4b56 4840 7c7a f43f 8eeb 0c40 b4c1 0640
00000310: 6b3c 3a40 f0f2 3d40 a826 2140 761c 3b40
00000320: e5b3 2440 5227 3940 e9c8 0540 d80b f03f
00000330: 38e4 0d40 86dc 0d40 7161 3040 e23f fa3f
00000340: 29b6 3940 1a69 3740 ba5b 1e40 c64f 0c40
00000350: dbc1 1e40 da2b 6940 6f70 1d40 c1bc 2e40
00000360: 10e3 0540 19d9 3640 5d94 3140 a7af 3240
00000370: 4ce7 2440 4b07 1540 80ce 2140 e0e3 4f40
00000380: d808 0240 b7bc 3440 2c66 2840 860f 0040
00000390: d07f fd3f b98e 0a40 74da 3340 1acb 0640
000003a0: f883 3b40 c921 1940 4de8 5440 e6fb 0b40
000003b0: ed5a 1540 a604 f63f f476 0e40 1847 ff3f
000003c0: 2a41 1d40 df30 0f40 d6f9 0f40 de81 1f40
000003d0: f39d 1d40 752c 4940 3880 0e40 86e6 1a40
000003e0: 9982 4e40 c52e 1640 af78 3140 3dc5 0b40
000003f0: 86fd 0d40 0df4 5940 9348 0340 2692 3040
2.3673189 2.4519272 1.898053 2.455339 2.4706533 2.8606653 1.8262883 2.7461216
2.4359655 2.4454134 2.738134 2.3995879 2.373596 2.6217334 3.1386898 2.502671
2.870287 2.3945928 2.3585536 2.2609773 3.1448693 2.7242448 2.5275168 2.1580207
3.2039564 3.161282 2.3102438 2.0063744 2.747399 2.1355994 3.3019097 2.9763374
1.9223006 2.22456 2.2372482 1.8237021 2.5500047 2.6444638 3.2487326 2.705199
2.7063754 2.4269917 3.4128804 2.0282154 2.137975 2.9293876 2.9217637 2.2292693
2.6611402 2.5123696 2.192716 2.549821 2.5566566 2.3893485 2.242646 2.7312357
1.9253858 2.1356502 2.294897 2.1928072 2.1174786 2.3076496 2.673923 2.5686548
2.4666464 1.9523479 2.4373949 2.5810115 3.070599 2.0231218 2.5185018 2.747799
2.487542 2.784779 2.794651 2.586749 2.566731 2.6411476 2.2591963 3.0896583
2.4267921 2.980533 2.1306403 2.1995473 2.1620414 1.9173639 2.5471337 2.3486495
2.6484547 2.2744544 2.7247605 2.7824004 2.3251834 2.4654834 2.6684904 2.0696216
2.2646587 3.12647 1.966734 1.9502553 2.0881197 2.7741919 2.241102 2.7965112
2.607165 2.9300864 2.3674476 2.2964125 2.4674938 2.2203324 3.3910122 2.5071726
2.2546892 2.4793892 2.7431285 1.9418 2.6356637 2.5114448 2.8951476 2.7183404
2.651193 2.2403817 2.718441 3.2747407 2.5567305 1.9613699 2.528819 1.7358681
2.3469486 2.2121818 3.0779097 1.9794817 2.8087518 2.316264 2.6117787 2.815621
2.4886231 2.2275786 2.2767577 2.3168423 2.5277393 2.010346 3.3907714 3.2181616
2.9960954 2.53709 2.0735676 2.3499343 2.6878037 3.1358736 2.1196105 2.4104044
3.1062882 2.611 2.4255648 2.5947936 2.943673 2.0376334 2.569032 2.4736977
2.392574 1.8988377 2.9264402 2.798624 2.3416154 2.5034153 2.1112084 2.0444674
2.3218577 2.0032918 2.4373815 2.3905337 1.9608424 2.468607 2.5214853 3.1535466
2.0376039 2.7351003 2.1219974 2.22439 2.5224993 2.1325486 2.554431 2.3184307
2.3766046 3.0870543 2.9127164 2.9462695 2.319477 3.0822108 2.145665 2.1361425
3.130267 1.9099879 2.201877 2.1055727 2.9099376 2.9679527 2.5179844 2.923612
2.57348 2.893025 2.0903876 1.8753614 2.2170544 2.2165847 2.7559474 1.9550745
2.9017432 2.86579 2.4743485 2.192369 2.480582 3.6433015 2.4599874 2.7302706
2.0919838 2.8570006 2.7746804 2.791971 2.5766172 2.3285701 2.5282288 3.2482834
2.0317898 2.8240182 2.631236 2.0009475 1.980463 2.164961 2.8102083 2.1061463
2.9299297 2.392687 3.3266785 2.1872497 2.3336747 1.9220169 2.2260103 1.9943571
2.4571023 2.2373579 2.2496238 2.4923015 2.4627655 3.1433384 2.2265759 2.42032
3.226721 2.3466046 2.772991 2.1839135 2.2185988 3.4055207 2.0513046 2.7589202
